models/mnist/mnist_static_quant.onnx (onnx, 25136 bytes, 9 tensors)

StatefulPartitionedCall/sequential/dense/MatMul/ReadVariableOp:0_quantized u1 [784, 5]
000000 93 a2 9d 93 a5 a4 99 a2 92 a9 a6 8b 95 a2 95 9f
       147 162 157 147 165 164 153 162 146 169 166 139 149 162 149 159
000010 a0 93 a2 a4 90 8f 9f 91 8d a3 96 a7 8d a1 96 a3
       160 147 162 164 144 143 159 145 141 163 150 167 141 161 150 163
000020 a6 92 aa a0 93 99 9b 8f 96 8f 9e a5 8a a3 91 8f
       166 146 170 160 147 153 155 143 150 143 158 165 138 163 145 143
000030 a8 a5 8c a7 a5 a4 91 9b 9f 9b 93 9c 9a 8c 8d 89
       168 165 140 167 165 164 145 155 159 155 147 156 154 140 141 137
000040 91 8b 82 93 a2 9a a2 8e a3 ad 94 90 80 a9 99 89
       145 139 130 147 162 154 162 142 163 173 148 144 128 169 153 137
000050 90 97 a7 8e 9b 9a 90 95 a7 a3 97 a8 a4 91 92 90
       144 151 167 142 155 154 144 149 167 163 151 168 164 145 146 144
000060 a1 99 9c 93 8a a5 a5 a5 9c a9 8d 9f 97 9e 90 99
       161 153 156 147 138 165 165 165 156 169 141 159 151 158 144 153
000070 8e 9c 92 8e a6 8c 8a 94 90 98 a0 a0 8b 8c 8f 8f
       142 156 146 142 166 140 138 148 144 152 160 160 139 140 143 143
000080 90 a8 9a a3 93 95 95 a2 a5 9c 9c 91 90 9f a6 9b
       144 168 154 163 147 149 149 162 165 156 156 145 144 159 166 155
000090 9f 94 a2 9e 8d a3 a1 8e 9b 91 95 a0 8f a3 a8 8f
       159 148 162 158 141 163 161 142 155 145 149 160 143 163 168 143
0000a0 83 9c 9a 8f a0 71 82 86 8c a6 63 7a 7f 7e 9b 6f
       131 156 154 143 160 113 130 134 140 166 99 122 127 126 155 111
0000b0 8c 8c 88 94 81 70 7c 73 a6 99 67 72 8b 99 7c 82
       140 140 136 148 129 112 124 115 166 153 103 114 139 153 124 130
0000c0 56 77 a7 82 b9 7d 69 6c 7e a0 8a 61 81 b3 a2 95
       86 119 167 130 185 125 105 108 126 160 138 97 129 179 162 149
0000d0 85 7c 79 77 c5 a5 8c 85 67 c4 94 87 9e 65 9b 9b
       133 124 121 119 197 165 140 133 103 196 148 135 158 101 155 155
0000e0 5a b6 78 75 8c 73 7e 67 57 6e 9c 89 81 7a 6d 9b
       90 182 120 117 140 115 126 103 87 110 156 137 129 122 109 155
0000f0 a4 6a 67 6f a7 a6 82 81 93 a4 b7 74 72 8b b0 a0
       164 106 103 111 167 166 130 129 147 164 183 116 114 139 176 160

StatefulPartitionedCall/sequential/dense_1/MatMul/ReadVariableOp:0_quantized u1 [5, 32]
000000 45 88 53 89 b3 7f a8 43 be a9 3f c4 2d 5a 64 1c
       69 136 83 137 179 127 168 67 190 169 63 196 45 90 100 28
000010 34 5a ba d9 9e d3 28 ca 75 67 1b 27 c0 e4 91 a8
       52 90 186 217 158 211 40 202 117 103 27 39 192 228 145 168
000020 89 d4 b6 cd 75 b8 bd 23 55 30 c0 81 00 ae cf 80
       137 212 182 205 117 184 189 35 85 48 192 129 0 174 207 128
000030 5a 50 22 2d 46 98 44 c8 c5 9b 76 90 c9 55 8d d3
       90 80 34 45 70 152 68 200 197 155 118 144 201 85 141 211
000040 f0 be d2 43 78 37 60 be c4 ce a4 2f fd 6f 9f 2a
       240 190 210 67 120 55 96 190 196 206 164 47 253 111 159 42
000050 85 2b 9c 81 89 c1 36 d1 3f 11 ea a6 d9 32 cf 9d
       133 43 156 129 137 193 54 209 63 17 234 166 217 50 207 157
000060 aa 4c 73 7c 28 48 9e ae 58 1b ad 49 24 80 54 34
       170 76 115 124 40 72 158 174 88 27 173 73 36 128 84 52
000070 b5 48 8a 3e ff bb 14 46 27 f6 5f d4 39 78 cb e7
       181 72 138 62 255 187 20 70 39 246 95 212 57 120 203 231
000080 16 23 89 1d d6 90 29 54 e4 87 a9 d8 5e da 62 a1
       22 35 137 29 214 144 41 84 228 135 169 216 94 218 98 161
000090 e3 a4 3d 17 d9 d2 2c 77 a9 35 17 d6 d5 4b 21 31
       227 164 61 23 217 210 44 119 169 53 23 214 213 75 33 49

StatefulPartitionedCall/sequential/dense_1/BiasAdd/ReadVariableOp:0_quantized u1 [32]
000000 41 99 44 bb 5f 77 00 3a 73 ff 44 46 81 bd 6c 3e
       65 153 68 187 95 119 0 58 115 255 68 70 129 189 108 62
000010 93 8b 3b 4b 3f 52 5a 43 4b 3f 5b ac 1f 96 90 9b
       147 139 59 75 63 82 90 67 75 63 91 172 31 150 144 155

StatefulPartitionedCall/sequential/dense_2/MatMul/ReadVariableOp:0_quantized u1 [32, 64]
000000 93 84 97 84 47 3c ba 4a b7 76 60 3f 7a 67 4d 77
       147 132 151 132 71 60 186 74 183 118 96 63 122 103 77 119
000010 47 6b 45 40 a6 45 8a 47 57 41 62 72 b5 51 83 a1
       71 107 69 64 166 69 138 71 87 65 98 114 181 81 131 161
000020 91 ac 94 96 91 8b 53 7c 63 62 49 94 4e 38 46 49
       145 172 148 150 145 139 83 124 99 98 73 148 78 56 70 73
000030 4b 88 19 6b 62 c0 83 43 a9 b2 89 54 40 5c 64 80
       75 136 25 107 98 192 131 67 169 178 137 84 64 92 100 128
000040 79 6f be 49 8f 3e a9 93 70 8d 8c 6c 68 51 26 7c
       121 111 190 73 143 62 169 147 112 141 140 108 104 81 38 124
000050 a5 4a ab 78 b1 7d 87 7e a0 85 46 85 b7 59 4d 56
       165 74 171 120 177 125 135 126 160 133 70 133 183 89 77 86
000060 b0 5a 58 70 77 83 4b 9e 95 4e 29 5d 58 79 34 a4
       176 90 88 112 119 131 75 158 149 78 41 93 88 121 52 164
000070 af 8e 55 7f 4b 8b 72 a9 5c 5f b2 a0 27 7e 2d a4
       175 142 85 127 75 139 114 169 92 95 178 160 39 126 45 164
000080 5f 45 c8 4b 59 62 a7 60 9e 9d 5e 3b 52 8d 84 88
       95 69 200 75 89 98 167 96 158 157 94 59 82 141 132 136
000090 80 39 95 76 6c 7a 66 59 80 a1 70 80 7d 93 51 8f
       128 57 149 118 108 122 102 89 128 161 112 128 125 147 81 143
0000a0 99 94 76 a6 5e 57 a7 c8 76 70 6b 94 92 80 7a 65
       153 148 118 166 94 87 167 200 118 112 107 148 146 128 122 101
0000b0 64 65 7d 8d 47 67 8c 60 86 be 89 57 48 37 39 95
       100 101 125 141 71 103 140 96 134 190 137 87 72 55 57 149
0000c0 9d 77 77 ad ce 5f 78 9b 72 8e a4 be 97 60 92 30
       157 119 119 173 206 95 120 155 114 142 164 190 151 96 146 48
0000d0 6b 6d 7c 7d 6d 70 88 7d ab 59 55 aa 76 6c 8d 59
       107 109 124 125 109 112 136 125 171 89 85 170 118 108 141 89
0000e0 6a 8c 82 2a 65 84 8c 95 53 44 44 b8 4b 94 5b 49
       106 140 130 42 101 132 140 149 83 68 68 184 75 148 91 73
0000f0 79 5e 40 2c 7c 40 5f 99 78 8a bb 64 3b b0 8c 9d
       121 94 64 44 124 64 95 153 120 138 187 100 59 176 140 157

StatefulPartitionedCall/sequential/dense_2/BiasAdd/ReadVariableOp:0_quantized u1 [64]
000000 d0 88 b7 9e aa 96 5c dc 82 61 00 b8 b9 b8 68 7e
       208 136 183 158 170 150 92 220 130 97 0 184 185 184 104 126
000010 82 a6 e1 bc 8e 96 c1 5f 97 ab 82 e9 8b d0 a3 64
       130 166 225 188 142 150 193 95 151 171 130 233 139 208 163 100
000020 cb 60 bc 5e 93 8f 66 c5 7c 7f 6c ca 8d 88 88 b1
       203 96 188 94 147 143 102 197 124 127 108 202 141 136 136 177
000030 c6 64 53 61 87 28 8b ff dc 4c b1 a3 6c 82 84 aa
       198 100 83 97 135 40 139 255 220 76 177 163 108 130 132 170

StatefulPartitionedCall/sequential/dense_3/MatMul/ReadVariableOp:0_quantized u1 [64, 32]
000000 89 8a 80 e2 c0 7e 66 5e c5 8f 96 94 cf 8d 4c b7
       137 138 128 226 192 126 102 94 197 143 150 148 207 141 76 183
000010 a4 b7 90 b5 37 79 cc 6b 8e 71 b7 56 64 99 ba b0
       164 183 144 181 55 121 204 107 142 113 183 86 100 153 186 176
000020 9c b4 59 94 72 b9 8e ad bc 71 5e 69 ab 77 74 a1
       156 180 89 148 114 185 142 173 188 113 94 105 171 119 116 161
000030 87 5d ae 81 72 d0 9c 8d 8c 9e 65 90 97 80 9e 6f
       135 93 174 129 114 208 156 141 140 158 101 144 151 128 158 111
000040 94 89 8e c1 90 a9 80 6f 92 7c 45 79 a0 2e 5c 89
       148 137 142 193 144 169 128 111 146 124 69 121 160 46 92 137
000050 4c 65 51 9f 62 8f c9 7b 5f 60 92 71 7f c6 92 33
       76 101 81 159 98 143 201 123 95 96 146 113 127 198 146 51
000060 6d f1 96 a6 50 88 dc 96 9c bc 77 73 69 d7 4f 68
       109 241 150 166 80 136 220 150 156 188 119 115 105 215 79 104
000070 95 a2 90 d2 79 bb 57 55 8f be a2 6d 6c af 83 c5
       149 162 144 210 121 187 87 85 143 190 162 109 108 175 131 197
000080 6b d2 53 83 84 6e 59 35 50 62 64 4d 3d ca 9e 77
       107 210 83 131 132 110 89 53 80 98 100 77 61 202 158 119
000090 87 84 c2 d8 d4 48 9f 92 60 a6 7b 83 69 a1 6a 96
       135 132 194 216 212 72 159 146 96 166 123 131 105 161 106 150
0000a0 5f 82 7c 94 56 b8 4d 95 49 dc 62 b9 61 7b 65 9b
       95 130 124 148 86 184 77 149 73 220 98 185 97 123 101 155
0000b0 a0 78 8a 7e 65 97 4e b7 47 7b 54 49 c2 44 98 88
       160 120 138 126 101 151 78 183 71 123 84 73 194 68 152 136
0000c0 eb 9c a0 75 c8 8d 8d a0 ba 9e 97 34 87 76 bf 4e
       235 156 160 117 200 141 141 160 186 158 151 52 135 118 191 78
0000d0 a9 5d 5b ad 46 a9 88 61 79 82 90 67 ac 62 90 7f
       169 93 91 173 70 169 136 97 121 130 144 103 172 98 144 127
0000e0 8d d1 73 a7 78 69 69 5e b8 b8 61 5c 5f 67 4c 93
       141 209 115 167 120 105 105 94 184 184 97 92 95 103 76 147
0000f0 80 9c bc d1 42 71 4e c2 68 91 91 29 c9 c6 96 93
       128 156 188 209 66 113 78 194 104 145 145 41 201 198 150 147

StatefulPartitionedCall/sequential/dense_3/BiasAdd/ReadVariableOp:0_quantized u1 [32]
000000 1a a1 58 e4 3e 5a 2b 3f 28 e5 7b 85 60 00 13 5e
       26 161 88 228 62 90 43 63 40 229 123 133 96 0 19 94
000010 aa ad 88 e1 63 15 5e b2 c1 bf ff 4e 52 45 b1 2d
       170 173 136 225 99 21 94 178 193 191 255 78 82 69 177 45

StatefulPartitionedCall/sequential/dense_4/MatMul/ReadVariableOp:0_quantized u1 [32, 10]
000000 dd 2e 7a 4b b9 51 60 78 9e cc 70 4f 74 af 6a b9
       221 46 122 75 185 81 96 120 158 204 112 79 116 175 106 185
000010 76 c1 c5 1f 69 b8 41 8f 8b 88 23 be 75 54 4b 50
       118 193 197 31 105 184 65 143 139 136 35 190 117 84 75 80
000020 af d5 37 5a 28 52 b1 46 39 5d 5e b0 b1 6d 3f d4
       175 213 55 90 40 82 177 70 57 93 94 176 177 109 63 212
000030 c1 a5 4a bd 57 7f c2 7b a0 63 a8 27 b6 d7 75 6e
       193 165 74 189 87 127 194 123 160 99 168 39 182 215 117 110
000040 64 48 9b 99 9c 1d 9b 39 9c 37 88 5e e0 56 b8 31
       100 72 155 153 156 29 155 57 156 55 136 94 224 86 184 49
000050 3b cd 8b 48 2c 59 6c a0 b2 da 7a 42 e9 40 52 4e
       59 205 139 72 44 89 108 160 178 218 122 66 233 64 82 78
000060 72 ad 57 4d 53 80 8b 57 d4 5d 67 60 42 ce 74 d2
       114 173 87 77 83 128 139 87 212 93 103 96 66 206 116 210
000070 73 54 c9 4a 6f 6f 75 47 6d a6 b5 d8 63 10 59 a9
       115 84 201 74 111 111 117 71 109 166 181 216 99 16 89 169
000080 a7 95 c9 5c 71 ac 77 5d a0 35 6a ac 3c 33 45 3d
       167 149 201 92 113 172 119 93 160 53 106 172 60 51 69 61
000090 aa 52 68 ff 34 b3 3a ca bd c3 66 9d df 5f ba 88
       170 82 104 255 52 179 58 202 189 195 102 157 223 95 186 136
0000a0 9d 56 ae 95 74 1e 21 a5 6b 7c 5d 8d a2 85 b7 89
       157 86 174 149 116 30 33 165 107 124 93 141 162 133 183 137
0000b0 ab 9f 7b 0f 91 6a bf cc 5f 40 54 b9 42 1e 62 39
       171 159 123 15 145 106 191 204 95 64 84 185 66 30 98 57
0000c0 9d ad 5c a4 16 82 56 7c 6e 3e 6d 97 a4 33 c2 65
       157 173 92 164 22 130 86 124 110 62 109 151 164 51 194 101
0000d0 7a 29 d1 ea af 57 44 48 61 d2 40 0f 2f e2 35 ab
       122 41 209 234 175 87 68 72 97 210 64 15 47 226 53 171
0000e0 83 d0 5b f2 c2 65 5f 92 e5 3d 92 c1 af 7c 8e 2e
       131 208 91 242 194 101 95 146 229 61 146 193 175 124 142 46
0000f0 6b 2f 85 4f c2 43 a9 f7 74 56 aa 5e 86 c3 cc 61
       107 47 133 79 194 67 169 247 116 86 170 94 134 195 204 97

StatefulPartitionedCall/sequential/dense_4/BiasAdd/ReadVariableOp:0_quantized u1 [10]
000000 00 3d ff ba 43 be 1e 65 84 41
       0 61 255 186 67 190 30 101 132 65
