demo/wind_speed/wind_speed.tflite (tflite, 5208 bytes, 4 tensors)

sequential/dense1/MatMul i1 [10, 9] scale=0.006641573 zero_point=0
0.19260561 0.7969887 0.41177753 -0.25902134 -0.3187955 -0.50475955 0.4914764 0.52468425
0.039849438 -0.006641573 -0.35864493 0.06641573 -0.37856966 0.0 0.4383438 -0.2191719
-0.3918528 -0.30551234 -0.013283146 -0.84347975 -0.19924718 0.013283146 -0.079698876 0.32543707
-0.52468425 0.47155166 -0.20588876 -0.09298202 0.0 0.059774157 0.3187955 -0.053132582
-0.43170223 -0.29887077 -0.2656629 -0.04649101 -0.5313258 -0.04649101 -0.21253033 -0.57781684
-0.25237978 0.013283146 0.33207864 -0.09298202 0.38521123 0.039849438 0.25902134 -0.15275617
-0.47155166 -0.039849438 0.50475955 0.059774157 -0.25237978 -0.37192807 -0.35200337 0.8301966
0.20588876 0.2457382 -0.20588876 0.3918528 -0.4184191 0.33207864 -0.32543707 0.1726809
-0.17932247 0.06641573 0.21253033 -0.11290674 0.5180427 -0.38521123 -0.42506066 -0.0730573
-0.47155166 0.47819325 -0.106265165 0.27894607 0.28558764 0.1726809 -0.33207864 -0.019924719
0.17932247 -0.039849438 -0.67079884 -0.23245504 0.11290674 0.39849436 0.18596403 -0.637591
0.47819325 0.006641573
00000000: 1d78 3ed9 d0b4 4a4f 06ff ca0a c700 42df
00000010: c5d2 fe81 e202 f431 b147 e1f2 0009 30f8
00000020: bfd3 d8f9 b0f9 e0a9 da02 32f2 3a06 27e9
00000030: b9fa 4c09 dac8 cb7d 1f25 e13b c132 cf1a
00000040: e50a 20ef 4ec6 c0f5 b948 f02a 2b1a cefd
00000050: 1bfa 9bdd 113c 1ca0 4801

sequential/dense2/MatMul i1 [16, 10] scale=0.00491513 zero_point=0
-0.18677494 0.06881182 0.24575649 -0.16711442 -0.45219195 -0.42270118 0.46202222 0.054066427
0.20643546 0.24084136 -0.14253877 -0.054066427 0.00491513 -0.4276163 -0.35388935 -0.16711442
0.17694467 0.25558674 -0.19169006 -0.54557943 -0.024575649 -0.15236902 0.39812553 -0.43253142
0.049151298 -0.22118084 -0.049151298 0.15728416 0.08847234 0.49151298 -0.44236168 -0.00491513
0.25558674 -0.43744656 -0.21135059 -0.28999266 0.4276163 0.2801624 0.4276163 0.14745389
0.25558674 0.3293137 -0.15728416 -0.39812553 -0.28999266 -0.28507754 -0.01966052 -0.23101111
0.46693733 -0.054066427 0.024575649 0.23101111 -0.08355721 0.24084136 -0.09338747 0.22609597
-0.08355721 0.108132854 0.05898156 0.22609597 -0.15728416 -0.122878246 -0.39321038 -0.3637196
0.46202222 0.40304065 0.3096532 0.03932104 0.14745389 -0.34897423 -0.04423617 -0.43744656
0.11304799 -0.3293137 0.024575649 0.13762364 0.33422884 0.06881182 0.27033213 -0.45219195
0.16711442 0.23101111 0.1818598 -0.40304065 0.1818598 0.43744656 0.265417 -0.3293137
-0.4128709 0.02949078 0.29982293 -0.3145683 -0.34897423 -0.29982293 -0.18677494 0.27033213
0.29490778 0.08847234 -0.20643546 0.054066427 0.3637196 -0.43744656 0.34405908 0.06881182
0.08355721 -0.33422884 -0.24575649 -0.40795577 0.09338747 0.08847234 -0.6143912 0.30473804
-0.48659787 0.5210038 -0.3588045 -0.18677494 0.265417 0.00983026 0.21135059 -0.32439858
-0.09338747 -0.33914396 0.31948343 0.265417 -0.3588045 -0.45710707 0.3293137 -0.11304799
0.21626571 -0.19169006 0.38829526 -0.15236902 -0.38338012 0.2605019 -0.06881182 0.054066427
0.0 -0.28507754 0.08847234 -0.122878246 -0.02949078 -0.1327085 -0.29490778 0.378465
-0.08847234 0.06881182 0.054066427 0.073726945 -0.15728416 -0.02949078 0.6242215 -0.29982293
-0.31948343 -0.20152032 -0.19169006 0.122878246 0.44236168 0.19169006 0.00983026 -0.3588045
00000000: da0e 32de a4aa 5e0b 2a31 e3f5 01a9 b8de
00000010: 2434 d991 fbe1 51a8 0ad3 f620 1264 a6ff
00000020: 34a7 d5c5 5739 571e 3443 e0af c5c6 fcd1
00000030: 5ff5 052f ef31 ed2e ef16 0c2e e0e7 b0b6
00000040: 5e52 3f08 1eb9 f7a7 17bd 051c 440e 37a4
00000050: 222f 25ae 2559 36bd ac06 3dc0 b9c3 da37
00000060: 3c12 d60b 4aa7 460e 11bc cead 1312 833e
00000070: 9d6a b7da 3602 2bbe edbb 4136 b7a3 43e9
00000080: 2cd9 4fe1 b235 f20b 00c6 12e7 fae5 c44d
00000090: ee0e 0b0f e0fa 7fc3 bfd7 d919 5a27 02b7

sequential/dense3/MatMul i1 [32, 16] scale=0.0052587017 zero_point=0
0.3102634 0.39966133 0.0 0.24715897 -0.026293509 -0.026293509 -0.23138288 0.21560678
-0.12620884 0.21034807 -0.22086547 -0.06310442 -0.09465663 0.17353716 -0.12620884 -0.18405455
0.13146755 -0.20508936 0.25241768 -0.21034807 0.13672625 -0.25241768 0.12620884 0.09991533
0.56793976 -0.15776105 0.21034807 -0.09991533 -0.42595485 -0.13146755 0.105174035 0.34707433
-0.08939793 -0.09991533 0.06836312 0.18405455 0.042069614 0.23138288 -0.16301975 0.3155221
0.17353716 -0.03155221 -0.03155221 -0.3365569 -0.20508936 0.23664159 0.08939793 0.22086547
0.13672625 -0.2787112 0.14724365 0.17879586 -0.16301975 -0.12620884 -0.15776105 0.11569144
-0.23664159 0.105174035 -0.13146755 -0.18405455 0.14724365 -0.12095014 0.23138288 -0.25241768
0.11569144 0.03155221 -0.2734525 -0.08413923 -0.3365569 0.2787112 -0.3155221 -0.08939793
0.13146755 -0.13146755 -0.22086547 -0.09991533 0.2892286 0.09465663 -0.026293509 0.15250236
0.3260395 -0.352333 -0.0052587017 0.11569144 0.37862653 -0.2944873 0.036810912 0.23138288
-0.05784572 -0.09991533 0.20508936 -0.2576764 0.299746 0.21560678 0.026293509 0.34181562
-0.18931326 -0.13146755 -0.13146755 0.17353716 -0.17353716 -0.20508936 -0.23664159 0.06310442
-0.3155221 -0.0052587017 -0.23664159 -0.18405455 -0.2944873 -0.16827846 0.24190028 -0.0105174035
-0.66785514 -0.16827846 -0.299746 -0.3207808 -0.16827846 0.12620884 0.078880526 0.19983067
0.026293509 -0.22612417 -0.078880526 -0.17353716 -0.652079 -0.2629351 0.34181562 0.21560678
-0.12095014 0.34181562 -0.3102634 0.28396988 0.12620884 0.14198494 0.22086547 0.2944873
0.2629351 0.3102634 0.2629351 0.17879586 0.0105174035 0.06836312 -0.28396988 0.14724365
-0.105174035 0.19457197 -0.12620884 -0.052587017 0.21560678 -0.20508936 -0.09991533 0.12620884
-0.052587017 0.14198494 0.20508936 0.17353716 -0.0105174035 -0.14724365 -0.40492004 0.0052587017
-0.5837159 -0.08413923 -0.37862653 -0.50483537 0.21560678 -0.11569144 0.3681091 0.2734525
0.45750704 0.21034807 -0.37862653 0.078880526 -0.2576764 -0.3681091 -0.17879586 -0.036810912
-0.11569144 -0.15776105 -0.24190028 0.06310442 -0.03155221 0.47854185 0.19457197 -0.015776105
-0.15250236 -0.46802446 -0.2944873 0.48380056 -0.3260395 -0.2629351 -0.17353716 -0.46802446
0.2629351 -0.078880526 0.38388523 0.19457197 0.19457197 -0.17353716 -0.3155221 -0.15776105
-0.03155221 0.2944873 0.12095014 -0.19983067 0.09465663 0.13672625 -0.12095014 0.24715897
0.16301975 0.047328316 0.20508936 -0.37336782 0.26819378 0.24715897 -0.28396988 0.12095014
0.026293509 0.015776105 -0.14198494 0.12095014 0.3102634 -0.11569144 -0.24715897 -0.37862653
-0.22086547 -0.042069614 -0.06836312 0.078880526 -0.24715897 -0.08413923 0.28396988 -0.2787112
-0.34707433 -0.13146755 -0.2734525 -0.16301975 -0.13672625 -0.047328316 0.08939793 -0.3102634
-0.20508936 0.19983067 -0.51009405 -0.12620884 -0.08413923 0.12095014 -0.18931326 -0.28396988
-0.052587017 -0.3260395 -0.299746 0.3365569 0.21034807 0.14198494 -0.026293509 0.13672625
00000000: 3b4c 002f fbfb d429 e828 d6f4 ee21 e8dd
00000010: 19d9 30d8 1ad0 1813 6ce2 28ed afe7 1442
00000020: efed 0d23 082c e13c 21fa fac0 d92d 112a
00000030: 1acb 1c22 e1e8 e216 d314 e7dd 1ce9 2cd0
00000040: 1606 ccf0 c035 c4ef 19e7 d6ed 3712 fb1d
00000050: 3ebd ff16 48c8 072c f5ed 27cf 3929 0541
00000060: dce7 e721 dfd9 d30c c4ff d3dd c8e0 2efe
00000070: 81e0 c7c3 e018 0f26 05d5 f1df 84ce 4129
00000080: e941 c536 181b 2a38 323b 3222 020d ca1c
00000090: ec25 e8f6 29d9 ed18 f61b 2721 fee4 b301
000000a0: 91f0 b8a0 29ea 4634 5728 b80f cfba def9
000000b0: eae2 d20c fa5b 25fd e3a7 c85c c2ce dfa7
000000c0: 32f1 4925 25df c4e2 fa38 17da 121a e92f
000000d0: 1f09 27b9 332f ca17 0503 e517 3bea d1b8
000000e0: d6f8 f30f d1f0 36cb bee7 cce1 e6f7 11c5
000000f0: d926 9fe8 f017 dcca f6c2 c740 281b fb1a

sequential/dense4/MatMul i1 [4, 32] scale=0.0039908066 zero_point=0
0.4070623 -0.10775178 0.007981613 -0.27536565 -0.063852906 0.3432094 0.055871293 -0.29531968
-0.063852906 0.075825326 -0.3432094 -0.31926453 -0.063852906 0.01197242 -0.21550356 -0.20353115
0.43100712 -0.25541162 -0.043898873 -0.063852906 -0.10775178 -0.19954033 -0.007981613 -0.21949437
0.32724613 0.07981613 0.015963227 0.039908066 -0.019954033 0.22348517 -0.28733808 0.2394484
0.29132888 0.16761388 0.15165065 0.019954033 -0.15963227 0.33921856 -0.28733808 -0.31527373
-0.27536565 0.19554952 -0.19155872 -0.39908066 0.31926453 -0.13568743 -0.15165065 -0.44297954
0.039908066 -0.18756792 -0.18756792 -0.015963227 -0.07981613 -0.17958629 -0.0039908066 0.09577936
-0.027935646 -0.29132888 -0.15564147 0.18756792 0.15963227 0.03591726 -0.09577936 0.1197242
0.27935648 0.33921856 0.075825326 0.055871293 -0.35518178 -0.075825326 -0.10775178 0.3072921
0.38710824 0.32724613 0.5068324 -0.17958629 0.08380694 -0.39908066 0.04788968 -0.20752195
0.063852906 -0.28334728 -0.38710824 0.08380694 0.015963227 0.12770581 0.27935648 0.3432094
-0.22348517 -0.27536565 0.087797746 -0.01197242 0.45096114 0.32724613 0.03591726 -0.3432094
-0.21151274 0.13568743 0.13568743 0.16761388 -0.0598621 0.19554952 -0.3033013 -0.22348517
0.02394484 -0.03591726 -0.16761388 -0.10376097 0.10376097 0.08380694 0.0598621 -0.21949437
-0.35119098 0.26339322 0.075825326 0.007981613 -0.0039908066 -0.28334728 0.0 -0.0039908066
-0.26339322 -0.25142083 -0.21949437 0.01197242 -0.027935646 -0.33921856 -0.06784371 0.15165065
00000000: 66e5 02bb f056 0eb6 f013 aab0 f003 cacd
00000010: 6cc0 f5f0 e5ce fec9 5214 040a fb38 b83c
00000020: 492a 2605 d855 b8b1 bb31 d09c 50de da91
00000030: 0ad1 d1fc ecd3 ff18 f9b7 d92f 2809 e81e
00000040: 4655 130e a7ed e54d 6152 7fd3 159c 0ccc
00000050: 10b9 9f15 0420 4656 c8bb 16fd 7152 09aa
00000060: cb22 222a f131 b4c8 06f7 d6e6 1a15 0fc9
00000070: a842 1302 ffb9 00ff bec1 c903 f9ab ef26
