demo/bikes_vs_weather/tflite/model.tflite (tflite, 7856 bytes, 6 tensors)

sequential_14/dense_104/MatMul i1 [8, 5] scale=0.0051203743 zero_point=0
00000000: 8dda e207 02c6 8762 b155 b2c9 0c92 7804
00000010: c1be fab3 51f6 4459 3ab2 e10f 3243 7fd8
00000020: 26d5 cdb8 9756 d9ca
-0.58884305 -0.19457422 -0.15361123 0.03584262 0.0102407485 -0.2969817 -0.6195653 0.50179666
-0.40450957 0.4352318 -0.3993892 -0.2816206 0.06144449 -0.5632412 0.6144449 0.020481497
-0.3225836 -0.3379447 -0.030722246 -0.3942688 0.4147503 -0.051203743 0.34818545 0.4557133
0.2969817 -0.3993892 -0.15873161 0.076805614 0.2560187 0.34306508 0.6502875 -0.20481497
0.19457422 -0.2201761 -0.2611391 -0.36866695 -0.5376393 0.4403522 -0.1996946 -0.27650023

sequential_14/dense_105/MatMul i1 [16, 8] scale=0.004367402 zero_point=0
00000000: 5764 f1a2 edb2 eae2 e7bf 8f7a eda5 445e
00000010: a237 f2c9 db05 383b 6b13 e6fa c666 23f0
00000020: b369 3208 21aa 81ce ae42 636c 1b31 e4a6
00000030: 2bc2 1d10 2710 42f2 291b d4ee 692f b132
00000040: 8a18 35ff c998 c32c ff0d df00 a392 fa3f
00000050: 34bc 8feb 70c4 f1a3 1dcf af8a a8e3 f50d
00000060: adda 5eb3 0876 000b a4f4 ddbe 369d 33fe
00000070: bcbe 43b7 11ad b301 bf68 27e4 c0e2 513f
0.37996396 0.4367402 -0.065511025 -0.41053578 -0.08298063 -0.34065735 -0.09608284 -0.13102205
-0.10918505 -0.28388113 -0.49351642 0.532823 -0.08298063 -0.39743358 0.29698333 0.41053578
-0.41053578 0.2402071 -0.061143626 -0.2402071 -0.16159387 0.02183701 0.2445745 0.25767672
0.467312 0.08298063 -0.11355245 -0.026204411 -0.2533093 0.44547498 0.15285906 -0.06987843
-0.33628994 0.4585772 0.2183701 0.034939215 0.14412425 -0.37559655 -0.55466 -0.2183701
-0.35812694 0.2882485 0.43237278 0.4716794 0.11791985 0.21400268 -0.12228725 -0.39306617
0.18779828 -0.27077892 0.12665465 0.06987843 0.17032868 0.06987843 0.2882485 -0.061143626
0.17906347 0.11791985 -0.19216567 -0.07861324 0.4585772 0.20526789 -0.34502473 0.2183701
-0.51535344 0.104817644 0.2314723 -0.004367402 -0.2402071 -0.4542098 -0.2664115 0.19216567
-0.004367402 0.056776226 -0.14412425 0.0 -0.40616837 -0.4804142 -0.026204411 0.2751463
0.2271049 -0.29698333 -0.49351642 -0.09171544 0.489149 -0.2620441 -0.065511025 -0.40616837
0.12665465 -0.21400268 -0.35375956 -0.51535344 -0.38433135 -0.12665465 -0.04804142 0.056776226
-0.36249435 -0.16596127 0.41053578 -0.33628994 0.034939215 0.51535344 0.0 0.04804142
-0.40180096 -0.052408822 -0.15285906 -0.2882485 0.2358397 -0.43237278 0.22273749 -0.008734804
-0.29698333 -0.2882485 0.29261592 -0.31882033 0.07424583 -0.36249435 -0.33628994 0.004367402
-0.28388113 0.4542098 0.17032868 -0.12228725 -0.27951372 -0.13102205 0.35375956 0.2751463

sequential_14/dense_106/MatMul i1 [64, 16] scale=0.002739147 zero_point=0
00000000: c40f df0a 66fe 0875 5d08 3fe5 33b1 da2a
00000010: 351b d6a2 6500 48b7 ed53 182c aee1 ae28
00000020: c45e 0efe b619 03ae 4bd4 3223 110a f222
00000030: 71de 2b15 b54d f17f e9ea fc46 6fb2 289c
00000040: 38c4 42dc f3de 011c e737 4b30 17a7 a1fb
00000050: d988 ce11 244c ffe8 0cef 1d42 4da9 d72a
00000060: ee55 fe0d 491b 4e11 d236 54e4 edf4 ba44
00000070: c809 c24d 29ea 20ab 051f e90f caff e9c4
00000080: a745 5306 34fa b3e8 0448 e0a5 2ece 1519
00000090: bd39 ddc6 3731 b7b6 f7fe 41ac e8ed ff15
000000a0: 372c cb10 c09f 8968 47cb cc12 5552 13bb
000000b0: 4574 fed0 d41a cb49 29a8 50ac bc0d f3de
000000c0: 0309 fd11 adda 3ddc 3d44 b2bb 010d 26a3
000000d0: 314a ad1c 1512 91c4 2805 3e63 3fe8 0905
000000e0: b0ef b94c 4db9 d721 bcce 18bb 2be7 0d28
000000f0: 457c f8cc 18aa 0faf 351f 09f0 f6df 9fc0
-0.16434883 0.041087206 -0.09039185 0.027391471 0.279393 -0.005478294 0.021913176 0.3204802
0.2547407 0.021913176 0.17256626 -0.073956974 0.1396965 -0.21639262 -0.10408759 0.11504418
0.14517479 0.073956974 -0.11504418 -0.25747982 0.27665386 0.0 0.19721858 -0.19995773
-0.052043796 0.2273492 0.06573953 0.12052247 -0.22461006 -0.08491356 -0.22461006 0.109565884
-0.16434883 0.25747982 0.03834806 -0.005478294 -0.20269687 0.06847867 0.008217441 -0.22461006
0.20543604 -0.12052247 0.13695735 0.095870145 0.0465655 0.027391471 -0.03834806 0.093131
0.3095236 -0.093131 0.11778332 0.05752209 -0.20543604 0.21091433 -0.041087206 0.34787166
-0.06300038 -0.060261235 -0.010956588 0.19174029 0.30404532 -0.21365348 0.109565884 -0.2739147
0.15339224 -0.16434883 0.1807837 -0.09860929 -0.03560891 -0.093131 0.002739147 0.07669612
-0.06847867 0.1506531 0.20543604 0.13147905 0.06300038 -0.24378408 -0.26021898 -0.0136957355
-0.10682674 -0.32869765 -0.13695735 0.0465655 0.09860929 0.20817518 -0.002739147 -0.06573953
0.032869764 -0.0465655 0.07943527 0.1807837 0.21091433 -0.23830579 -0.11230503 0.11504418
-0.049304646 0.2328275 -0.005478294 0.03560891 0.19995773 0.073956974 0.21365348 0.0465655
-0.12600076 0.14791395 0.23008835 -0.07669612 -0.052043796 -0.032869764 -0.19174029 0.186262
-0.15339224 0.024652323 -0.16982712 0.21091433 0.11230503 -0.060261235 0.087652706 -0.2328275
0.0136957355 0.08491356 -0.06300038 0.041087206 -0.14791395 -0.002739147 -0.06300038 -0.16434883
-0.24378408 0.18900114 0.2273492 0.016434882 0.14243564 -0.016434882 -0.21091433 -0.06573953
0.010956588 0.19721858 -0.087652706 -0.24926238 0.12600076 -0.13695735 0.05752209 0.06847867
-0.18352285 0.15613139 -0.095870145 -0.15887053 0.1506531 0.1342182 -0.19995773 -0.20269687
-0.024652323 -0.005478294 0.17804456 -0.23008835 -0.06573953 -0.052043796 -0.002739147 0.05752209
0.1506531 0.12052247 -0.14517479 0.043826353 -0.17530541 -0.26569727 -0.3259585 0.28487128
0.19447944 -0.14517479 -0.14243564 0.049304646 0.2328275 0.22461006 0.052043796 -0.18900114
0.18900114 0.31774107 -0.005478294 -0.13147905 -0.12052247 0.07121782 -0.14517479 0.19995773
0.11230503 -0.24104494 0.21913177 -0.23008835 -0.186262 0.03560891 -0.03560891 -0.093131
0.008217441 0.024652323 -0.008217441 0.0465655 -0.2273492 -0.10408759 0.16708797 -0.09860929
0.16708797 0.186262 -0.21365348 -0.18900114 0.002739147 0.03560891 0.10408759 -0.2547407
0.1342182 0.20269687 -0.2273492 0.07669612 0.05752209 0.049304646 -0.30404532 -0.16434883
0.109565884 0.0136957355 0.16982712 0.27117556 0.17256626 -0.06573953 0.024652323 0.0136957355
-0.21913177 -0.0465655 -0.19447944 0.20817518 0.21091433 -0.19447944 -0.11230503 0.09039185
-0.186262 -0.13695735 0.06573953 -0.18900114 0.11778332 -0.06847867 0.03560891 0.109565884
0.18900114 0.33965424 -0.021913176 -0.14243564 0.06573953 -0.23556665 0.041087206 -0.22187091
0.14517479 0.08491356 0.024652323 -0.043826353 -0.027391471 -0.09039185 -0.26569727 -0.17530541

sequential_14/dense_107/MatMul i1 [16, 64] scale=0.0028266688 zero_point=0
00000000: a8f4 dc12 632e 24be 29b0 afab 2ae2 2822
00000010: 24a9 b7af b0e8 21f8 1cc3 17bb 5d03 f8a2
00000020: c7dd 3638 ae36 d03d f544 26d1 ddbb 18bb
00000030: d224 3511 29ba c06c b5c3 45de afcf 3c2d
00000040: 5551 1b8d 0db1 c2ac 6356 3a3c 14ca 20d8
00000050: d437 3246 bc69 1fd6 420f d7cb b463 fd16
00000060: c650 c2d6 0443 6167 2625 caee 0d3f 9b48
00000070: a542 f70e ae5f becd 67b7 a2e1 5f4e 4fe7
00000080: ede6 e97f 1fd3 0ec4 1490 cc9a b2fc fa17
00000090: 50fc 9ad6 f0d5 f5be d5e7 93ba b941 d8e0
000000a0: a3a7 befd 29c8 ee56 b839 3e1a c2a5 26ce
000000b0: cb34 fc3a 1405 11bb ccb4 3f31 bcc5 56de
000000c0: dcd3 d09a d6d4 2617 c561 d93c 5cfb c34a
000000d0: cbad 2ea6 c2f7 6330 c913 fda0 0b04 d1f1
000000e0: 3345 542d 3466 3647 e954 2cf7 af42 bd08
000000f0: 27c9 e716 a204 c5fe 4ec0 1743 e419 d4e3
-0.24874686 -0.033920027 -0.101760074 0.050880037 0.2798402 0.13002676 0.101760074 -0.18656014
0.11589342 -0.2261335 -0.22896017 -0.24026684 0.11872009 -0.084800065 0.11306675 0.09610674
0.101760074 -0.24592018 -0.20634682 -0.22896017 -0.2261335 -0.067840055 0.09328007 -0.02261335
0.07914673 -0.17242679 0.06501338 -0.19504015 0.2628802 0.008480007 -0.02261335 -0.26570687
-0.16112012 -0.098933406 0.15264012 0.15829346 -0.23178685 0.15264012 -0.13568011 0.17242679
-0.031093357 0.19221348 0.10741341 -0.13285343 -0.098933406 -0.19504015 0.067840055 -0.19504015
-0.13002676 0.101760074 0.14981344 0.04805337 0.11589342 -0.19786681 -0.1809068 0.30528024
-0.21200016 -0.17242679 0.19504015 -0.09610674 -0.22896017 -0.13850677 0.16960013 0.1272001
0.24026684 0.22896017 0.07632006 -0.32506692 0.036746696 -0.22330683 -0.17525347 -0.23744018
0.2798402 0.24309352 0.16394679 0.16960013 0.056533374 -0.15264012 0.0904534 -0.11306675
-0.12437343 0.15546678 0.14133345 0.19786681 -0.19221348 0.29680023 0.08762673 -0.11872009
0.18656014 0.042400032 -0.11589342 -0.14981344 -0.21482682 0.2798402 -0.008480007 0.062186714
-0.16394679 0.2261335 -0.17525347 -0.11872009 0.011306675 0.18938681 0.27418688 0.29114687
0.10741341 0.10458674 -0.15264012 -0.050880037 0.036746696 0.17808013 -0.28549355 0.20352015
-0.25722685 0.18656014 -0.025440019 0.039573364 -0.23178685 0.26853353 -0.18656014 -0.1441601
0.29114687 -0.20634682 -0.26570687 -0.08762673 0.26853353 0.22048016 0.22330683 -0.07066672
-0.053706706 -0.07349339 -0.06501338 0.35898694 0.08762673 -0.1272001 0.039573364 -0.16960013
0.056533374 -0.3165869 -0.14698678 -0.2883202 -0.22048016 -0.011306675 -0.016960014 0.06501338
0.2261335 -0.011306675 -0.2883202 -0.11872009 -0.0452267 -0.12154676 -0.031093357 -0.18656014
-0.12154676 -0.07066672 -0.3081069 -0.19786681 -0.20069349 0.18373348 -0.11306675 -0.0904534
-0.2628802 -0.25157353 -0.18656014 -0.008480007 0.11589342 -0.15829346 -0.050880037 0.24309352
-0.20352015 0.16112012 0.17525347 0.07349339 -0.17525347 -0.25722685 0.10741341 -0.14133345
-0.14981344 0.14698678 -0.011306675 0.16394679 0.056533374 0.0141333435 0.04805337 -0.19504015
-0.14698678 -0.21482682 0.17808013 0.13850677 -0.19221348 -0.16677345 0.24309352 -0.09610674
-0.101760074 -0.1272001 -0.13568011 -0.2883202 -0.11872009 -0.12437343 0.10741341 0.06501338
-0.16677345 0.27418688 -0.11024008 0.16960013 0.26005352 -0.0141333435 -0.17242679 0.20917349
-0.14981344 -0.23461351 0.13002676 -0.2544002 -0.17525347 -0.025440019 0.2798402 0.13568011
-0.15546678 0.053706706 -0.008480007 -0.27136022 0.031093357 0.011306675 -0.13285343 -0.042400032
0.1441601 0.19504015 0.23744018 0.1272001 0.14698678 0.2883202 0.15264012 0.20069349
-0.06501338 0.23744018 0.12437343 -0.025440019 -0.22896017 0.18656014 -0.18938681 0.02261335
0.11024008 -0.15546678 -0.07066672 0.062186714 -0.26570687 0.011306675 -0.16677345 -0.0056533376
0.22048016 -0.1809068 0.06501338 0.18938681 -0.07914673 0.07066672 -0.12437343 -0.081973396

sequential_14/dense_108/MatMul i1 [8, 16] scale=0.004308085 zero_point=0
00000000: 6c86 2b2b 7521 1403 59c8 1d7e 29e0 0cee
00000010: cfbb 342e d376 bdea 035c cf8e ce0e c21c
00000020: a90a e123 d0ad 67f9 d4b9 c33a c9c3 bd78
00000030: 0b8c 18ca 540c d796 fb46 27db bdcf 6c5f
00000040: 0834 e446 6410 edd4 66f4 f974 7f28 1544
00000050: a814 1f13 520c a653 6b56 f726 7246 7484
00000060: 1c31 9140 610f 16fb e1b3 c999 2789 259f
00000070: d936 2a08 14b9 2371 f179 bb43 5a18 f555
0.46527317 -0.52558637 0.18524766 0.18524766 0.50404596 0.14216681 0.0861617 0.012924255
0.38341957 -0.24125275 0.124934465 0.5428187 0.17663148 -0.13785872 0.05169702 -0.07754553
-0.21109617 -0.29725787 0.22402042 0.19817191 -0.19386382 0.508354 -0.2886417 -0.09477787
0.012924255 0.39634383 -0.21109617 -0.49112168 -0.21540424 0.060313188 -0.26710126 0.120626375
-0.3748034 0.04308085 -0.13355063 0.15078297 -0.20678808 -0.35757107 0.44373274 -0.030156594
-0.18955573 -0.30587402 -0.26279318 0.24986893 -0.23694468 -0.26279318 -0.2886417 0.5169702
0.047388934 -0.49973786 0.10339404 -0.23263659 0.36187914 0.05169702 -0.17663148 -0.456657
-0.021540426 0.30156595 0.16801532 -0.15939914 -0.2886417 -0.21109617 0.46527317 0.40926808
0.03446468 0.22402042 -0.120626375 0.30156595 0.43080848 0.06892936 -0.08185361 -0.18955573
0.43942466 -0.05169702 -0.030156594 0.49973786 0.54712677 0.1723234 0.090469785 0.29294977
-0.37911147 0.0861617 0.13355063 0.08185361 0.35326296 0.05169702 -0.38772765 0.35757107
0.4609651 0.37049532 -0.038772766 0.16370723 0.49112168 0.30156595 0.49973786 -0.5342025
0.120626375 0.21109617 -0.47819743 0.27571744 0.41788423 0.06462128 0.09477787 -0.021540426
-0.13355063 -0.33172253 -0.23694468 -0.44373274 0.16801532 -0.5126621 0.15939914 -0.41788423
-0.16801532 0.23263659 0.18093957 0.03446468 0.0861617 -0.30587402 0.15078297 0.4868136
-0.06462128 0.52127826 -0.29725787 0.2886417 0.38772765 0.10339404 -0.047388934 0.3661872

sequential_14/dense_109/MatMul i1 [1, 8] scale=0.006607015 zero_point=0
00000000: a670 6d99 c981 3059
-0.5946314 0.7399857 0.72016466 -0.68052256 -0.36338583 -0.83909094 0.31713673 0.5880244
