models/mnist/uint8/mnist_relu_uint8.onnx (onnx, 12370 bytes, 5 tensors)

StatefulPartitionedCall/sequential/dense/MatMul/ReadVariableOp:0_quantized u1 [784, 5]
101 95 90 115 102 114 101 98
117 106 102 102 115 102 88 93
105 100 101 95 91 95 94 88
91 104 99 111 109 108 92 91
110 103 92 91 99 92 105 101
105 108 92 107 116 106 94 93
103 105 108 116 90 87 104 98
91 95 93 87 105 88 92 101
108 85 116 107 100 121 86 116
96 111 109 95 109 106 103 108
96 97 87 94 110 103 88 105
97 105 93 106 93 103 91 108
108 88 101 104 98 102 91 112
109 106 102 116 89 110 106 100
108 92 106 109 114 105 98 99
115 117 104 90 103 102 95 89
98 97 90 92 96 105 104 89
98 90 96 108 103 112 90 94
98 111 108 108 90 110 106 114
117 91 106 93 113 106 107 96
102 77 111 92 103 101 87 112
107 114 82 70 89 145 141 50
84 88 137 138 72 73 70 127
137 88 74 122 144 150 67 50
144 129 134 58 67 106 92 134
58 51 108 107 146 75 104 100
119 135 102 152 118 128 80 79
169 91 102 104 65 169 64 64
157 81 114 103 112 142 81 68
142 146 130 77 71 101 156 149
62 75 84 154 126 76 59 81
125 140 50 90 60 143 124 62
00000000: 655f 5a73 6672 6562 756a 6666 7366 585d
00000010: 6964 655f 5b5f 5e58 5b68 636f 6d6c 5c5b
00000020: 6e67 5c5b 635c 6965 696c 5c6b 746a 5e5d
00000030: 6769 6c74 5a57 6862 5b5f 5d57 6958 5c65
00000040: 6c55 746b 6479 5674 606f 6d5f 6d6a 676c
00000050: 6061 575e 6e67 5869 6169 5d6a 5d67 5b6c
00000060: 6c58 6568 6266 5b70 6d6a 6674 596e 6a64
00000070: 6c5c 6a6d 7269 6263 7375 685a 6766 5f59
00000080: 6261 5a5c 6069 6859 625a 606c 6770 5a5e
00000090: 626f 6c6c 5a6e 6a72 755b 6a5d 716a 6b60
000000a0: 664d 6f5c 6765 5770 6b72 5246 5991 8d32
000000b0: 5458 898a 4849 467f 8958 4a7a 9096 4332
000000c0: 9081 863a 436a 5c86 3a33 6c6b 924b 6864
000000d0: 7787 6698 7680 504f a95b 6668 41a9 4040
000000e0: 9d51 7267 708e 5144 8e92 824d 4765 9c95
000000f0: 3e4b 549a 7e4c 3b51 7d8c 325a 3c8f 7c3e

StatefulPartitionedCall/sequential/dense_1/MatMul/ReadVariableOp:0_quantized u1 [5, 32]
105 100 141 135 227 219 214 96
120 93 223 193 104 215 84 168
45 126 92 195 213 130 197 117
228 162 125 162 136 142 101 173
134 160 153 220 142 186 154 249
171 182 159 236 165 191 205 182
221 110 148 193 101 247 118 214
127 170 96 77 191 216 108 93
151 224 120 0 109 80 108 149
156 167 116 233 77 207 204 138
89 132 99 70 221 233 183 152
155 132 138 206 165 94 167 228
127 121 134 181 188 117 168 163
221 184 194 104 102 129 183 71
203 95 244 135 171 162 178 195
191 161 255 224 164 141 106 92
129 141 226 186 148 187 73 171
197 171 113 117 144 55 34 208
171 148 119 182 204 169 46 97
208 214 158 152 59 184 94 176
00000000: 6964 8d87 e3db d660 785d dfc1 68d7 54a8
00000010: 2d7e 5cc3 d582 c575 e4a2 7da2 888e 65ad
00000020: 86a0 99dc 8eba 9af9 abb6 9fec a5bf cdb6
00000030: dd6e 94c1 65f7 76d6 7faa 604d bfd8 6c5d
00000040: 97e0 7800 6d50 6c95 9ca7 74e9 4dcf cc8a
00000050: 5984 6346 dde9 b798 9b84 8ace a55e a7e4
00000060: 7f79 86b5 bc75 a8a3 ddb8 c268 6681 b747
00000070: cb5f f487 aba2 b2c3 bfa1 ffe0 a48d 6a5c
00000080: 818d e2ba 94bb 49ab c5ab 7175 9037 22d0
00000090: ab94 77b6 cca9 2e61 d0d6 9e98 3bb8 5eb0

StatefulPartitionedCall/sequential/dense_1/BiasAdd/ReadVariableOp:0_quantized u1 [32]
110 255 234 117 120 131 129 141
94 91 97 161 82 198 206 198
211 106 127 136 100 110 199 3
0 78 202 204 191 14 112 175
00000000: 6eff ea75 7883 818d 5e5b 61a1 52c6 cec6
00000010: d36a 7f88 646e c703 004e cacc bf0e 70af

StatefulPartitionedCall/sequential/dense_2/MatMul/ReadVariableOp:0_quantized u1 [32, 10]
126 121 107 120 165 177 127 95
135 162 70 122 138 141 140 252
173 134 52 139 170 95 130 187
191 198 166 120 89 75 86 143
199 190 125 130 37 255 100 14
98 142 132 61 195 86 180 142
145 188 181 95 157 127 91 116
105 174 83 194 171 124 91 149
153 118 182 188 31 132 156 183
127 188 66 172 41 88 156 126
79 154 152 130 93 161 188 39
185 161 103 136 160 165 80 149
168 53 169 90 89 122 153 113
135 68 128 174 146 154 96 61
69 99 84 155 24 173 129 150
125 93 122 108 96 101 128 150
161 167 78 82 156 144 170 130
11 223 130 129 100 165 25 21
219 54 41 138 34 178 192 200
129 104 86 113 179 176 23 97
40 209 110 187 137 94 98 144
104 151 181 152 102 112 158 92
163 102 89 120 92 205 174 17
108 115 149 165 128 77 145 175
175 152 111 97 72 193 99 181
186 125 122 95 169 169 154 102
157 106 123 148 95 195 138 163
104 133 176 174 132 112 193 153
194 154 68 127 59 179 152 122
84 174 133 25 134 118 208 171
199 94 182 148 181 132 197 149
182 187 149 92 171 155 128 110
00000000: 7e79 6b78 a5b1 7f5f 87a2 467a 8a8d 8cfc
00000010: ad86 348b aa5f 82bb bfc6 a678 594b 568f
00000020: c7be 7d82 25ff 640e 628e 843d c356 b48e
00000030: 91bc b55f 9d7f 5b74 69ae 53c2 ab7c 5b95
00000040: 9976 b6bc 1f84 9cb7 7fbc 42ac 2958 9c7e
00000050: 4f9a 9882 5da1 bc27 b9a1 6788 a0a5 5095
00000060: a835 a95a 597a 9971 8744 80ae 929a 603d
00000070: 4563 549b 18ad 8196 7d5d 7a6c 6065 8096
00000080: a1a7 4e52 9c90 aa82 0bdf 8281 64a5 1915
00000090: db36 298a 22b2 c0c8 8168 5671 b3b0 1761
000000a0: 28d1 6ebb 895e 6290 6897 b598 6670 9e5c
000000b0: a366 5978 5ccd ae11 6c73 95a5 804d 91af
000000c0: af98 6f61 48c1 63b5 ba7d 7a5f a9a9 9a66
000000d0: 9d6a 7b94 5fc3 8aa3 6885 b0ae 8470 c199
000000e0: c29a 447f 3bb3 987a 54ae 8519 8676 d0ab
000000f0: c75e b694 b584 c595 b6bb 955c ab9b 806e

StatefulPartitionedCall/sequential/dense_2/BiasAdd/ReadVariableOp:0_quantized u1 [10]
35 198 128 181 187 255 125 160
0 97
00000000: 23c6 80b5 bbff 7da0 0061
