models/mnist/uint8/mnist_sigmoid_uint8.onnx (onnx, 19055 bytes, 7 tensors)

StatefulPartitionedCall/sequential/dense/MatMul/ReadVariableOp:0_quantized u1 [784, 5]
000000 84 89 80 82 83 82 87 7e 8a 87 8a 82 7d 88 7e 8a
       132 137 128 130 131 130 135 126 138 135 138 130 125 136 126 138
000010 7b 7e 7d 8a 81 82 85 86 87 7c 7f 84 85 88 89 88
       123 126 125 138 129 130 133 134 135 124 127 132 133 136 137 136
000020 7f 88 88 7d 80 87 89 7f 7c 7d 8a 88 88 7f 8a 86
       127 136 136 125 128 135 137 127 124 125 138 136 136 127 138 134
000030 88 8b 84 83 81 84 82 89 85 8a 82 85 85 86 96 8b
       136 139 132 131 129 132 130 137 133 138 130 133 133 134 150 139
000040 7b 7a 83 8e 82 71 71 81 80 94 83 78 81 8a 8f 7f
       123 122 131 142 130 113 113 129 128 148 131 120 129 138 143 127
000050 80 84 7b 8a 84 7f 8a 7b 7d 7b 83 8a 84 7e 7b 87
       128 132 123 138 132 127 138 123 125 123 131 138 132 126 123 135
000060 81 88 84 8b 83 7f 86 7f 8b 7d 7f 81 84 7f 86 7e
       129 136 132 139 131 127 134 127 139 125 127 129 132 127 134 126
000070 7d 7b 87 7c 80 85 7e 7d 89 88 7b 7d 8b 80 8a 7e
       125 123 135 124 128 133 126 125 137 136 123 125 139 128 138 126
000080 7d 7b 88 7d 89 89 81 7c 7e 7e 89 82 83 87 80 7d
       125 123 136 125 137 137 129 124 126 126 137 130 131 135 128 125
000090 85 87 7e 7f 82 89 7e 86 83 85 87 82 82 7c 7c 82
       133 135 126 127 130 137 126 134 131 133 135 130 130 124 124 130
0000a0 85 8c 87 7d 85 89 81 7c 84 7b 92 76 a2 7f 62 90
       133 140 135 125 133 137 129 124 132 123 146 118 162 127 98 144
0000b0 84 95 80 68 83 76 91 89 6e 8d 92 8f 7d 59 99 7d
       132 149 128 104 131 118 145 137 110 141 146 143 125 89 153 125
0000c0 99 86 57 80 85 8c 86 48 86 89 8e 7d 51 6f 85 8f
       153 134 87 128 133 140 134 72 134 137 142 125 81 111 133 143
0000d0 8c 5a 7f 88 90 9a 64 7f 63 98 98 55 5a 67 8a 9e
       140 90 127 136 144 154 100 127 99 152 152 85 90 103 138 158
0000e0 58 7d 7d 8b 9a 57 a7 91 ab 77 72 a5 82 a1 72 6c
       88 125 125 139 154 87 167 145 171 119 114 165 130 161 114 108
0000f0 a0 8b 9f 6f 5d 99 8a 9f 7b 60 82 70 94 73 61 7f
       160 139 159 111 93 153 138 159 123 96 130 112 148 115 97 127

StatefulPartitionedCall/sequential/dense_1/MatMul/ReadVariableOp:0_quantized u1 [5, 32]
000000 40 80 cf 8e 39 82 33 2d c4 e4 d5 3c 52 d7 a3 37
       64 128 207 142 57 130 51 45 196 228 213 60 82 215 163 55
000010 7c a8 63 7c c8 c3 76 b0 81 cf 5c 67 cb c0 62 e0
       124 168 99 124 200 195 118 176 129 207 92 103 203 192 98 224
000020 d4 31 e6 6c 38 78 e8 91 3b 75 fa cb 1a e4 32 14
       212 49 230 108 56 120 232 145 59 117 250 203 26 228 50 20
000030 66 e0 ee d0 75 3f b9 26 73 45 87 36 45 e8 d2 4f
       102 224 238 208 117 63 185 38 115 69 135 54 69 232 210 79
000040 ac d2 3d 17 b2 30 4b 39 d6 8c 6e b4 4b 33 db 9c
       172 210 61 23 178 48 75 57 214 140 110 180 75 51 219 156
000050 76 82 b3 95 b1 d4 39 58 b0 c5 96 a6 b8 8b 36 69
       118 130 179 149 177 212 57 88 176 197 150 166 184 139 54 105
000060 83 5e 66 f3 98 ff a3 b1 77 79 49 66 59 71 46 98
       131 94 102 243 152 255 163 177 119 121 73 102 89 113 70 152
000070 db 4a 26 68 75 83 c2 d7 8b 78 c7 b5 7f 43 a0 5f
       219 74 38 104 117 131 194 215 139 120 199 181 127 67 160 95
000080 eb f1 ae 83 49 94 98 e5 3f a5 00 21 4d ab aa 6a
       235 241 174 131 73 148 152 229 63 165 0 33 77 171 170 106
000090 52 c2 21 e3 cc 43 49 49 18 39 46 44 d2 6f 2e 8b
       82 194 33 227 204 67 73 73 24 57 70 68 210 111 46 139

StatefulPartitionedCall/sequential/dense_1/BiasAdd/ReadVariableOp:0_quantized u1 [32]
000000 00 70 68 45 b8 3a 3e 63 7b 2b 77 b2 ff 55 93 b0
       0 112 104 69 184 58 62 99 123 43 119 178 255 85 147 176
000010 93 40 fe 1e 1d 37 78 52 ba 7f a8 7e 1b 56 c2 5a
       147 64 254 30 29 55 120 82 186 127 168 126 27 86 194 90

StatefulPartitionedCall/sequential/dense_2/MatMul/ReadVariableOp:0_quantized u1 [32, 64]
000000 66 5e 54 85 35 35 71 51 b9 6e a2 36 94 4f 79 67
       102 94 84 133 53 53 113 81 185 110 162 54 148 79 121 103
000010 76 6e 9c 56 52 8b 84 65 6c 74 69 6f aa ca 5d 4b
       118 110 156 86 82 139 132 101 108 116 105 111 170 202 93 75
000020 2d a6 20 35 40 65 b4 ac 91 b5 71 84 5d a1 37 3c
       45 166 32 53 64 101 180 172 145 181 113 132 93 161 55 60
000030 d1 9d 61 8a 5a b8 b2 a9 57 62 a0 a4 a2 93 87 70
       209 157 97 138 90 184 178 169 87 98 160 164 162 147 135 112
000040 b2 63 5f a1 37 99 9c 79 ab a6 9e 33 9c 60 94 be
       178 99 95 161 55 153 156 121 171 166 158 51 156 96 148 190
000050 72 5c 57 79 45 9f 90 5e 80 58 5a 53 9d 98 9d 34
       114 92 87 121 69 159 144 94 128 88 90 83 157 152 157 52
000060 77 65 6b 43 41 7b c1 a7 95 87 c5 5a 33 a7 6d 51
       119 101 107 67 65 123 193 167 149 135 197 90 51 167 109 81
000070 96 75 90 52 7a 8e 5f 92 3d 37 3d 6f 46 51 8d b7
       150 117 144 82 122 142 95 146 61 55 61 111 70 81 141 183
000080 9c 5c c9 12 5f 56 bb 7c a6 6d 8b 70 43 48 9a 60
       156 92 201 18 95 86 187 124 166 109 139 112 67 72 154 96
000090 a0 71 55 23 60 0d a1 c2 5b 57 84 be a6 a0 58 97
       160 113 85 35 96 13 161 194 91 87 132 190 166 160 88 151
0000a0 67 c4 6f b0 71 a2 5b 48 77 72 59 d2 60 35 5b 85
       103 196 111 176 113 162 91 72 119 114 89 210 96 53 91 133
0000b0 b6 b7 33 89 97 8e 72 78 8b b1 78 92 6a b0 3d 6e
       182 183 51 137 151 142 114 120 139 177 120 146 106 176 61 110
0000c0 4c 60 90 75 b3 83 9c 57 67 4c 8f 97 32 76 14 41
       76 96 144 117 179 131 156 87 103 76 143 151 50 118 20 65
0000d0 23 c1 7a 9b 5c 50 84 50 c7 df ca a0 54 31 47 bc
       35 193 122 155 92 80 132 80 199 223 202 160 84 49 71 188
0000e0 79 c8 7c 74 6f 38 3c 8c 9b 80 5a 98 7e c4 a0 9b
       121 200 124 116 111 56 60 140 155 128 90 152 126 196 160 155
0000f0 79 a0 91 ac a6 46 60 19 c2 a8 a7 61 ab 74 90 76
       121 160 145 172 166 70 96 25 194 168 167 97 171 116 144 118

StatefulPartitionedCall/sequential/dense_2/BiasAdd/ReadVariableOp:0_quantized u1 [64]
000000 a0 76 ad 49 3a b3 b5 fd f0 ad d1 3a b3 b1 d5 df
       160 118 173 73 58 179 181 253 240 173 209 58 179 177 213 223
000010 d3 cc b2 64 cd 91 ae d8 a3 94 78 7c d6 c2 c9 74
       211 204 178 100 205 145 174 216 163 148 120 124 214 194 201 116
000020 8b b7 a5 87 2a 67 f0 c1 d2 d6 c6 e1 00 a1 9c 68
       139 183 165 135 42 103 240 193 210 214 198 225 0 161 156 104
000030 ff ba 8d 73 98 ca ee cb a2 cd 60 88 4c 71 8a 76
       255 186 141 115 152 202 238 203 162 205 96 136 76 113 138 118

StatefulPartitionedCall/sequential/dense_3/MatMul/ReadVariableOp:0_quantized u1 [64, 10]
000000 76 52 94 8c b1 63 a5 5e 5e 8a 81 a1 ad a2 61 b0
       118 82 148 140 177 99 165 94 94 138 129 161 173 162 97 176
000010 a7 4d 78 4e a8 2b 75 7a a9 b1 9b 9b b8 9c 62 f6
       167 77 120 78 168 43 117 122 169 177 155 155 184 156 98 246
000020 b1 7c 69 69 69 b8 79 49 9a b7 8e b1 4f b0 7d 6b
       177 124 105 105 105 184 121 73 154 183 142 177 79 176 125 107
000030 be 6b 0f c2 8d b8 6c 6e 97 4d b6 ac 46 58 86 a4
       190 107 15 194 141 184 108 110 151 77 182 172 70 88 134 164
000040 b4 61 57 b4 90 a4 1c be 47 40 bd 96 b4 4b bb bf
       180 97 87 180 144 164 28 190 71 64 189 150 180 75 187 191
000050 6f 5a b1 66 cd 3a 3b c2 44 bf 5c be b6 55 b6 62
       111 90 177 102 205 58 59 194 68 191 92 190 182 85 182 98
000060 99 57 b0 53 35 98 91 6c c2 64 35 cc 38 bf 9b a7
       153 87 176 83 53 152 145 108 194 100 53 204 56 191 155 167
000070 73 80 3c c2 a1 35 ac 79 69 c4 c3 70 9c 59 bd a6
       115 128 60 194 161 53 172 121 105 196 195 112 156 89 189 166
000080 66 5d a2 b4 a7 bd 48 a5 bd 2c b5 39 aa 39 ba 5c
       102 93 162 180 167 189 72 165 189 44 181 57 170 57 186 92
000090 c9 5b d3 63 4e 69 4a b9 bb 7f ae 5e 9e 54 a6 93
       201 91 211 99 78 105 74 185 187 127 174 94 158 84 166 147
0000a0 a7 11 a6 4d ba 9e e5 68 4b 5e a9 7e 91 bb 34 6b
       167 17 166 77 186 158 229 104 75 94 169 126 145 187 52 107
0000b0 3d 92 a1 8a b8 96 7f 83 56 7b 86 ae 9e 4d 4f f1
       61 146 161 138 184 150 127 131 86 123 134 174 158 77 79 241
0000c0 ab a6 6d 43 33 8a b1 41 a5 a9 98 ab 70 bb c8 1f
       171 166 109 67 51 138 177 65 165 169 152 171 112 187 200 31
0000d0 a0 36 8f e4 a4 85 47 66 aa 82 45 42 33 af 1f 5a
       160 54 143 228 164 133 71 102 170 130 69 66 51 175 31 90
0000e0 9e b4 77 a4 a8 ae a3 09 7f 61 b0 8a b6 66 80 8e
       158 180 119 164 168 174 163 9 127 97 176 138 182 102 128 142
0000f0 44 ac 8d c0 5b 67 0e a8 a6 a0 7c b1 6e 8e 26 83
       68 172 141 192 91 103 14 168 166 160 124 177 110 142 38 131

StatefulPartitionedCall/sequential/dense_3/BiasAdd/ReadVariableOp:0_quantized u1 [10]
000000 5e c8 c9 ff 2e 84 00 f9 20 52
       94 200 201 255 46 132 0 249 32 82
