models/mnist/tflite/mnist_high_complexity_float32_tanh.tflite (tflite, 12760 bytes, 5 tensors)

sequential/dense/MatMul i1 [5, 784] scale=0.0064893034 zero_point=0
000000 fa 08 0a 04 f8 07 fd 05 fd 08 f5 01 00 f4 06 f7
       -0.03893582 0.051914427 0.06489304 0.025957214 -0.051914427 0.045425124 -0.01946791 0.03244652 -0.01946791 0.051914427 -0.07138234 0.0064893034 0.0 -0.07787164 0.03893582 -0.05840373
000010 f8 00 fd f8 f3 0c f8 f6 f8 f5 00 06 f8 fb 06 05
       -0.051914427 0.0 -0.01946791 -0.051914427 -0.08436094 0.07787164 -0.051914427 -0.06489304 -0.051914427 -0.07138234 0.0 0.03893582 -0.051914427 -0.03244652 0.03893582 0.03244652
000020 ed de d3 dd eb ff e7 ec e9 15 e5 ee 03 18 e8 f2
       -0.12329677 -0.22063632 -0.29201865 -0.22712561 -0.13627537 -0.0064893034 -0.1622326 -0.12978607 -0.14925398 0.13627537 -0.17521119 -0.11680746 0.01946791 0.15574329 -0.15574329 -0.09085025
000030 09 0a 18 05 f6 fd 0a f8 0b 03 f8 14 e7 0a 11 e3
       0.05840373 0.06489304 0.15574329 0.03244652 -0.06489304 -0.01946791 0.06489304 -0.051914427 0.07138234 0.01946791 -0.051914427 0.12978607 -0.1622326 0.06489304 0.11031816 -0.1881898
000040 00 2a 15 fc 09 e7 0e e8 0b fe f4 ee 00 09 f1 0c
       0.0 0.27255073 0.13627537 -0.025957214 0.05840373 -0.1622326 0.09085025 -0.15574329 0.07138234 -0.012978607 -0.07787164 -0.11680746 0.0 0.05840373 -0.09733955 0.07787164
000050 27 2d 07 02 f7 09 0b 06 fa eb fd 00 00 18 fd 06
       0.25308284 0.29201865 0.045425124 0.012978607 -0.05840373 0.05840373 0.07138234 0.03893582 -0.03893582 -0.13627537 -0.01946791 0.0 0.0 0.15574329 -0.01946791 0.03893582
000060 ff 04 f7 f7 01 0c ec 0a f1 fa ec fb 0a f0 fd 0c
       -0.0064893034 0.025957214 -0.05840373 -0.05840373 0.0064893034 0.07787164 -0.12978607 0.06489304 -0.09733955 -0.03893582 -0.12978607 -0.03244652 0.06489304 -0.103828855 -0.01946791 0.07787164
000070 f8 f8 05 07 ff eb 0d fa 13 fc fd 0a fc 05 f7 fe
       -0.051914427 -0.051914427 0.03244652 0.045425124 -0.0064893034 -0.13627537 0.08436094 -0.03893582 0.12329677 -0.025957214 -0.01946791 0.06489304 -0.025957214 0.03244652 -0.05840373 -0.012978607
000080 f5 00 f2 f9 02 03 03 08 f6 f5 e4 1b f6 0a e5 e9
       -0.07138234 0.0 -0.09085025 -0.045425124 0.012978607 0.01946791 0.01946791 0.051914427 -0.06489304 -0.07138234 -0.1817005 0.17521119 -0.06489304 0.06489304 -0.17521119 -0.14925398
000090 f9 fb 06 f9 12 05 01 00 05 02 00 ff f9 05 06 f9
       -0.045425124 -0.03244652 0.03893582 -0.045425124 0.11680746 0.03244652 0.0064893034 0.0 0.03244652 0.012978607 0.0 -0.0064893034 -0.045425124 0.03244652 0.03893582 -0.045425124
0000a0 f5 f8 fa f1 0d e8 e4 12 01 e0 08 fb 10 08 0e 00
       -0.07138234 -0.051914427 -0.03893582 -0.09733955 0.08436094 -0.15574329 -0.1817005 0.11680746 0.0064893034 -0.20765771 0.051914427 -0.03244652 0.103828855 0.051914427 0.09085025 0.0
0000b0 ff 10 00 03 00 f6 05 02 02 fc 08 fc ff 0b fd f4
       -0.0064893034 0.103828855 0.0 0.01946791 0.0 -0.06489304 0.03244652 0.012978607 0.012978607 -0.025957214 0.051914427 -0.025957214 -0.0064893034 0.07138234 -0.01946791 -0.07787164
0000c0 d3 c3 c9 ec 07 0d 27 11 07 fe 15 02 03 fb 07 05
       -0.29201865 -0.3958475 -0.3569117 -0.12978607 0.045425124 0.08436094 0.25308284 0.11031816 0.045425124 -0.012978607 0.13627537 0.012978607 0.01946791 -0.03244652 0.045425124 0.03244652
0000d0 01 02 f4 fd 06 07 00 04 fd 05 fc ee d6 b1 cd cf
       0.0064893034 0.012978607 -0.07787164 -0.01946791 0.03893582 0.045425124 0.0 0.025957214 -0.01946791 0.03244652 -0.025957214 -0.11680746 -0.27255073 -0.51265496 -0.33095446 -0.31797588
0000e0 ff 11 14 11 00 fb f8 0a 04 02 ff 04 ff 00 03 0d
       -0.0064893034 0.11031816 0.12978607 0.11031816 0.0 -0.03244652 -0.051914427 0.06489304 0.025957214 0.012978607 -0.0064893034 0.025957214 -0.0064893034 0.0 0.01946791 0.08436094
0000f0 f9 ff fa fe f5 fc f3 05 d4 b3 c0 e5 fc 1d 05 09
       -0.045425124 -0.0064893034 -0.03893582 -0.012978607 -0.07138234 -0.025957214 -0.08436094 0.03244652 -0.28552935 -0.49967638 -0.41531542 -0.17521119 -0.025957214 0.1881898 0.03244652 0.05840373

sequential/dense_1/MatMul i1 [32, 5] scale=0.005604766 zero_point=0
000000 ce 0f 70 2e a1 0d 55 41 d4 ad db 39 54 f9 0e 0e
       -0.2802383 0.08407149 0.62773377 0.25781924 -0.53245276 0.072861955 0.47640508 0.3643098 -0.2466097 -0.46519557 -0.20737633 0.31947166 0.47080034 -0.03923336 0.07846672 0.07846672
000010 4f cc 02 a7 36 fb ff b2 58 04 3b c0 d0 15 2c 40
       0.4427765 -0.29144782 0.011209532 -0.49882415 0.30265737 -0.02802383 -0.005604766 -0.43717173 0.4932194 0.022419063 0.33068117 -0.358705 -0.26902875 0.117700085 0.2466097 0.358705
000020 e7 22 b3 cc ad 41 32 db 41 dd 46 e0 65 2d b9 50
       -0.14011915 0.19056204 -0.43156698 -0.29144782 -0.46519557 0.3643098 0.2802383 -0.20737633 0.3643098 -0.1961668 0.3923336 -0.1793525 0.56608135 0.25221446 -0.39793837 0.44838127
000030 a6 0d c8 43 28 31 2d 47 07 b9 d1 59 b7 8c 7d ae
       -0.5044289 0.072861955 -0.31386688 0.3755193 0.22419064 0.27463353 0.25221446 0.39793837 0.03923336 -0.39793837 -0.263424 0.49882415 -0.40914792 -0.65015286 0.70059574 -0.4595908
000040 e5 e1 32 f6 06 5c eb 51 23 dc e9 a7 05 b4 bd 25
       -0.15132868 -0.17374775 0.2802383 -0.05604766 0.033628594 0.5156385 -0.117700085 0.45398602 0.1961668 -0.20177157 -0.12890962 -0.49882415 0.02802383 -0.4259622 -0.3755193 0.20737633
000050 bd e2 0b 39 64 e2 d8 b5 d0 28 3d ac 20 0f c6 5a
       -0.3755193 -0.16814297 0.061652426 0.31947166 0.5604766 -0.16814297 -0.22419064 -0.42035744 -0.26902875 0.22419064 0.34189072 -0.47080034 0.1793525 0.08407149 -0.32507643 0.5044289
000060 b7 07 c7 a2 23 ce 0e 7f 5a 55 1d 44 3e 53 b2 cc
       -0.40914792 0.03923336 -0.31947166 -0.526848 0.1961668 -0.2802383 0.07846672 0.7118053 0.5044289 0.47640508 0.16253822 0.38112408 0.3474955 0.46519557 -0.43717173 -0.29144782
000070 c0 9f b6 4d 4a 53 cf fd fb 47 c7 b1 2d ee 20 9c
       -0.358705 -0.5436623 -0.41475266 0.43156698 0.41475266 0.46519557 -0.27463353 -0.016814297 -0.02802383 0.39793837 -0.31947166 -0.4427765 0.25221446 -0.100885786 0.1793525 -0.5604766
000080 77 be a5 fc 6b e7 a2 b1 15 2a 55 57 43 4b 5b c2
       0.66696715 -0.36991453 -0.51003367 -0.022419063 0.5997099 -0.14011915 -0.526848 -0.4427765 0.117700085 0.23540017 0.47640508 0.48761463 0.3755193 0.42035744 0.51003367 -0.3474955
000090 57 65 dd bb fe d3 16 12 51 4d ab 2c 55 21 68 bb
       0.48761463 0.56608135 -0.1961668 -0.38672885 -0.011209532 -0.25221446 0.12330485 0.100885786 0.45398602 0.43156698 -0.47640508 0.2466097 0.47640508 0.18495727 0.58289564 -0.38672885

sequential/dense_2/MatMul i1 [64, 32] scale=0.0057590124 zero_point=0
000000 19 01 e9 23 c2 c1 c1 51 05 ed 08 e4 f8 0d f8 28
       0.14397532 0.0057590124 -0.13245729 0.20156543 -0.35705876 -0.3628178 -0.3628178 0.46648002 0.028795062 -0.10942124 0.0460721 -0.16125235 -0.0460721 0.07486716 -0.0460721 0.2303605
000010 23 02 1b e3 0f de f6 b4 ad 38 fa 4b e2 1f ff 23
       0.20156543 0.011518025 0.15549333 -0.16701137 0.08638518 -0.19580643 -0.057590123 -0.43768495 -0.47799802 0.3225047 -0.034554075 0.43192592 -0.17277037 0.17852938 -0.0057590124 0.20156543
000020 0b f7 cf 00 e8 f6 e7 1c c7 0c d0 e1 e6 b3 f5 1c
       0.063349135 -0.05183111 -0.2821916 0.0 -0.1382163 -0.057590123 -0.14397532 0.16125235 -0.3282637 0.06910815 -0.2764326 -0.17852938 -0.14973432 -0.44344395 -0.063349135 0.16125235
000030 d5 13 24 48 d6 f4 1f f8 fe 2e 19 e3 cd fc db f2
       -0.24763754 0.10942124 0.20732445 0.4146489 -0.24187852 -0.06910815 0.17852938 -0.0460721 -0.011518025 0.26491457 0.14397532 -0.16701137 -0.29370964 -0.02303605 -0.21308346 -0.080626175
000040 1d 42 4c ff 03 f0 03 22 dd 2d 12 b6 45 f2 4d 0d
       0.16701137 0.38009483 0.43768495 -0.0057590124 0.017277038 -0.0921442 0.017277038 0.19580643 -0.20156543 0.25915557 0.10366222 -0.42616692 0.39737186 -0.080626175 0.44344395 0.07486716
000050 2a d6 ff d2 b6 16 0b 15 d1 c1 1c 0e 1c e9 12 fc
       0.24187852 -0.24187852 -0.0057590124 -0.26491457 -0.42616692 0.12669827 0.063349135 0.12093926 -0.27067357 -0.3628178 0.16125235 0.080626175 0.16125235 -0.13245729 0.10366222 -0.02303605
000060 0b d3 d5 32 bf fe 24 0f c1 f5 e1 07 c4 bf ca cb
       0.063349135 -0.25915557 -0.24763754 0.28795063 -0.3743358 -0.011518025 0.20732445 0.08638518 -0.3628178 -0.063349135 -0.17852938 0.040313087 -0.34554073 -0.3743358 -0.31098667 -0.30522767
000070 18 f2 31 fa 07 f6 0a ee c3 54 1a 0c af 1b 22 2d
       0.1382163 -0.080626175 0.2821916 -0.034554075 0.040313087 -0.057590123 0.057590123 -0.10366222 -0.35129976 0.48375705 0.14973432 0.06910815 -0.46648002 0.15549333 0.19580643 0.25915557
000080 d2 16 e3 51 06 20 16 b0 d9 b8 1e 12 9d 21 e4 04
       -0.26491457 0.12669827 -0.16701137 0.46648002 0.034554075 0.1842884 0.12669827 -0.460721 -0.22460148 -0.4146489 0.17277037 0.10366222 -0.5701422 0.19004741 -0.16125235 0.02303605
000090 01 1c d6 f6 e5 fa e4 f3 2f 33 e1 08 14 2c ea 33
       0.0057590124 0.16125235 -0.24187852 -0.057590123 -0.15549333 -0.034554075 -0.16125235 -0.07486716 0.27067357 0.29370964 -0.17852938 0.0460721 0.11518025 0.25339654 -0.12669827 0.29370964
0000a0 c7 c9 eb e9 2a 08 e6 c3 fb 36 e4 24 ee 09 ec 31
       -0.3282637 -0.31674567 -0.12093926 -0.13245729 0.24187852 0.0460721 -0.14973432 -0.35129976 -0.028795062 0.31098667 -0.16125235 0.20732445 -0.10366222 0.05183111 -0.11518025 0.2821916
0000b0 24 35 06 2e e6 0d 41 02 0a 17 ed ce 05 29 fa e4
       0.20732445 0.30522767 0.034554075 0.26491457 -0.14973432 0.07486716 0.3743358 0.011518025 0.057590123 0.13245729 -0.10942124 -0.28795063 0.028795062 0.23611951 -0.034554075 -0.16125235
0000c0 3e 2e 2d 00 1a d6 fd 1f 39 fa bd 1b f0 cd f0 cc
       0.35705876 0.26491457 0.25915557 0.0 0.14973432 -0.24187852 -0.017277038 0.17852938 0.3282637 -0.034554075 -0.38585383 0.15549333 -0.0921442 -0.29370964 -0.0921442 -0.29946864
0000d0 de f4 fe 57 c1 e8 ef 11 10 08 26 cf 14 12 34 2f
       -0.19580643 -0.06910815 -0.011518025 0.5010341 -0.3628178 -0.1382163 -0.097903214 0.097903214 0.0921442 0.0460721 0.21884248 -0.2821916 0.11518025 0.10366222 0.29946864 0.27067357
0000e0 d4 1a e9 21 fd 32 e3 bd da 18 a2 3b f6 0b e1 f6
       -0.25339654 0.14973432 -0.13245729 0.19004741 -0.017277038 0.28795063 -0.16701137 -0.38585383 -0.21884248 0.1382163 -0.54134715 0.33978173 -0.057590123 0.063349135 -0.17852938 -0.057590123
0000f0 c0 11 15 2f ca fc 1b e3 07 d7 bc e0 ef 60 e6 dc
       -0.3685768 0.097903214 0.12093926 0.27067357 -0.31098667 -0.02303605 0.15549333 -0.16701137 0.040313087 -0.23611951 -0.39161286 -0.1842884 -0.097903214 0.5528652 -0.14973432 -0.20732445

sequential/dense_3/MatMul i1 [32, 64] scale=0.0054654675 zero_point=0
000000 04 16 0e e9 e8 db 61 07 ee 20 08 ae 3c 15 f5 05
       0.02186187 0.120240286 0.07651655 -0.12570575 -0.13117123 -0.2022223 0.53015035 0.038258273 -0.09837841 0.17489496 0.04372374 -0.44816834 0.32792804 0.114774816 -0.060120143 0.027327336
000010 41 17 03 b8 46 33 e5 11 2c 02 d2 fd 38 45 df 2e
       0.3552554 0.12570575 0.016396403 -0.39351365 0.38258272 0.27873883 -0.14756761 0.09291295 0.24048057 0.010930935 -0.2514115 -0.016396403 0.3060662 0.37711725 -0.18036042 0.2514115
000020 27 01 ba dd eb e7 d8 19 20 0f c1 14 c9 de 08 30
       0.21315323 0.0054654675 -0.38258272 -0.19129136 -0.114774816 -0.13663669 -0.21861869 0.13663669 0.17489496 0.08198201 -0.34432444 0.109309345 -0.3006007 -0.1858259 0.04372374 0.26234245
000030 e1 23 df 2d ee 43 b6 f5 06 02 3f 22 b1 16 a5 fe
       -0.1694295 0.19129136 -0.18036042 0.24594603 -0.09837841 0.36618632 -0.4044446 -0.060120143 0.032792807 0.010930935 0.34432444 0.1858259 -0.43177193 0.120240286 -0.49735755 -0.010930935
000040 05 2d 04 67 4a fd 15 49 0b e0 27 40 f7 c2 de af
       0.027327336 0.24594603 0.02186187 0.56294316 0.4044446 -0.016396403 0.114774816 0.39897913 0.060120143 -0.17489496 0.21315323 0.34978992 -0.049189206 -0.338859 -0.1858259 -0.44270286
000050 db f8 2f d3 f3 45 1b 29 30 aa 19 dc 19 c1 28 f8
       -0.2022223 -0.04372374 0.25687698 -0.24594603 -0.071051076 0.37711725 0.14756761 0.22408417 0.26234245 -0.4700302 0.13663669 -0.19675682 0.13663669 -0.34432444 0.21861869 -0.04372374
000060 da 0c fa 9d f6 23 f0 fb 25 e9 ce f5 17 43 f7 ea
       -0.20768777 0.06558561 -0.032792807 -0.54108125 -0.054654673 0.19129136 -0.08744748 -0.027327336 0.2022223 -0.12570575 -0.27327338 -0.060120143 0.12570575 0.36618632 -0.049189206 -0.120240286
000070 04 53 20 20 db ca f3 0a e8 0f 25 b3 d8 2e 21 14
       0.02186187 0.4536338 0.17489496 0.17489496 -0.2022223 -0.29513523 -0.071051076 0.054654673 -0.13117123 0.08198201 0.2022223 -0.420841 -0.21861869 0.2514115 0.18036042 0.109309345
000080 fb d6 09 11 d1 f7 1a ef 31 3c da ae da fb ff 4c
       -0.027327336 -0.22954963 0.049189206 0.09291295 -0.25687698 -0.049189206 0.14210215 -0.09291295 0.2678079 0.32792804 -0.20768777 -0.44816834 -0.20768777 -0.027327336 -0.0054654675 0.41537553
000090 53 f6 de f8 1f b6 26 2d ef 0b ed fb 3d 34 d3 eb
       0.4536338 -0.054654673 -0.1858259 -0.04372374 0.1694295 -0.4044446 0.20768777 0.24594603 -0.09291295 0.060120143 -0.10384388 -0.027327336 0.3333935 0.2842043 -0.24594603 -0.114774816
0000a0 13 23 d5 49 3c fe 20 74 e0 f5 e9 14 dd f4 0e eb
       0.10384388 0.19129136 -0.2350151 0.39897913 0.32792804 -0.010930935 0.17489496 0.6339942 -0.17489496 -0.060120143 -0.12570575 0.109309345 -0.19129136 -0.06558561 0.07651655 -0.114774816
0000b0 30 e6 e8 de 31 e6 08 d6 de 58 3b e4 d0 da e3 1d
       0.26234245 -0.14210215 -0.13117123 -0.1858259 0.2678079 -0.14210215 0.04372374 -0.22954963 -0.1858259 0.48096114 0.3224626 -0.1530331 -0.26234245 -0.20768777 -0.15849856 0.15849856
0000c0 59 0f 39 1f fe 0e f1 21 f5 cb d6 de 23 e7 2a f0
       0.4864266 0.08198201 0.31153163 0.1694295 -0.010930935 0.07651655 -0.08198201 0.18036042 -0.060120143 -0.28966978 -0.22954963 -0.1858259 0.19129136 -0.13663669 0.22954963 -0.08744748
0000d0 e5 de 21 04 ed 36 0e fd de f8 01 35 ba 2a 1f 10
       -0.14756761 -0.1858259 0.18036042 0.02186187 -0.10384388 0.29513523 0.07651655 -0.016396403 -0.1858259 -0.04372374 0.0054654675 0.28966978 -0.38258272 0.22954963 0.1694295 0.08744748
0000e0 20 22 14 31 39 1b e9 0f 28 f5 da db 28 dd 32 11
       0.17489496 0.1858259 0.109309345 0.2678079 0.31153163 0.14756761 -0.12570575 0.08198201 0.21861869 -0.060120143 -0.20768777 -0.2022223 0.21861869 -0.19129136 0.27327338 0.09291295
0000f0 02 dc 0d e9 2e e3 e9 28 5b ba 01 e7 f1 03 46 00
       0.010930935 -0.19675682 0.071051076 -0.12570575 0.2514115 -0.15849856 -0.12570575 0.21861869 0.49735755 -0.38258272 0.0054654675 -0.13663669 -0.08198201 0.016396403 0.38258272 0.0

sequential/dense_4/MatMul i1 [10, 32] scale=0.0071920212 zero_point=0
000000 5e f4 ee d1 bf d0 38 1e c1 fe d8 f8 f2 4a c2 c0
       0.67605 -0.086304255 -0.12945639 -0.338025 -0.46748137 -0.34521702 0.40275317 0.21576063 -0.45309734 -0.0143840425 -0.28768086 -0.05753617 -0.10068829 0.5322096 -0.44590533 -0.46028936
000010 20 e2 14 e7 f3 52 b6 e4 f0 2c ae f5 53 b2 ac cb
       0.23014468 -0.21576063 0.14384043 -0.17980053 -0.09349628 0.58974576 -0.5322096 -0.20137659 -0.11507234 0.31644893 -0.58974576 -0.07911223 0.5969378 -0.56097764 -0.6041298 -0.38117713
000020 b4 d4 3a d5 e2 3f 58 bf 4e c8 04 53 28 e1 ba 4c
       -0.5465936 -0.31644893 0.41713724 -0.3092569 -0.21576063 0.45309734 0.63289785 -0.46748137 0.56097764 -0.40275317 0.028768085 0.5969378 0.28768086 -0.22295266 -0.5034415 0.5465936
000030 db 11 ee bf c4 6a 62 15 b5 e3 e6 0d 88 4c 01 47
       -0.2661048 0.12226436 -0.12945639 -0.46748137 -0.43152127 0.76235425 0.70481807 0.15103245 -0.5394016 -0.20856862 -0.18699256 0.09349628 -0.86304253 0.5465936 0.0071920212 0.5106335
000040 fe f8 c7 32 e3 dc f9 1f 0f 69 0e f7 37 f5 cb 3f
       -0.0143840425 -0.05753617 -0.40994522 0.35960105 -0.20856862 -0.25891277 -0.050344147 0.22295266 0.10788032 0.75516224 0.10068829 -0.06472819 0.39556116 -0.07911223 -0.38117713 0.45309734
000050 31 24 40 20 f1 31 bc 66 09 09 62 f4 03 cf 46 30
       0.35240903 0.25891277 0.46028936 0.23014468 -0.10788032 0.35240903 -0.48905745 0.7335862 0.06472819 0.06472819 0.70481807 -0.086304255 0.021576064 -0.35240903 0.5034415 0.34521702
000060 d1 31 13 56 32 03 f2 bd ce c6 dc d9 59 2f c3 44
       -0.338025 0.35240903 0.1366484 0.6185138 0.35960105 0.021576064 -0.10068829 -0.48186544 -0.35960105 -0.41713724 -0.25891277 -0.28048882 0.64008987 0.338025 -0.43871328 0.48905745
000070 18 08 4d 30 1a dd 2d c3 d5 45 d3 37 f8 20 0f f5
       0.17260851 0.05753617 0.5537856 0.34521702 0.18699256 -0.25172076 0.32364094 -0.43871328 -0.3092569 0.49624947 -0.32364094 0.39556116 -0.05753617 0.23014468 0.10788032 -0.07911223
000080 3b ef 0f bd 33 43 e9 0b b3 d7 55 4a e8 fb 2d eb
       0.42432925 -0.12226436 0.10788032 -0.48186544 0.3667931 0.48186544 -0.1654165 0.07911223 -0.5537856 -0.29487288 0.6113218 0.5322096 -0.17260851 -0.035960108 0.32364094 -0.15103245
000090 f9 39 e4 e1 27 c9 07 15 44 4e 2e f1 f1 c6 ca c9
       -0.050344147 0.40994522 -0.20137659 -0.22295266 0.28048882 -0.39556116 0.050344147 0.15103245 0.48905745 0.56097764 0.330833 -0.10788032 -0.10788032 -0.41713724 -0.38836914 -0.39556116
0000a0 d6 3b 0b df f2 ff ce e3 de d4 e2 cf 98 e2 d7 20
       -0.3020649 0.42432925 0.07911223 -0.2373367 -0.10068829 -0.0071920212 -0.35960105 -0.20856862 -0.24452873 -0.31644893 -0.21576063 -0.35240903 -0.7479702 -0.21576063 -0.29487288 0.23014468
0000b0 a5 0c c6 27 b9 ce 52 42 c9 e6 c5 9e b4 12 cb dc
       -0.65447396 0.086304255 -0.41713724 0.28048882 -0.5106335 -0.35960105 0.58974576 0.4746734 -0.39556116 -0.18699256 -0.42432925 -0.70481807 -0.5465936 0.12945639 -0.38117713 -0.25891277
0000c0 e5 fa aa af c5 23 1e 61 f1 f6 ec f3 de 22 ed 60
       -0.19418457 -0.043152127 -0.6185138 -0.58255374 -0.42432925 0.25172076 0.21576063 0.69762605 -0.10788032 -0.071920216 -0.14384043 -0.09349628 -0.24452873 0.24452873 -0.1366484 0.69043404
0000d0 a8 2d da 9d 44 e6 e1 31 2c ce a8 eb 6a ba ae 5e
       -0.63289785 0.32364094 -0.2732968 -0.7120101 0.48905745 -0.18699256 -0.22295266 0.35240903 0.31644893 -0.35960105 -0.63289785 -0.15103245 0.76235425 -0.5034415 -0.58974576 0.67605
0000e0 fd 42 40 d7 55 e8 1c db 23 2f e5 f3 2b bb 7f e4
       -0.021576064 0.4746734 0.46028936 -0.29487288 0.6113218 -0.17260851 0.20137659 -0.2661048 0.25172076 0.338025 -0.19418457 -0.09349628 0.3092569 -0.49624947 0.9133867 -0.20137659
0000f0 28 22 3b 06 ea 53 72 00 77 27 05 52 28 25 0e ec
       0.28768086 0.24452873 0.42432925 0.043152127 -0.15822446 0.5969378 0.81989044 0.0 0.8558505 0.28048882 0.035960108 0.58974576 0.28768086 0.2661048 0.10068829 -0.14384043
