models/mnist/tflite/mnist_medium_complexity_float32_sigmoid.tflite (tflite, 10320 bytes, 4 tensors)

sequential/dense/MatMul i1 [5, 784] scale=0.010932819 zero_point=0
000000 01 ff 07 07 fe f9 06 fa f9 fc 01 05 02 f7 ef f6
       0.010932819 -0.010932819 0.076529734 0.076529734 -0.021865638 -0.076529734 0.065596916 -0.065596916 -0.076529734 -0.043731276 0.010932819 0.054664094 0.021865638 -0.09839537 -0.18585792 -0.10932819
000010 fd fc 00 03 00 fb 03 f9 06 fe 05 f9 00 04 fb ff
       -0.032798458 -0.043731276 0.0 0.032798458 0.0 -0.054664094 0.032798458 -0.076529734 0.065596916 -0.021865638 0.054664094 -0.076529734 0.0 0.043731276 -0.054664094 -0.010932819
000020 02 06 0e 0d 00 0a 16 fd 03 ed fc fc d8 fa 23 21
       0.021865638 0.065596916 0.15305947 0.14212665 0.0 0.10932819 0.24052201 -0.032798458 0.032798458 -0.20772356 -0.043731276 -0.043731276 -0.43731275 -0.065596916 0.38264868 0.36078304
000030 1c 15 ff fc 04 04 01 ff 06 fb 08 ea 00 18 1e 10
       0.30611894 0.2295892 -0.010932819 -0.043731276 0.043731276 0.043731276 0.010932819 -0.010932819 0.065596916 -0.054664094 0.08746255 -0.24052201 0.0 0.26238766 0.32798457 0.1749251
000040 2a 30 3b 23 1c 1e 17 19 1d 1e 2c 3e 40 29 1e fe
       0.4591784 0.5247753 0.64503634 0.38264868 0.30611894 0.32798457 0.25145483 0.27332047 0.31705174 0.32798457 0.48104402 0.67783475 0.6997004 0.44824558 0.32798457 -0.021865638
000050 ed ee 01 fa fa 06 01 e9 ff 01 16 0d 18 15 13 f8
       -0.20772356 -0.19679074 0.010932819 -0.065596916 -0.065596916 0.065596916 0.010932819 -0.25145483 -0.010932819 0.010932819 0.24052201 0.14212665 0.26238766 0.2295892 0.20772356 -0.08746255
000060 f9 f1 02 fc f0 f5 0f 13 17 20 36 1e 0c f8 fc 02
       -0.076529734 -0.16399229 0.021865638 -0.043731276 -0.1749251 -0.120261006 0.16399229 0.20772356 0.25145483 0.3498502 0.5903722 0.32798457 0.13119383 -0.08746255 -0.043731276 0.021865638
000070 fd ff fa e9 0a fa fc e9 e3 e9 e1 e5 eb e8 f8 eb
       -0.032798458 -0.010932819 -0.065596916 -0.25145483 0.10932819 -0.065596916 -0.043731276 -0.25145483 -0.31705174 -0.25145483 -0.33891737 -0.2951861 -0.2295892 -0.26238766 -0.08746255 -0.2295892
000080 f6 fb f2 01 f9 04 20 46 2d 21 03 0c 03 06 09 e2
       -0.10932819 -0.054664094 -0.15305947 0.010932819 -0.076529734 0.043731276 0.3498502 0.76529735 0.49197686 0.36078304 0.032798458 0.13119383 0.032798458 0.065596916 0.09839537 -0.32798457
000090 ec e4 e3 df e9 ef e9 f7 fc e7 f2 f0 f1 01 f7 ff
       -0.21865638 -0.30611894 -0.31705174 -0.36078304 -0.25145483 -0.18585792 -0.25145483 -0.09839537 -0.043731276 -0.27332047 -0.15305947 -0.1749251 -0.16399229 0.010932819 -0.09839537 -0.010932819
0000a0 07 01 15 30 39 2a 1c 10 fb f6 ea cb d9 e3 dd e5
       0.076529734 0.010932819 0.2295892 0.5247753 0.6231707 0.4591784 0.30611894 0.1749251 -0.054664094 -0.10932819 -0.24052201 -0.5794394 -0.42637995 -0.31705174 -0.38264868 -0.2951861
0000b0 ea f4 f1 f6 f6 ea ef f6 f6 f8 ee 0a 03 fc 06 21
       -0.24052201 -0.13119383 -0.16399229 -0.10932819 -0.10932819 -0.24052201 -0.18585792 -0.10932819 -0.10932819 -0.08746255 -0.19679074 0.10932819 0.032798458 -0.043731276 0.065596916 0.36078304
0000c0 3f 3f 11 14 f9 ee ec d7 d6 db dc f8 03 f9 fc f8
       0.6887676 0.6887676 0.18585792 0.21865638 -0.076529734 -0.19679074 -0.21865638 -0.44824558 -0.4591784 -0.4045143 -0.39358148 -0.08746255 0.032798458 -0.076529734 -0.043731276 -0.08746255
0000d0 f2 f8 f1 f9 fb fd f6 fd f9 ff 04 15 3a 37 32 10
       -0.15305947 -0.08746255 -0.16399229 -0.076529734 -0.054664094 -0.032798458 -0.10932819 -0.032798458 -0.076529734 -0.010932819 0.043731276 0.2295892 0.6341035 0.60130507 0.54664093 0.1749251
0000e0 00 ef f1 e2 c9 e3 e2 ef f8 f8 fb f9 f8 f4 e3 e0
       0.0 -0.18585792 -0.16399229 -0.32798457 -0.60130507 -0.31705174 -0.32798457 -0.18585792 -0.08746255 -0.08746255 -0.054664094 -0.076529734 -0.08746255 -0.13119383 -0.31705174 -0.3498502
0000f0 f0 f0 fb f4 03 06 02 23 39 78 29 0d ed ef e3 dc
       -0.1749251 -0.1749251 -0.054664094 -0.13119383 0.032798458 0.065596916 0.021865638 0.38264868 0.6231707 1.3119383 0.44824558 0.14212665 -0.20772356 -0.18585792 -0.31705174 -0.39358148

sequential/dense_1/MatMul i1 [32, 5] scale=0.020042902 zero_point=0
000000 be 4a 24 fd 5f fa af 48 da 66 45 5b bb e2 26 08
       -1.3228315 1.4831747 0.72154444 -0.060128704 1.9040756 -0.12025741 -1.6234751 1.4430889 -0.7616303 2.044376 1.3829602 1.823904 -1.3829602 -0.60128707 0.7616303 0.16034321
000010 e7 97 67 fd b7 b6 29 11 c7 fc f3 ae 72 0d b2 5c
       -0.5010725 -2.1045046 2.0644188 -0.060128704 -1.4631318 -1.4831747 0.821759 0.34072933 -1.1424454 -0.08017161 -0.2605577 -1.643518 2.284891 0.2605577 -1.5633464 1.8439469
000020 c8 1c 11 ac 0b b7 28 5a 3a b9 4b f2 bd 59 f0 06
       -1.1224025 0.5612013 0.34072933 -1.6836038 0.22047192 -1.4631318 0.8017161 1.8038611 1.1624883 -1.423046 1.5032177 -0.28060064 -1.3428744 1.7838182 -0.32068643 0.12025741
000030 f4 1d 4b 6d e9 c7 81 ba 42 2b e2 a1 cf 9a c9 d6
       -0.24051481 0.5812442 1.5032177 2.1846764 -0.46098673 -1.1424454 -2.5454485 -1.4030031 1.3228315 0.8618448 -0.60128707 -1.9040756 -0.9821022 -2.044376 -1.1023597 -0.8418019
000040 ca 4c 59 b2 ed 23 1b b0 50 c4 22 b5 94 15 11 e5
       -1.0823168 1.5232606 1.7838182 -1.5633464 -0.38081515 0.70150155 0.5411584 -1.6034322 1.6034322 -1.2025741 0.68145865 -1.5032177 -2.1646335 0.42090094 0.34072933 -0.5411584
000050 f6 e2 f1 50 ce 21 55 fc c7 39 df 62 2b a5 a0 f7
       -0.20042902 -0.60128707 -0.30064353 1.6034322 -1.002145 0.66141576 1.7036467 -0.08017161 -1.1424454 1.1424454 -0.66141576 1.9642044 0.8618448 -1.823904 -1.9241185 -0.18038611
000060 46 0e e4 58 3e f0 29 f0 42 3a bd 4a fd c1 f1 30
       1.4030031 0.28060064 -0.5612013 1.7637753 1.2426599 -0.32068643 0.821759 -0.32068643 1.3228315 1.1624883 -1.3428744 1.4831747 -0.060128704 -1.2627028 -0.30064353 0.96205926
000070 b7 39 c6 28 a6 d5 4d c6 fc ee 27 05 98 45 c2 3c
       -1.4631318 1.1424454 -1.1624883 0.8017161 -1.8038611 -0.8618448 1.5433035 -1.1624883 -0.08017161 -0.36077222 0.7816732 0.10021451 -2.0844617 1.3829602 -1.2426599 1.2025741
000080 f2 b7 d9 01 0f 3d c3 e3 b5 1e 2d c1 42 c3 30 f9
       -0.28060064 -1.4631318 -0.7816732 0.020042902 0.30064353 1.222617 -1.222617 -0.5812442 -1.5032177 0.60128707 0.9019306 -1.2627028 1.3228315 -1.222617 0.96205926 -0.14030032
000090 48 37 5d 04 c1 ea de 48 b4 19 ac 55 cc e5 db 04
       1.4430889 1.1023597 1.8639898 0.08017161 -1.2627028 -0.44094384 -0.68145865 1.4430889 -1.5232606 0.5010725 -1.6836038 1.7036467 -1.0422308 -0.5411584 -0.74158734 0.08017161

sequential/dense_2/MatMul i1 [64, 32] scale=0.013316054 zero_point=0
000000 f0 37 22 d7 e5 bf ec fd 10 16 f5 0a 20 12 36 eb
       -0.21305686 0.73238295 0.45274583 -0.5459582 -0.35953346 -0.8655435 -0.26632106 -0.03994816 0.21305686 0.2929532 -0.1464766 0.13316053 0.42611372 0.23968896 0.7190669 -0.27963713
000010 db 30 01 0d 01 0e bf e5 e6 10 cc dd 02 16 de 0d
       -0.492694 0.6391706 0.013316054 0.1731087 0.013316054 0.18642476 -0.8655435 -0.35953346 -0.3462174 0.21305686 -0.6924348 -0.4660619 0.026632108 0.2929532 -0.45274583 0.1731087
000020 e8 ed e7 eb 21 e5 f1 cc 31 ef 15 1d fa da f9 18
       -0.3195853 -0.25300503 -0.33290136 -0.27963713 0.4394298 -0.35953346 -0.19974081 -0.6924348 0.6524866 -0.22637291 0.27963713 0.38616556 -0.07989632 -0.50601006 -0.09321238 0.3195853
000030 18 ff 3c e7 04 27 f4 0e 24 1d 15 01 f6 07 1f fb
       0.3195853 -0.013316054 0.79896325 -0.33290136 0.053264216 0.5193261 -0.15979265 0.18642476 0.47937793 0.38616556 0.27963713 0.013316054 -0.13316053 0.09321238 0.41279766 -0.066580266
000040 e0 ea 4d 17 c8 01 00 07 ef 08 48 02 08 59 e1 be
       -0.42611372 -0.2929532 1.0253361 0.30626923 -0.74569905 0.013316054 0.0 0.09321238 -0.22637291 0.10652843 0.95875585 0.026632108 0.10652843 1.1851288 -0.41279766 -0.8788596
000050 f8 2e 28 18 0c e0 0a e3 f3 fd f0 c8 f8 3c 27 27
       -0.10652843 0.61253846 0.5326421 0.3195853 0.15979265 -0.42611372 0.13316053 -0.38616556 -0.1731087 -0.03994816 -0.21305686 -0.74569905 -0.10652843 0.79896325 0.5193261 0.5193261
000060 0d 27 a2 fe 49 0b dc ed 14 f9 94 04 0d ab 0d 47
       0.1731087 0.5193261 -1.2517091 -0.026632108 0.97207195 0.1464766 -0.47937793 -0.25300503 0.26632106 -0.09321238 -1.4381338 0.053264216 0.1731087 -1.1318645 0.1731087 0.9454398
000070 13 c0 dc f9 07 16 f6 15 10 01 1f 3e 18 bd ce e0
       0.25300503 -0.85222745 -0.47937793 -0.09321238 0.09321238 0.2929532 -0.13316053 0.27963713 0.21305686 0.013316054 0.41279766 0.8255953 0.3195853 -0.8921756 -0.6658027 -0.42611372
000080 c2 c4 ea 38 19 0d 03 e4 19 f6 33 1a e6 e6 d4 14
       -0.8255953 -0.79896325 -0.2929532 0.74569905 0.33290136 0.1731087 0.03994816 -0.37284952 0.33290136 -0.13316053 0.67911875 0.3462174 -0.3462174 -0.3462174 -0.5859064 0.26632106
000090 26 c2 0d db d8 18 1a 3e 3f 0a 19 21 f8 de 15 ef
       0.50601006 -0.8255953 0.1731087 -0.492694 -0.5326421 0.3195853 0.3462174 0.8255953 0.8389114 0.13316053 0.33290136 0.4394298 -0.10652843 -0.45274583 0.27963713 -0.22637291
0000a0 c2 20 e1 0b 39 1d d5 00 34 1a da ee 30 de 2e 34
       -0.8255953 0.42611372 -0.41279766 0.1464766 0.7590151 0.38616556 -0.5725903 0.0 0.6924348 0.3462174 -0.50601006 -0.23968896 0.6391706 -0.45274583 0.61253846 0.6924348
0000b0 2b cf c3 e2 fe 3b ef 4c 20 43 17 46 19 d4 f3 2a
       0.5725903 -0.6524866 -0.8122793 -0.39948162 -0.026632108 0.78564715 -0.22637291 1.0120201 0.42611372 0.8921756 0.30626923 0.9321238 0.33290136 -0.5859064 -0.1731087 0.55927426
0000c0 fa 22 40 23 f0 0c 0f 43 ea 11 d0 d1 3c 31 0b 03
       -0.07989632 0.45274583 0.85222745 0.4660619 -0.21305686 0.15979265 0.19974081 0.8921756 -0.2929532 0.22637291 -0.6391706 -0.62585455 0.79896325 0.6524866 0.1464766 0.03994816
0000d0 e3 23 aa fd 0f e5 f1 ff d7 e1 de df 0d e8 e4 29
       -0.38616556 0.4660619 -1.1451806 -0.03994816 0.19974081 -0.35953346 -0.19974081 -0.013316054 -0.5459582 -0.41279766 -0.45274583 -0.4394298 0.1731087 -0.3195853 -0.37284952 0.5459582
0000e0 dd 02 05 e2 e1 e0 bf a5 53 1c 3b e2 ec 08 25 d4
       -0.4660619 0.026632108 0.066580266 -0.39948162 -0.41279766 -0.42611372 -0.8655435 -1.2117609 1.1052325 0.37284952 0.78564715 -0.39948162 -0.26632106 0.10652843 0.492694 -0.5859064
0000f0 eb 20 f3 f8 2e 55 e5 1d 0e 44 eb fe 30 24 d4 38
       -0.27963713 0.42611372 -0.1731087 -0.10652843 0.61253846 1.1318645 -0.35953346 0.38616556 0.18642476 0.90549165 -0.27963713 -0.026632108 0.6391706 0.47937793 -0.5859064 0.74569905

sequential/dense_3/MatMul i1 [10, 64] scale=0.010033829 zero_point=0
000000 f0 fa 1f dd 12 8f c3 9b ea d8 b3 12 e4 1a 20 c7
       -0.16054127 -0.060202975 0.31104872 -0.351184 0.18060893 -1.1338227 -0.6120636 -1.0134168 -0.22074424 -0.40135318 -0.7726048 0.18060893 -0.2809472 0.26087955 0.32108253 -0.57192826
000010 1e 20 2e cc 1c 08 b1 1a c1 f5 ca d7 4b 23 c9 19
       0.30101487 0.32108253 0.46155614 -0.5217591 0.2809472 0.08027063 -0.7926725 0.26087955 -0.6321312 -0.11037212 -0.5418268 -0.411387 0.7525372 0.351184 -0.55186063 0.25084573
000020 a0 18 df 2e 12 f0 11 10 ee 44 e3 39 38 9e d7 d3
       -0.9632476 0.2408119 -0.33111635 0.46155614 0.18060893 -0.16054127 0.1705751 0.16054127 -0.18060893 0.6823004 -0.29098105 0.57192826 0.5618944 -0.9833152 -0.411387 -0.45152232
000030 1f f9 ab 3d b9 4a 5d 33 11 2a 34 e6 33 21 a9 cc
       0.31104872 -0.0702368 -0.8528755 0.6120636 -0.71240187 0.74250335 0.9331461 0.5117253 0.1705751 0.4214208 0.5217591 -0.26087955 0.5117253 0.33111635 -0.87294316 -0.5217591
000040 ce 19 aa 68 2d 37 d4 34 d5 34 10 1e 3a 2a b7 2f
       -0.50169146 0.25084573 -0.8629093 1.0435182 0.45152232 0.55186063 -0.44148847 0.5217591 -0.43145466 0.5217591 0.16054127 0.30101487 0.5819621 0.4214208 -0.7324695 0.47158998
000050 91 f8 0f 63 20 57 25 8a 23 28 f3 e8 d3 cf 2c b4
       -1.113755 -0.08027063 0.15050744 0.9933491 0.32108253 0.87294316 0.37125167 -1.1839918 0.351184 0.40135318 -0.13043977 -0.2408119 -0.45152232 -0.4916576 0.44148847 -0.76257104
000060 1c c9 f1 8f f2 c1 0e 1a e9 d5 55 81 e5 70 1c 02
       0.2809472 -0.55186063 -0.15050744 -1.1338227 -0.1404736 -0.6321312 0.1404736 0.26087955 -0.23077807 -0.43145466 0.8528755 -1.2742963 -0.2709134 1.1237888 0.2809472 0.020067658
000070 e5 be 5e ad fd b6 b5 fd d4 86 b6 da da e4 38 5e
       -0.2709134 -0.6622327 0.94317997 -0.83280784 -0.030101487 -0.74250335 -0.7525372 -0.030101487 -0.44148847 -1.2241272 -0.74250335 -0.38128552 -0.38128552 -0.2809472 0.5618944 0.94317997
000080 0c 23 ef 27 06 06 ff c4 28 2c 0a ed 38 1e 30 31
       0.12040595 0.351184 -0.1705751 0.39131933 0.060202975 0.060202975 -0.010033829 -0.60202974 0.40135318 0.44148847 0.100338295 -0.19064276 0.5618944 0.30101487 0.4816238 0.4916576
000090 1d 09 f9 22 10 1b 9e f9 05 e9 c4 9a f7 08 2e 1b
       0.29098105 0.090304464 -0.0702368 0.3411502 0.16054127 0.2709134 -0.9833152 -0.0702368 0.050169148 -0.23077807 -0.60202974 -1.0234506 -0.090304464 0.08027063 0.46155614 0.2709134
0000a0 fb a0 22 e7 15 19 2a 13 26 35 32 c2 23 04 1e da
       -0.050169148 -0.9632476 0.3411502 -0.25084573 0.2107104 0.25084573 0.4214208 0.19064276 0.38128552 0.53179294 0.50169146 -0.62209743 0.351184 0.040135317 0.30101487 -0.38128552
0000b0 fc ef 2f ec f2 1d 1c 21 10 2e 10 e9 d7 cc 1f d9
       -0.040135317 -0.1705751 0.47158998 -0.20067659 -0.1404736 0.29098105 0.2809472 0.33111635 0.16054127 0.46155614 0.16054127 -0.23077807 -0.411387 -0.5217591 0.31104872 -0.39131933
0000c0 05 1a f4 f6 27 2e 1b bd e1 d1 e7 f9 eb 33 d7 f8
       0.050169148 0.26087955 -0.12040595 -0.100338295 0.39131933 0.46155614 0.2709134 -0.67226654 -0.31104872 -0.47158998 -0.25084573 -0.0702368 -0.2107104 0.5117253 -0.411387 -0.08027063
0000d0 ca 31 fd 1d 22 fe d6 dc 35 07 00 e2 f8 cb ca 18
       -0.5418268 0.4916576 -0.030101487 0.29098105 0.3411502 -0.020067658 -0.4214208 -0.36121786 0.53179294 0.0702368 0.0 -0.30101487 -0.08027063 -0.53179294 -0.5418268 0.2408119
0000e0 f4 0d 27 fb 0c ec ea 2f 0d 21 df fc 33 1a 1d 1b
       -0.12040595 0.13043977 0.39131933 -0.050169148 0.12040595 -0.20067659 -0.22074424 0.47158998 0.13043977 0.33111635 -0.33111635 -0.040135317 0.5117253 0.26087955 0.29098105 0.2709134
0000f0 11 10 1c 1f fc e8 1d c6 fa 2b 27 d4 2f da f4 dd
       0.1705751 0.16054127 0.2809472 0.31104872 -0.040135317 -0.2408119 0.29098105 -0.5819621 -0.060202975 0.43145466 0.39131933 -0.44148847 0.47158998 -0.38128552 -0.12040595 -0.351184
