models/mnist/tflite/mnist_low_complexity_float32_relu_quant_deq_in_out_layers.tflite (tflite, 7040 bytes, 3 tensors)

sequential/dense/MatMul i1 [5, 784] scale=0.0067956503 zero_point=0
-0.0067956503 0.06795651 0.0 -0.04756955 -0.061160855 0.013591301 -0.054365203 -0.061160855
0.020386951 0.027182601 0.033978254 -0.020386951 0.020386951 -0.0951391 -0.08834346 -0.033978254
-0.033978254 0.0067956503 -0.054365203 0.033978254 -0.020386951 0.020386951 0.027182601 0.033978254
0.07475215 0.0 -0.06795651 -0.07475215 0.0067956503 0.04756955 0.020386951 -0.054365203
0.0 -0.0067956503 -0.108730406 -0.29221296 -0.16989125 -0.081547804 -0.19707386 -0.24464342
-0.24464342 -0.15629996 0.0 -0.12911735 -0.21066517 -0.11552606 -0.12232171 -0.14270866
-0.22425646 -0.1495043 -0.29221296 -0.22425646 0.020386951 -0.04756955 -0.06795651 0.040773902
-0.0067956503 0.06795651 -0.054365203 -0.108730406 -0.061160855 -0.108730406 -0.14270866 -0.2990086
-0.31939557 -0.13591301 -0.21746081 -0.14270866 -0.21746081 -0.36696512 -0.17668691 -0.12911735
-0.28541732 -0.108730406 -0.15629996 -0.13591301 0.04756955 0.12232171 -0.033978254 -0.24464342
-0.28541732 -0.2038695 -0.061160855 0.0 0.06795651 0.04756955 0.020386951 -0.31939557
-0.19707386 -0.21066517 -0.34657818 -0.21746081 -0.26503035 -0.22425646 -0.1902782 -0.061160855
-0.35337383 -0.5028781 -0.2582347 -0.34657818 -0.21746081 -0.18348256 -0.2582347 -0.11552606
-0.26503035 -0.11552606 -0.08834346 -0.040773902 -0.07475215 -0.08834346 0.15629996 0.013591301
0.08834346 -0.020386951 -0.081547804 -0.2990086 -0.06795651 -0.22425646 -0.18348256 -0.0951391
-0.12911735 -0.16309561 -0.18348256 -0.061160855 0.027182601 -0.027182601 -0.027182601 -0.08834346
-0.16309561 -0.04756955 -0.11552606 -0.14270866 -0.027182601 -0.108730406 -0.04756955 0.033978254
0.0067956503 -0.0951391 -0.29221296 -0.04756955 0.033978254 0.061160855 -0.13591301 -0.21066517
-0.1902782 -0.33298686 -0.10193475 -0.04756955 -0.027182601 0.0951391 0.07475215 0.1495043
0.12232171 0.12232171 0.061160855 0.06795651 0.040773902 0.07475215 0.04756955 -0.061160855
-0.033978254 -0.1495043 -0.17668691 -0.23784776 -0.14270866 -0.081547804 -0.19707386 0.020386951
-0.081547804 -0.10193475 0.04756955 -0.2582347 -0.15629996 -0.04756955 -0.12232171 0.07475215
-0.013591301 0.07475215 0.07475215 0.061160855 0.081547804 0.04756955 0.16309561 0.12911735
0.15629996 0.10193475 0.081547804 0.04756955 -0.027182601 0.027182601 0.0067956503 -0.033978254
-0.29221296 -0.12232171 -0.21066517 -0.04756955 -0.0067956503 -0.30580425 0.23784776 0.0067956503
-0.013591301 -0.040773902 0.0067956503 0.11552606 0.06795651 0.06795651 0.027182601 0.10193475
0.08834346 0.15629996 0.13591301 0.2038695 0.12232171 0.15629996 0.10193475 -0.027182601
0.108730406 -0.0067956503 0.06795651 0.033978254 -0.061160855 -0.23784776 -0.07475215 -0.12232171
0.04756955 0.15629996 0.12911735 0.013591301 -0.13591301 -0.12911735 -0.040773902 0.08834346
0.04756955 0.12232171 0.21066517 0.10193475 0.081547804 0.04756955 0.16309561 0.06795651
0.07475215 -0.013591301 -0.0067956503 0.027182601 -0.013591301 0.054365203 0.020386951 0.2038695
0.081547804 -0.13591301 -0.15629996 -0.17668691 0.15629996 0.08834346 0.013591301 -0.013591301
00000000: ff0a 00f9 f702 f8f7 0304 05fd 03f2 f3fb
00000010: fb01 f805 fd03 0405 0b00 f6f5 0107 03f8
00000020: 00ff f0d5 e7f4 e3dc dce9 00ed e1ef eeeb
00000030: dfea d5df 03f9 f606 ff0a f8f0 f7f0 ebd4
00000040: d1ec e0eb e0ca e6ed d6f0 e9ec 0712 fbdc
00000050: d6e2 f700 0a07 03d1 e3e1 cde0 d9df e4f7
00000060: ccb6 dacd e0e5 daef d9ef f3fa f5f3 1702
00000070: 0dfd f4d4 f6df e5f2 ede8 e5f7 04fc fcf3
00000080: e8f9 efeb fcf0 f905 01f2 d5f9 0509 ece1
00000090: e4cf f1f9 fc0e 0b16 1212 090a 060b 07f7
000000a0: fbea e6dd ebf4 e303 f4f1 07da e9f9 ee0b
000000b0: fe0b 0b09 0c07 1813 170f 0c07 fc04 01fb
000000c0: d5ee e1f9 ffd3 2301 fefa 0111 0a0a 040f
000000d0: 0d17 141e 1217 0ffc 10ff 0a05 f7dd f5ee
000000e0: 0717 1302 eced fa0d 0712 1f0f 0c07 180a
000000f0: 0bfe ff04 fe08 031e 0cec e9e6 170d 02fe

sequential/dense_1/MatMul i1 [32, 5] scale=0.008152888 zero_point=0
-0.30980974 -0.10598755 0.016305776 -0.15490487 -0.1385991 -0.3424213 0.07337599 0.52178484
-0.19566932 -0.057070218 -0.04891733 0.024458665 -0.20382221 -0.10598755 0.53809065 -0.09783466
0.49732617 -1.0354168 0.22012798 0.26089242 0.53809065 -0.04891733 -0.2771982 0.26904532
0.0 0.4891733 0.25273952 -0.4810204 -0.22012798 0.26089242 0.44840884 0.04076444
-0.2853511 0.1385991 -0.52993774 -0.36687997 0.7011484 0.0 0.09783466 0.15490487
-0.19566932 0.15490487 0.04891733 0.50547904 0.33426842 -0.39133865 0.22828087 0.12229332
0.24458665 0.14675198 0.51363194 0.065223105 -0.22828087 0.30980974 -0.25273952 0.30165687
0.60331374 0.58700794 -0.31796265 -0.22828087 -0.30980974 0.10598755 -0.49732617 -0.32611552
-0.032611553 0.45656174 0.29350397 0.39949152 -0.1385991 -0.65223104 -0.45656174 0.39133865
0.38318574 0.23643376 -0.79898304 0.1385991 0.22828087 -0.07337599 -0.5462435 0.4157973
-0.72560704 0.49732617 -0.4157973 0.37503284 0.15490487 -0.15490487 -0.26904532 -0.12229332
-0.37503284 -0.008152888 -0.39949152 -0.008152888 -0.3505742 0.66038394 -0.20382221 0.31796265
0.30980974 -0.5543964 -0.09783466 0.22828087 0.44025597 -0.33426842 0.50547904 0.15490487
0.38318574 -0.13044621 0.6848426 0.58700794 0.08968177 0.1385991 0.33426842 -0.22012798
0.23643376 0.20382221 -0.71745414 -0.22012798 0.45656174 0.024458665 0.31796265 -0.35872707
0.5543964 -0.15490487 0.04076444 0.29350397 0.4157973 0.08968177 0.14675198 -0.114140436
0.08152888 0.45656174 -0.16305776 -0.36687997 -0.07337599 0.74191284 0.065223105 0.08968177
-0.50547904 0.39949152 0.52178484 0.024458665 -0.08968177 0.29350397 0.10598755 0.09783466
-0.6277724 -0.04891733 0.47286752 -0.38318574 -0.057070218 0.24458665 -0.33426842 -0.2853511
0.12229332 -0.30165687 -0.38318574 0.16305776 -0.38318574 0.5462435 -0.39949152 0.18751642
00000000: daf3 02ed efd6 0940 e8f9 fa03 e7f3 42f4
00000010: 3d81 1b20 42fa de21 003c 1fc5 e520 3705
00000020: dd11 bfd3 5600 0c13 e813 063e 29d0 1c0f
00000030: 1e12 3f08 e426 e125 4a48 d9e4 da0d c3d8
00000040: fc38 2431 efb0 c830 2f1d 9e11 1cf7 bd33
00000050: a73d cd2e 13ed dff1 d2ff cfff d551 e727
00000060: 26bc f41c 36d7 3e13 2ff0 5448 0b11 29e5
00000070: 1d19 a8e5 3803 27d4 44ed 0524 330b 12f2
00000080: 0a38 ecd3 f75b 080b c231 4003 f524 0d0c
00000090: b3fa 3ad1 f91e d7dd 0fdb d114 d143 cf17

sequential/dense_2/MatMul i1 [10, 32] scale=0.0077879764 zero_point=0
-0.06230381 -0.47506657 0.25700322 -0.35824692 -0.27257916 0.33488297 0.2647912 0.15575953
-0.40497476 -0.2336393 -0.33488297 -0.28036714 -0.070091784 -0.41276276 -0.25700322 0.41276276
-0.6931299 0.33488297 -0.31930703 0.070091784 0.37382287 -0.085667744 -0.02336393 0.12460762
0.4672786 0.10124369 -0.02336393 0.070091784 -0.24921525 0.3660349 -0.20248738 0.51400644
-0.10124369 -0.10124369 -0.2959431 0.054515835 0.04672786 -0.2959431 -0.077879764 0.35045895
0.14018357 0.0077879764 -0.10124369 -0.5451583 -0.30373108 -0.3893988 0.21806334 0.47506657
0.5451583 0.12460762 0.51400644 0.2959431 -0.077879764 0.09345572 -0.17133549 -0.09345572
-0.2959431 -0.31151906 0.40497476 0.24921525 0.35045895 -0.06230381 0.24142727 0.28815514
-0.21027537 0.02336393 -0.038939882 0.4672786 -0.02336393 0.1635475 -0.31930703 -0.06230381
0.12460762 0.18691143 0.1323956 -0.48285455 -0.09345572 0.15575953 -0.8099495 -0.04672786
-0.18691143 -0.24142727 0.28036714 0.28815514 -0.09345572 -0.28815514 0.42055073 -0.37382287
0.35045895 0.2647912 0.48285455 0.054515835 -0.68534195 0.28815514 -0.3660349 -0.3893988
-0.10903167 0.04672786 0.38161084 0.40497476 -0.5373704 -0.054515835 0.10124369 0.38161084
-0.038939882 0.22585131 -0.1635475 -0.25700322 -0.1946994 0.06230381 -0.83331347 -0.22585131
0.38161084 -0.17133549 -0.86446536 0.12460762 -0.2959431 0.44391465 0.12460762 0.28815514
0.09345572 0.14797156 -0.1946994 0.11681965 -0.3660349 -0.22585131 -0.3660349 -0.11681965
0.22585131 0.031151906 0.41276276 -0.070091784 0.43612668 -0.327095 0.1323956 -0.5062185
-0.30373108 -0.40497476 0.0 -0.37382287 -0.28815514 0.25700322 0.6152501 -0.35824692
0.015575953 0.1635475 -0.1946994 -0.17912346 0.24921525 0.02336393 0.43612668 -0.015575953
0.33488297 -0.04672786 -0.4283387 0.49064252 0.5763103 -0.4984305 0.33488297 0.0077879764
0.31151906 0.8566774 0.4594906 -0.038939882 -0.35824692 -0.14018357 -0.12460762 0.2647912
0.18691143 0.10124369 -0.49064252 0.14797156 -0.24921525 -0.038939882 -0.5918862 -0.1635475
-0.2959431 -0.31151906 -0.14797156 -0.28036714 0.24921525 0.21027537 0.1323956 -0.8021616
-0.02336393 -0.18691143 0.35824692 0.10124369 -0.8956173 0.2959431 0.14797156 -0.02336393
-0.054515835 0.28036714 0.22585131 -0.71649384 0.327095 -0.21806334 0.34267098 -0.68534195
0.3893988 0.24142727 -0.054515835 -0.8099495 -0.04672786 -0.90340525 -0.6931299 0.327095
-0.27257916 0.21027537 0.10124369 -0.4594906 0.14018357 -0.2336393 -0.49064252 -0.0077879764
0.4594906 -0.24921525 0.4672786 0.65419 -0.10124369 -0.3660349 0.0077879764 0.070091784
-0.2959431 -0.0077879764 -0.10903167 0.88004136 0.054515835 0.28815514 0.3893988 -0.34267098
-0.7009179 -0.59967417 0.28815514 0.27257916 0.10903167 0.64640206 0.02336393 0.30373108
0.06230381 -0.24142727 0.21806334 0.42055073 -0.24142727 -0.015575953 -0.06230381 -0.12460762
0.10124369 -0.5840982 0.44391465 -0.64640206 0.30373108 0.2336393 0.17133549 0.8021616
00000000: f8c3 21d2 dd2b 2214 cce2 d5dc f7cb df35
00000010: a72b d709 30f5 fd10 3c0d fd09 e02f e642
00000020: f3f3 da07 06da f62d 1201 f3ba d9ce 1c3d
00000030: 4610 4226 f60c eaf4 dad8 3420 2df8 1f25
00000040: e503 fb3c fd15 d7f8 1018 11c2 f414 98fa
00000050: e8e1 2425 f4db 36d0 2d22 3e07 a825 d1ce
00000060: f206 3134 bbf9 0d31 fb1d ebdf e708 95e3
00000070: 31ea 9110 da39 1025 0c13 e70f d1e3 d1f1
00000080: 1d04 35f7 38d6 11bf d9cc 00d0 db21 4fd2
00000090: 0215 e7e9 2003 38fe 2bfa c93f 4ac0 2b01
000000a0: 286e 3bfb d2ee f022 180d c113 e0fb b4eb
000000b0: dad8 eddc 201b 1199 fde8 2e0d 8d26 13fd
000000c0: f924 1da4 2ae4 2ca8 321f f998 fa8c a72a
000000d0: dd1b 0dc5 12e2 c1ff 3be0 3c54 f3d1 0109
000000e0: daff f271 0725 32d4 a6b3 2523 0e53 0327
000000f0: 08e1 1c36 e1fe f8f0 0db5 39ad 271e 1667
