quantizer/models/keras/regression/quant/test_quant.tflite (tflite, 3568 bytes, 2 tensors)

sequential_1/dense_6/MatMul i1 [10, 5] scale=0.008374226 zero_point=0
00000000: a02e c89b 40bf 3bed e919 2dfa 7f19 13e4
00000010: 1ffc c93f 301d 5162 edeb 08ae de17 fd06
00000020: 43de 260f e11e 3f9f e974 b3fe 5c4d e16e
00000030: 2cf7
-0.80392575 0.38521442 -0.46895668 -0.8457969 0.5359505 -0.5443247 0.49407935 -0.1591103
-0.19260721 0.20935565 0.37684017 -0.05024536 1.0635267 0.20935565 0.1591103 -0.23447834
0.25960103 -0.033496905 -0.46058244 0.52757627 0.40196288 0.24285257 0.6783123 0.8206742
-0.1591103 -0.17585875 0.06699381 -0.6866866 -0.2847237 0.19260721 -0.02512268 0.05024536
0.5610732 -0.2847237 0.3182206 0.12561339 -0.25960103 0.25122678 0.52757627 -0.81229997
-0.19260721 0.9714103 -0.64481544 -0.016748453 0.77042884 0.64481544 -0.25960103 0.9211649
0.36846596 -0.07536804

sequential_1/dense_7/MatMul i1 [5, 10] scale=0.013438611 zero_point=0
00000000: c0a1 0ba0 14e9 ef37 a32b e904 c12f ab16
00000010: b2c5 33c1 0a36 c61f f613 eda3 4b0f 1552
00000020: c53e 8159 ccd0 f18e 0537 ad15 b74c cbf5
00000030: 28e0
-0.8600711 -1.2766681 0.14782472 -1.2901067 0.2687722 -0.30908805 -0.2284564 0.73912364
-1.2497909 0.5778603 -0.30908805 0.053754445 -0.84663254 0.63161474 -1.142282 0.29564944
-1.0482117 -0.7928781 0.6853692 -0.84663254 0.1343861 0.725685 -0.77943945 0.41659695
-0.1343861 0.2553336 -0.2553336 -1.2497909 1.0078958 0.20157917 0.28221083 1.1019661
-0.7928781 0.8331939 -1.7067037 1.1960365 -0.6988078 -0.6450533 -0.20157917 -1.5320017
0.06719305 0.73912364 -1.1154047 0.28221083 -0.9810186 1.0213344 -0.7122464 -0.14782472
0.5375444 -0.43003556
