models/regression/x3 727loss.tflite (tflite, 47600 bytes, 10 tensors)

sequential_12/dense_151/MatMul i1 [16, 1] scale=0.004046107 zero_point=0
0	0x81	-0.51385564
1	0x00	0.0
2	0x21	0.13352154
3	0x38	0.226582
4	0x59	0.36010355
5	0x24	0.14565986
6	0x01	0.004046107
7	0x88	-0.48553285
8	0x47	0.28727362
9	0x82	-0.5098095
10	0x4a	0.29941192
11	0xd4	-0.17802872
12	0xc0	-0.25895086
13	0x00	0.0
14	0xfd	-0.012138322
15	0x49	0.2953658

sequential_12/dense_152/MatMul i1 [32, 16] scale=0.0039662453 zero_point=0
0	0x18	0.095189884
1	0xd1	-0.18641353
2	0x26	0.15071732
3	0x5c	0.36489457
4	0x46	0.27763718
5	0x5b	0.36092833
6	0xe3	-0.11502112
7	0xe3	-0.11502112
8	0x32	0.19831227
9	0x50	0.31729963
10	0x50	0.31729963
11	0x4d	0.30540088
12	0x13	0.07535866
13	0x4a	0.29350215
14	0xce	-0.19831227
15	0x58	0.3490296
16	0xaa	-0.3410971
17	0x05	0.019831227
18	0xfc	-0.015864981
19	0xe5	-0.107088625
20	0x4d	0.30540088
21	0x0d	0.051561188
22	0x2f	0.18641353
23	0xdd	-0.13881859
24	0xe6	-0.103122376
25	0xec	-0.07932491
26	0x62	0.38869205
27	0x17	0.09122364
28	0xce	-0.19831227
29	0x24	0.14278483
30	0xe2	-0.11898736
31	0x2c	0.1745148
32	0xe8	-0.095189884
33	0xfd	-0.011898736
34	0x28	0.15864982
35	0xd0	-0.19037977
36	0xb0	-0.31729963
37	0x20	0.12691985
38	0xd4	-0.1745148
39	0x04	0.015864981
40	0xf8	-0.031729963
41	0x30	0.19037977
42	0x3d	0.24194096
43	0x37	0.2181435
44	0xb8	-0.28556967
45	0xf4	-0.047594942
46	0xe3	-0.11502112
47	0x41	0.25780594
48	0xce	-0.19831227
49	0xf4	-0.047594942
50	0xe2	-0.11898736
51	0x54	0.3331646
52	0x3c	0.23797472
53	0x1d	0.11502112
54	0xee	-0.07139242
55	0x46	0.27763718
56	0xb2	-0.30936715
57	0x4d	0.30540088
58	0x3a	0.23004223
59	0xa9	-0.34506336
60	0xd1	-0.18641353
61	0xe7	-0.099156134
62	0x2c	0.1745148
63	0xc8	-0.22210974
64	0x01	0.0039662453
65	0xcc	-0.20624475
66	0x11	0.06742617
67	0xfa	-0.023797471
68	0xc8	-0.22210974
69	0x49	0.2895359
70	0x03	0.011898736
71	0x54	0.3331646
72	0x1a	0.103122376
73	0xde	-0.13485233
74	0x16	0.0872574
75	0x25	0.14675108
76	0x10	0.063459925
77	0x44	0.26970467
78	0xa0	-0.38075954
79	0xe1	-0.12295361
80	0xce	-0.19831227
81	0xe1	-0.12295361
82	0x07	0.027763717
83	0x33	0.20227851
84	0xca	-0.21417725
85	0x51	0.32126588
86	0xe8	-0.095189884
87	0xbe	-0.2617722
88	0xef	-0.06742617
89	0xe4	-0.11105487
90	0x35	0.21021101
91	0xc3	-0.24194096
92	0xba	-0.27763718
93	0xba	-0.27763718
94	0xef	-0.06742617
95	0xbd	-0.26573843
96	0xcd	-0.20227851
97	0xc0	-0.2538397
98	0x4f	0.3133334
99	0x47	0.28160343
100	0xda	-0.15071732
101	0x0c	0.047594942
102	0xe7	-0.099156134
103	0xdf	-0.1308861
104	0xf6	-0.039662454
105	0x03	0.011898736
106	0xb7	-0.2895359
107	0xf0	-0.063459925
108	0x15	0.08329115
109	0xfb	-0.019831227
110	0xf4	-0.047594942
111	0xaa	-0.3410971
112	0xf9	-0.027763717
113	0x1f	0.12295361
114	0xbb	-0.27367094
115	0x3f	0.24987346
116	0xe3	-0.11502112
117	0xe2	-0.11898736
118	0x08	0.031729963
119	0xaf	-0.32126588
120	0xfb	-0.019831227
121	0xef	-0.06742617
122	0xb3	-0.30540088
123	0x38	0.22210974
124	0xf9	-0.027763717
125	0x08	0.031729963
126	0xde	-0.13485233
127	0xe8	-0.095189884
128	0x48	0.28556967
129	0x34	0.20624475
130	0xb5	-0.2974684
131	0x2c	0.1745148
132	0x4f	0.3133334
133	0x22	0.13485233
134	0xfc	-0.015864981
135	0x12	0.07139242
136	0xf4	-0.047594942
137	0xdc	-0.14278483
138	0x60	0.38075954
139	0x26	0.15071732
140	0xd3	-0.17848104
141	0xdc	-0.14278483
142	0x0a	0.039662454
143	0x62	0.38869205
144	0xf3	-0.051561188
145	0xf5	-0.0436287
146	0xbc	-0.26970467
147	0x4b	0.2974684
148	0x30	0.19037977
149	0x52	0.32523212
150	0x09	0.03569621
151	0xf4	-0.047594942
152	0xf7	-0.03569621
153	0xc1	-0.24987346
154	0xe4	-0.11105487
155	0x38	0.22210974
156	0xdc	-0.14278483
157	0x0a	0.039662454
158	0x59	0.35299584
159	0x13	0.07535866
160	0xc2	-0.24590722
161	0x02	0.007932491
162	0x1f	0.12295361
163	0x1b	0.107088625
164	0xf2	-0.055527434
165	0x07	0.027763717
166	0x09	0.03569621
167	0xc4	-0.23797472
168	0xd8	-0.15864982
169	0x38	0.22210974
170	0xc5	-0.23400848
171	0xb9	-0.28160343
172	0x0b	0.0436287
173	0xd7	-0.16261606
174	0x27	0.15468358
175	0xc4	-0.23797472
176	0xfd	-0.011898736
177	0x15	0.08329115
178	0xbc	-0.26970467
179	0x12	0.07139242
180	0xf2	-0.055527434
181	0x47	0.28160343
182	0x04	0.015864981
183	0xe8	-0.095189884
184	0xf9	-0.027763717
185	0xcf	-0.19434603
186	0x36	0.21417725
187	0x40	0.2538397
188	0x59	0.35299584
189	0xb4	-0.30143464
190	0x02	0.007932491
191	0xc1	-0.24987346
192	0xd5	-0.17054854
193	0xc5	-0.23400848
194	0x32	0.19831227
195	0x38	0.22210974
196	0x46	0.27763718
197	0xb2	-0.30936715
198	0xd4	-0.1745148
199	0xc3	-0.24194096
200	0xe2	-0.11898736
201	0xd9	-0.15468358
202	0xad	-0.32919836
203	0x1b	0.107088625
204	0xd0	-0.19037977
205	0xb2	-0.30936715
206	0xfb	-0.019831227
207	0xf0	-0.063459925
208	0xb6	-0.29350215
209	0xb1	-0.3133334
210	0x28	0.15864982
211	0x03	0.011898736
212	0x5a	0.35696208
213	0x3f	0.24987346
214	0xe0	-0.12691985
215	0xa5	-0.36092833
216	0x36	0.21417725
217	0xcf	-0.19434603
218	0x20	0.12691985
219	0xc7	-0.22607598
220	0xc7	-0.22607598
221	0x37	0.2181435
222	0x03	0.011898736
223	0xfa	-0.023797471
224	0xe2	-0.11898736
225	0x33	0.20227851
226	0x56	0.3410971
227	0x37	0.2181435
228	0x0d	0.051561188
229	0xff	-0.0039662453
230	0xf6	-0.039662454
231	0xd3	-0.17848104
232	0xd1	-0.18641353
233	0x3a	0.23004223
234	0xfe	-0.007932491
235	0x0f	0.05949368
236	0xb9	-0.28160343
237	0xbf	-0.25780594
238	0xe3	-0.11502112
239	0x5d	0.3688608
240	0xf5	-0.0436287
241	0xdd	-0.13881859
242	0xe8	-0.095189884
243	0xde	-0.13485233
244	0xe5	-0.107088625
245	0x1d	0.11502112
246	0x1f	0.12295361
247	0xec	-0.07932491
248	0xcf	-0.19434603
249	0x2a	0.1665823
250	0x0c	0.047594942
251	0x3f	0.24987346
252	0xa0	-0.38075954
253	0xf6	-0.039662454
254	0xfd	-0.011898736
255	0x3b	0.23400848

sequential_12/dense_153/MatMul i1 [64, 32] scale=0.0052909832 zero_point=0
0	0xdd	-0.18518442
1	0x26	0.20105736
2	0x0d	0.068782784
3	0x13	0.10052868
4	0x16	0.11640163
5	0x24	0.1904754
6	0xec	-0.105819665
7	0x24	0.1904754
8	0x1e	0.1587295
9	0x22	0.17989343
10	0xd6	-0.2222213
11	0xd6	-0.2222213
12	0x0a	0.052909832
13	0x2f	0.24867621
14	0x2c	0.23280326
15	0x1b	0.14285655
16	0xde	-0.17989343
17	0xe1	-0.16402048
18	0xd8	-0.21163933
19	0x2a	0.2222213
20	0xd0	-0.2539672
21	0xf3	-0.068782784
22	0x2a	0.2222213
23	0xca	-0.2857131
24	0x05	0.026454916
25	0xf0	-0.08465573
26	0xc3	-0.32274997
27	0xf5	-0.058200814
28	0xff	-0.0052909832
29	0xfb	-0.026454916
30	0x09	0.04761885
31	0x19	0.13227458
32	0xe9	-0.12169261
33	0xec	-0.105819665
34	0x14	0.105819665
35	0xda	-0.20105736
36	0x1f	0.16402048
37	0x15	0.11111065
38	0xe6	-0.13756557
39	0x0f	0.07936475
40	0x35	0.28042212
41	0xfe	-0.0105819665
42	0x0b	0.058200814
43	0x14	0.105819665
44	0x1e	0.1587295
45	0xf4	-0.0634918
46	0xe8	-0.1269836
47	0xef	-0.08994672
48	0x1f	0.16402048
49	0x27	0.20634834
50	0x06	0.0317459
51	0x0b	0.058200814
52	0xf1	-0.07936475
53	0x1a	0.13756557
54	0x08	0.042327866
55	0xec	-0.105819665
56	0xd9	-0.20634834
57	0xcb	-0.28042212
58	0x08	0.042327866
59	0x03	0.01587295
60	0x0a	0.052909832
61	0x27	0.20634834
62	0x11	0.08994672
63	0x22	0.17989343
64	0xe0	-0.16931146
65	0x2b	0.22751229
66	0xe1	-0.16402048
67	0xec	-0.105819665
68	0xee	-0.0952377
69	0x03	0.01587295
70	0xf5	-0.058200814
71	0xf7	-0.04761885
72	0x0f	0.07936475
73	0xfd	-0.01587295
74	0xd5	-0.22751229
75	0x16	0.11640163
76	0xf9	-0.03703688
77	0x27	0.20634834
78	0x2c	0.23280326
79	0xf0	-0.08465573
80	0x20	0.16931146
81	0x25	0.19576637
82	0xfe	-0.0105819665
83	0xfe	-0.0105819665
84	0x0c	0.0634918
85	0x05	0.026454916
86	0xdf	-0.17460245
87	0x1b	0.14285655
88	0xed	-0.10052868
89	0xdc	-0.1904754
90	0x15	0.11111065
91	0x1b	0.14285655
92	0x13	0.10052868
93	0xda	-0.20105736
94	0xf9	-0.03703688
95	0x0c	0.0634918
96	0xed	-0.10052868
97	0x0b	0.058200814
98	0x13	0.10052868
99	0xe9	-0.12169261
100	0xcf	-0.25925818
101	0xd3	-0.23809424
102	0x0b	0.058200814
103	0x2f	0.24867621
104	0xf6	-0.052909832
105	0xf6	-0.052909832
106	0xf2	-0.07407376
107	0x0a	0.052909832
108	0xe9	-0.12169261
109	0xd9	-0.20634834
110	0x31	0.25925818
111	0xe2	-0.1587295
112	0x24	0.1904754
113	0xf7	-0.04761885
114	0x14	0.105819665
115	0xe2	-0.1587295
116	0x03	0.01587295
117	0x09	0.04761885
118	0xf5	-0.058200814
119	0xef	-0.08994672
120	0x1d	0.15343851
121	0x27	0.20634834
122	0x22	0.17989343
123	0xf7	-0.04761885
124	0xfa	-0.0317459
125	0x21	0.17460245
126	0x26	0.20105736
127	0xe4	-0.14814752
128	0xee	-0.0952377
129	0x1a	0.13756557
130	0x06	0.0317459
131	0x21	0.17460245
132	0x22	0.17989343
133	0xd9	-0.20634834
134	0x05	0.026454916
135	0xf2	-0.07407376
136	0x04	0.021163933
137	0x1c	0.14814752
138	0x3f	0.33333194
139	0xfd	-0.01587295
140	0xff	-0.0052909832
141	0x16	0.11640163
142	0xf1	-0.07936475
143	0x0f	0.07936475
144	0xfd	-0.01587295
145	0xd5	-0.22751229
146	0xf1	-0.07936475
147	0x1a	0.13756557
148	0x03	0.01587295
149	0x32	0.26454917
150	0xf5	-0.058200814
151	0x02	0.0105819665
152	0x09	0.04761885
153	0x06	0.0317459
154	0xfc	-0.021163933
155	0xdc	-0.1904754
156	0xfc	-0.021163933
157	0xfa	-0.0317459
158	0xef	-0.08994672
159	0xfd	-0.01587295
160	0x1b	0.14285655
161	0x0b	0.058200814
162	0xd7	-0.21693031
163	0xe0	-0.16931146
164	0x2b	0.22751229
165	0x10	0.08465573
166	0xc6	-0.30687702
167	0xda	-0.20105736
168	0xfb	-0.026454916
169	0xe8	-0.1269836
170	0x07	0.03703688
171	0xd9	-0.20634834
172	0x19	0.13227458
173	0x00	0.0
174	0xd9	-0.20634834
175	0xeb	-0.11111065
176	0x0c	0.0634918
177	0xf8	-0.042327866
178	0x19	0.13227458
179	0xfd	-0.01587295
180	0x1d	0.15343851
181	0x34	0.27513114
182	0xe8	-0.1269836
183	0xe0	-0.16931146
184	0x1b	0.14285655
185	0x14	0.105819665
186	0xe4	-0.14814752
187	0x1d	0.15343851
188	0xe7	-0.13227458
189	0x19	0.13227458
190	0x1a	0.13756557
191	0x09	0.04761885
192	0x1d	0.15343851
193	0x0a	0.052909832
194	0xfb	-0.026454916
195	0x2d	0.23809424
196	0x0d	0.068782784
197	0xf0	-0.08465573
198	0xea	-0.11640163
199	0x30	0.2539672
200	0x21	0.17460245
201	0x0d	0.068782784
202	0x13	0.10052868
203	0x04	0.021163933
204	0x02	0.0105819665
205	0xce	-0.26454917
206	0xd9	-0.20634834
207	0xe6	-0.13756557
208	0x07	0.03703688
209	0xdf	-0.17460245
210	0xe3	-0.15343851
211	0xdd	-0.18518442
212	0xd8	-0.21163933
213	0xd9	-0.20634834
214	0x15	0.11111065
215	0xff	-0.0052909832
216	0xfb	-0.026454916
217	0x28	0.21163933
218	0xf5	-0.058200814
219	0x1c	0.14814752
220	0xdc	-0.1904754
221	0x0a	0.052909832
222	0xe2	-0.1587295
223	0x05	0.026454916
224	0x0d	0.068782784
225	0xfe	-0.0105819665
226	0xfd	-0.01587295
227	0xeb	-0.11111065
228	0x01	0.0052909832
229	0x15	0.11111065
230	0xe0	-0.16931146
231	0x05	0.026454916
232	0x0a	0.052909832
233	0xfe	-0.0105819665
234	0x21	0.17460245
235	0x0e	0.07407376
236	0x01	0.0052909832
237	0xf5	-0.058200814
238	0xf8	-0.042327866
239	0x23	0.18518442
240	0xd8	-0.21163933
241	0xed	-0.10052868
242	0x05	0.026454916
243	0x01	0.0052909832
244	0x18	0.1269836
245	0x28	0.21163933
246	0x05	0.026454916
247	0x21	0.17460245
248	0xf1	-0.07936475
249	0x1f	0.16402048
250	0xf5	-0.058200814
251	0xeb	-0.11111065
252	0x07	0.03703688
253	0xf2	-0.07407376
254	0x05	0.026454916
255	0x17	0.12169261

sequential_12/dense_154/MatMul i1 [128, 64] scale=0.0061243367 zero_point=0
0	0xe9	-0.14085974
1	0x00	0.0
2	0x1d	0.17760576
3	0xee	-0.11023806
4	0xfc	-0.024497347
5	0xf7	-0.05511903
6	0x09	0.05511903
7	0xce	-0.30621684
8	0xf9	-0.042870358
9	0x05	0.030621683
10	0x0d	0.079616375
11	0x08	0.048994694
12	0x14	0.12248673
13	0x05	0.030621683
14	0xf5	-0.0673677
15	0x13	0.1163624
16	0x0c	0.07349204
17	0x1b	0.1653571
18	0x11	0.10411373
19	0xf1	-0.09186505
20	0x08	0.048994694
21	0x02	0.0122486735
22	0xef	-0.10411373
23	0x0e	0.085740715
24	0xef	-0.10411373
25	0x0c	0.07349204
26	0xef	-0.10411373
27	0xe8	-0.14698409
28	0xdb	-0.22660045
29	0xf9	-0.042870358
30	0xed	-0.1163624
31	0x0a	0.061243366
32	0x11	0.10411373
33	0xdd	-0.21435179
34	0x0e	0.085740715
35	0xfc	-0.024497347
36	0xfa	-0.03674602
37	0xdf	-0.20210311
38	0x04	0.024497347
39	0xef	-0.10411373
40	0x13	0.1163624
41	0xe6	-0.15923275
42	0x02	0.0122486735
43	0x08	0.048994694
44	0xeb	-0.12861107
45	0x03	0.01837301
46	0xf3	-0.079616375
47	0x0d	0.079616375
48	0xf9	-0.042870358
49	0xea	-0.1347354
50	0x11	0.10411373
51	0x12	0.11023806
52	0x0f	0.09186505
53	0x12	0.11023806
54	0x0f	0.09186505
55	0xef	-0.10411373
56	0x2d	0.27559516
57	0x04	0.024497347
58	0xff	-0.0061243367
59	0x0e	0.085740715
60	0x19	0.15310842
61	0x15	0.12861107
62	0xe1	-0.18985444
63	0x15	0.12861107
64	0x18	0.14698409
65	0xe8	-0.14698409
66	0x05	0.030621683
67	0x01	0.0061243367
68	0x06	0.03674602
69	0x16	0.1347354
70	0x0c	0.07349204
71	0x14	0.12248673
72	0x1a	0.15923275
73	0xf0	-0.09798939
74	0xec	-0.12248673
75	0x03	0.01837301
76	0x55	0.5205686
77	0x09	0.05511903
78	0x05	0.030621683
79	0xf4	-0.07349204
80	0x39	0.3490872
81	0x0f	0.09186505
82	0x07	0.042870358
83	0x05	0.030621683
84	0x14	0.12248673
85	0xad	-0.50832
86	0xf2	-0.085740715
87	0xf6	-0.061243366
88	0xe6	-0.15923275
89	0x03	0.01837301
90	0x14	0.12248673
91	0x05	0.030621683
92	0xef	-0.10411373
93	0x07	0.042870358
94	0xf2	-0.085740715
95	0xf3	-0.079616375
96	0x17	0.14085974
97	0xf8	-0.048994694
98	0xea	-0.1347354
99	0x05	0.030621683
100	0xf7	-0.05511903
101	0x02	0.0122486735
102	0x16	0.1347354
103	0xb8	-0.44095224
104	0xf7	-0.05511903
105	0x0f	0.09186505
106	0xe1	-0.18985444
107	0x07	0.042870358
108	0xea	-0.1347354
109	0x00	0.0
110	0x15	0.12861107
111	0xfe	-0.0122486735
112	0x35	0.32458985
113	0xad	-0.50832
114	0x02	0.0122486735
115	0xeb	-0.12861107
116	0xfc	-0.024497347
117	0xf5	-0.0673677
118	0x41	0.3980819
119	0xfd	-0.01837301
120	0x0c	0.07349204
121	0xf6	-0.061243366
122	0xe2	-0.1837301
123	0x10	0.09798939
124	0xa4	-0.56343895
125	0xe1	-0.18985444
126	0xe1	-0.18985444
127	0xe5	-0.1653571
128	0x13	0.1163624
129	0x15	0.12861107
130	0xe0	-0.19597878
131	0x0e	0.085740715
132	0xed	-0.1163624
133	0xfc	-0.024497347
134	0x15	0.12861107
135	0xea	-0.1347354
136	0xf7	-0.05511903
137	0xed	-0.1163624
138	0x13	0.1163624
139	0x13	0.1163624
140	0xf8	-0.048994694
141	0xf3	-0.079616375
142	0x0c	0.07349204
143	0x11	0.10411373
144	0xec	-0.12248673
145	0x17	0.14085974
146	0xf2	-0.085740715
147	0xf2	-0.085740715
148	0x04	0.024497347
149	0x1e	0.1837301
150	0xf0	-0.09798939
151	0xfb	-0.030621683
152	0xe6	-0.15923275
153	0x14	0.12248673
154	0xe4	-0.17148143
155	0xf1	-0.09186505
156	0xf0	-0.09798939
157	0x08	0.048994694
158	0x02	0.0122486735
159	0xee	-0.11023806
160	0xe6	-0.15923275
161	0xf4	-0.07349204
162	0x00	0.0
163	0xfd	-0.01837301
164	0x0e	0.085740715
165	0xfe	-0.0122486735
166	0xea	-0.1347354
167	0x0d	0.079616375
168	0x24	0.22047612
169	0x03	0.01837301
170	0xf8	-0.048994694
171	0xe8	-0.14698409
172	0x0a	0.061243366
173	0x03	0.01837301
174	0x12	0.11023806
175	0xef	-0.10411373
176	0x13	0.1163624
177	0x0d	0.079616375
178	0x14	0.12248673
179	0xf1	-0.09186505
180	0x15	0.12861107
181	0xe5	-0.1653571
182	0x12	0.11023806
183	0x0c	0.07349204
184	0x07	0.042870358
185	0xed	-0.1163624
186	0x21	0.20210311
187	0x09	0.05511903
188	0x00	0.0
189	0x1f	0.18985444
190	0xea	-0.1347354
191	0x10	0.09798939
192	0x3a	0.35521153
193	0x00	0.0
194	0x09	0.05511903
195	0xef	-0.10411373
196	0x14	0.12248673
197	0xff	-0.0061243367
198	0xfd	-0.01837301
199	0xf3	-0.079616375
200	0x0d	0.079616375
201	0xd2	-0.28171948
202	0x06	0.03674602
203	0x09	0.05511903
204	0xff	-0.0061243367
205	0xf7	-0.05511903
206	0x15	0.12861107
207	0xf1	-0.09186505
208	0x16	0.1347354
209	0xec	-0.12248673
210	0xe3	-0.17760576
211	0xee	-0.11023806
212	0xf7	-0.05511903
213	0x08	0.048994694
214	0xe6	-0.15923275
215	0xf9	-0.042870358
216	0x20	0.19597878
217	0xfd	-0.01837301
218	0xe2	-0.1837301
219	0x3a	0.35521153
220	0xf5	-0.0673677
221	0x10	0.09798939
222	0x14	0.12248673
223	0xff	-0.0061243367
224	0x0d	0.079616375
225	0xff	-0.0061243367
226	0x0d	0.079616375
227	0x19	0.15310842
228	0x42	0.40420622
229	0xc6	-0.35521153
230	0x25	0.22660045
231	0x0d	0.079616375
232	0x1b	0.1653571
233	0xfd	-0.01837301
234	0xe1	-0.18985444
235	0x2a	0.25722215
236	0x01	0.0061243367
237	0x38	0.34296286
238	0x29	0.2510978
239	0x3a	0.35521153
240	0x0d	0.079616375
241	0xf0	-0.09798939
242	0x03	0.01837301
243	0xe2	-0.1837301
244	0x1a	0.15923275
245	0xea	-0.1347354
246	0xeb	-0.12861107
247	0xe6	-0.15923275
248	0xf0	-0.09798939
249	0xd8	-0.24497347
250	0xf8	-0.048994694
251	0xc8	-0.34296286
252	0x1b	0.1653571
253	0xe6	-0.15923275
254	0x03	0.01837301
255	0xd8	-0.24497347

sequential_12/dense_155/MatMul i1 [128, 128] scale=0.0050841873 zero_point=0
0	0xf2	-0.07117862
1	0x32	0.25420937
2	0x02	0.0101683745
3	0x09	0.045757685
4	0x0b	0.05592606
5	0x0d	0.066094436
6	0x46	0.3558931
7	0x10	0.081346996
8	0xe7	-0.12710468
9	0x1c	0.14235725
10	0xf0	-0.081346996
11	0xb4	-0.38639823
12	0xfb	-0.025420936
13	0x13	0.09659956
14	0xf7	-0.045757685
15	0xe9	-0.1169363
16	0x12	0.09151537
17	0xec	-0.10168374
18	0x0e	0.07117862
19	0x04	0.020336749
20	0xea	-0.11185212
21	0x0f	0.07626281
22	0x23	0.17794655
23	0xf4	-0.06101025
24	0xec	-0.10168374
25	0x15	0.10676793
26	0x28	0.20336749
27	0x20	0.16269399
28	0x15	0.10676793
29	0xe5	-0.13727306
30	0xd4	-0.22370423
31	0xf3	-0.066094436
32	0xd8	-0.20336749
33	0x1c	0.14235725
34	0x43	0.34064054
35	0x11	0.08643118
36	0xf9	-0.03558931
37	0xfc	-0.020336749
38	0x1f	0.1576098
39	0x11	0.08643118
40	0xc8	-0.2847145
41	0x00	0.0
42	0x03	0.015252562
43	0x12	0.09151537
44	0xf0	-0.081346996
45	0x07	0.03558931
46	0xf8	-0.040673498
47	0xe9	-0.1169363
48	0x13	0.09659956
49	0xa6	-0.45757684
50	0xe9	-0.1169363
51	0x11	0.08643118
52	0x04	0.020336749
53	0x07	0.03558931
54	0xf5	-0.05592606
55	0x1c	0.14235725
56	0x12	0.09151537
57	0xfe	-0.0101683745
58	0xf9	-0.03558931
59	0x20	0.16269399
60	0x16	0.11185212
61	0x0d	0.066094436
62	0xe4	-0.14235725
63	0x3b	0.29996705
64	0x04	0.020336749
65	0x26	0.19319911
66	0xf9	-0.03558931
67	0xe8	-0.1220205
68	0xe4	-0.14235725
69	0x05	0.025420936
70	0x17	0.1169363
71	0xde	-0.17286237
72	0x24	0.18303074
73	0xb1	-0.4016508
74	0xee	-0.09151537
75	0xef	-0.08643118
76	0x06	0.030505124
77	0x0e	0.07117862
78	0xc6	-0.29488286
79	0x16	0.11185212
80	0x1d	0.14744143
81	0xee	-0.09151537
82	0xa0	-0.488082
83	0x12	0.09151537
84	0x1a	0.13218887
85	0xdd	-0.17794655
86	0xf9	-0.03558931
87	0x07	0.03558931
88	0xf8	-0.040673498
89	0x41	0.33047217
90	0xed	-0.09659956
91	0x0a	0.05084187
92	0xf0	-0.081346996
93	0x18	0.1220205
94	0xfc	-0.020336749
95	0x43	0.34064054
96	0xfa	-0.030505124
97	0x26	0.19319911
98	0x08	0.040673498
99	0xe9	-0.1169363
100	0xec	-0.10168374
101	0xf4	-0.06101025
102	0xf0	-0.081346996
103	0xec	-0.10168374
104	0x07	0.03558931
105	0xdf	-0.16777818
106	0xf1	-0.07626281
107	0xfc	-0.020336749
108	0xb7	-0.37114567
109	0x1f	0.1576098
110	0xee	-0.09151537
111	0x1a	0.13218887
112	0xe1	-0.1576098
113	0xda	-0.19319911
114	0xeb	-0.10676793
115	0x08	0.040673498
116	0xf6	-0.05084187
117	0xf3	-0.066094436
118	0xf5	-0.05592606
119	0x0e	0.07117862
120	0xf5	-0.05592606
121	0x29	0.20845167
122	0xf7	-0.045757685
123	0x17	0.1169363
124	0xe5	-0.13727306
125	0xf5	-0.05592606
126	0x03	0.015252562
127	0x0f	0.07626281
128	0xf8	-0.040673498
129	0xfd	-0.015252562
130	0x1b	0.13727306
131	0xfd	-0.015252562
132	0x1d	0.14744143
133	0xed	-0.09659956
134	0x10	0.081346996
135	0xfe	-0.0101683745
136	0x17	0.1169363
137	0x0d	0.066094436
138	0x0b	0.05592606
139	0x14	0.10168374
140	0xe5	-0.13727306
141	0xed	-0.09659956
142	0xdd	-0.17794655
143	0x05	0.025420936
144	0x0a	0.05084187
145	0xfd	-0.015252562
146	0x03	0.015252562
147	0x0b	0.05592606
148	0xbe	-0.33555636
149	0x0f	0.07626281
150	0xde	-0.17286237
151	0x17	0.1169363
152	0xf0	-0.081346996
153	0x10	0.081346996
154	0x0e	0.07117862
155	0x02	0.0101683745
156	0x05	0.025420936
157	0x10	0.081346996
158	0xe6	-0.13218887
159	0x0d	0.066094436
160	0xec	-0.10168374
161	0x17	0.1169363
162	0x1c	0.14235725
163	0x1c	0.14235725
164	0x19	0.12710468
165	0xde	-0.17286237
166	0x1c	0.14235725
167	0x0b	0.05592606
168	0xe7	-0.12710468
169	0x0c	0.06101025
170	0xfb	-0.025420936
171	0x23	0.17794655
172	0x15	0.10676793
173	0x07	0.03558931
174	0xfa	-0.030505124
175	0xfa	-0.030505124
176	0xfa	-0.030505124
177	0x21	0.16777818
178	0xf6	-0.05084187
179	0x16	0.11185212
180	0xf8	-0.040673498
181	0xd2	-0.2338726
182	0xea	-0.11185212
183	0x02	0.0101683745
184	0x23	0.17794655
185	0x1b	0.13727306
186	0x1b	0.13727306
187	0x04	0.020336749
188	0x12	0.09151537
189	0x10	0.081346996
190	0xe7	-0.12710468
191	0x1b	0.13727306
192	0xf2	-0.07117862
193	0xe4	-0.14235725
194	0x0b	0.05592606
195	0xd5	-0.21862005
196	0xe1	-0.1576098
197	0xe7	-0.12710468
198	0xf7	-0.045757685
199	0xed	-0.09659956
200	0x0f	0.07626281
201	0x00	0.0
202	0xe1	-0.1576098
203	0x00	0.0
204	0xea	-0.11185212
205	0x00	0.0
206	0x1a	0.13218887
207	0xe4	-0.14235725
208	0x12	0.09151537
209	0x06	0.030505124
210	0x08	0.040673498
211	0x28	0.20336749
212	0xe8	-0.1220205
213	0xf8	-0.040673498
214	0x28	0.20336749
215	0x10	0.081346996
216	0xe7	-0.12710468
217	0x15	0.10676793
218	0x04	0.020336749
219	0xf7	-0.045757685
220	0x0c	0.06101025
221	0xe0	-0.16269399
222	0x05	0.025420936
223	0xdf	-0.16777818
224	0x14	0.10168374
225	0xe4	-0.14235725
226	0xeb	-0.10676793
227	0x08	0.040673498
228	0xe2	-0.15252562
229	0x1c	0.14235725
230	0xf8	-0.040673498
231	0x02	0.0101683745
232	0xe3	-0.14744143
233	0x1a	0.13218887
234	0xdf	-0.16777818
235	0xe0	-0.16269399
236	0xe4	-0.14235725
237	0xf3	-0.066094436
238	0x0d	0.066094436
239	0xf3	-0.066094436
240	0x1e	0.15252562
241	0xf3	-0.066094436
242	0x04	0.020336749
243	0x06	0.030505124
244	0x27	0.1982833
245	0x05	0.025420936
246	0x01	0.0050841873
247	0xed	-0.09659956
248	0xfa	-0.030505124
249	0xfc	-0.020336749
250	0xdf	-0.16777818
251	0xe4	-0.14235725
252	0xf8	-0.040673498
253	0xf4	-0.06101025
254	0xec	-0.10168374
255	0x0d	0.066094436

sequential_12/dense_156/MatMul i1 [64, 128] scale=0.006018024 zero_point=0
0	0xfd	-0.018054072
1	0xf4	-0.07221629
2	0x21	0.1985948
3	0x23	0.21063083
4	0xff	-0.006018024
5	0x02	0.012036048
6	0x12	0.10832443
7	0xed	-0.11434245
8	0xe4	-0.16850467
9	0x07	0.042126168
10	0xec	-0.12036048
11	0x0b	0.06619826
12	0xf5	-0.06619826
13	0x03	0.018054072
14	0xb8	-0.43329772
15	0xf3	-0.078234315
16	0xeb	-0.1263785
17	0x24	0.21664886
18	0xf4	-0.07221629
19	0xb9	-0.4272797
20	0x17	0.13841455
21	0xfd	-0.018054072
22	0xfc	-0.024072096
23	0x02	0.012036048
24	0xff	-0.006018024
25	0xed	-0.11434245
26	0x15	0.1263785
27	0x09	0.054162215
28	0x0e	0.084252335
29	0xfd	-0.018054072
30	0x43	0.4032076
31	0x27	0.23470293
32	0xf5	-0.06619826
33	0xf4	-0.07221629
34	0x10	0.09628838
35	0x29	0.24673899
36	0xe9	-0.13841455
37	0x2a	0.252757
38	0xe1	-0.18655874
39	0xf2	-0.084252335
40	0xf2	-0.084252335
41	0x1b	0.16248664
42	0x0e	0.084252335
43	0x0e	0.084252335
44	0xfa	-0.036108144
45	0x01	0.006018024
46	0x2d	0.27081108
47	0x0a	0.06018024
48	0xfe	-0.012036048
49	0x00	0.0
50	0x17	0.13841455
51	0x03	0.018054072
52	0xe6	-0.15646863
53	0xd3	-0.27081108
54	0x0d	0.078234315
55	0x05	0.03009012
56	0xff	-0.006018024
57	0x1f	0.18655874
58	0xfc	-0.024072096
59	0x08	0.04814419
60	0x01	0.006018024
61	0xed	-0.11434245
62	0x05	0.03009012
63	0xfc	-0.024072096
64	0x13	0.11434245
65	0xee	-0.10832443
66	0xff	-0.006018024
67	0xfa	-0.036108144
68	0xf3	-0.078234315
69	0x0b	0.06619826
70	0xfb	-0.03009012
71	0x1f	0.18655874
72	0xda	-0.2286849
73	0xf3	-0.078234315
74	0xfa	-0.036108144
75	0xfa	-0.036108144
76	0xfe	-0.012036048
77	0x00	0.0
78	0xe0	-0.19257677
79	0x1c	0.16850467
80	0x36	0.3249733
81	0x0f	0.090270355
82	0x31	0.29488316
83	0xdf	-0.1985948
84	0xed	-0.11434245
85	0x1f	0.18655874
86	0x13	0.11434245
87	0x00	0.0
88	0x0e	0.084252335
89	0xf5	-0.06619826
90	0x16	0.13239652
91	0x12	0.10832443
92	0x15	0.1263785
93	0x04	0.024072096
94	0x11	0.10230641
95	0xfb	-0.03009012
96	0xc4	-0.36108142
97	0xdf	-0.1985948
98	0x1d	0.1745227
99	0xf7	-0.054162215
100	0xf2	-0.084252335
101	0x51	0.48745993
102	0x00	0.0
103	0xfd	-0.018054072
104	0xf2	-0.084252335
105	0x0c	0.07221629
106	0x01	0.006018024
107	0xdb	-0.22266689
108	0xf3	-0.078234315
109	0x0b	0.06619826
110	0x12	0.10832443
111	0xef	-0.10230641
112	0x21	0.1985948
113	0x05	0.03009012
114	0x0c	0.07221629
115	0x05	0.03009012
116	0x07	0.042126168
117	0xf2	-0.084252335
118	0x1b	0.16248664
119	0x01	0.006018024
120	0xe7	-0.1504506
121	0x05	0.03009012
122	0xf9	-0.042126168
123	0x28	0.24072096
124	0xcb	-0.31895527
125	0xe2	-0.18054071
126	0xf9	-0.042126168
127	0xe5	-0.16248664
128	0xe4	-0.16850467
129	0x19	0.1504506
130	0xef	-0.10230641
131	0xfc	-0.024072096
132	0xf4	-0.07221629
133	0xfa	-0.036108144
134	0x20	0.19257677
135	0x00	0.0
136	0xdd	-0.21063083
137	0xef	-0.10230641
138	0xf9	-0.042126168
139	0x04	0.024072096
140	0xf2	-0.084252335
141	0x14	0.12036048
142	0x07	0.042126168
143	0xf2	-0.084252335
144	0xf2	-0.084252335
145	0x17	0.13841455
146	0xfd	-0.018054072
147	0xec	-0.12036048
148	0xfa	-0.036108144
149	0xff	-0.006018024
150	0xfb	-0.03009012
151	0x18	0.14443257
152	0xfe	-0.012036048
153	0xfb	-0.03009012
154	0x19	0.1504506
155	0x1c	0.16850467
156	0xdb	-0.22266689
157	0xe8	-0.14443257
158	0xe7	-0.1504506
159	0x00	0.0
160	0x0b	0.06619826
161	0x0e	0.084252335
162	0xdc	-0.21664886
163	0xfe	-0.012036048
164	0xf9	-0.042126168
165	0x1d	0.1745227
166	0x06	0.036108144
167	0x03	0.018054072
168	0x12	0.10832443
169	0xfb	-0.03009012
170	0xf0	-0.09628838
171	0xe3	-0.1745227
172	0x02	0.012036048
173	0x05	0.03009012
174	0xf6	-0.06018024
175	0x09	0.054162215
176	0x04	0.024072096
177	0x1b	0.16248664
178	0x50	0.48144192
179	0xfb	-0.03009012
180	0xfb	-0.03009012
181	0xe6	-0.15646863
182	0x12	0.10832443
183	0xbf	-0.39117154
184	0xfd	-0.018054072
185	0xf6	-0.06018024
186	0x14	0.12036048
187	0x07	0.042126168
188	0x24	0.21664886
189	0x26	0.2286849
190	0xef	-0.10230641
191	0xf5	-0.06619826
192	0xfd	-0.018054072
193	0xf9	-0.042126168
194	0xec	-0.12036048
195	0x0a	0.06018024
196	0xe8	-0.14443257
197	0xe5	-0.16248664
198	0x0d	0.078234315
199	0x07	0.042126168
200	0x09	0.054162215
201	0xdd	-0.21063083
202	0xef	-0.10230641
203	0x0c	0.07221629
204	0xfe	-0.012036048
205	0xe6	-0.15646863
206	0x17	0.13841455
207	0x31	0.29488316
208	0x0c	0.07221629
209	0x07	0.042126168
210	0xde	-0.20461282
211	0xdf	-0.1985948
212	0x0c	0.07221629
213	0x01	0.006018024
214	0xfa	-0.036108144
215	0x10	0.09628838
216	0x0f	0.090270355
217	0xfb	-0.03009012
218	0xfc	-0.024072096
219	0x08	0.04814419
220	0x01	0.006018024
221	0x13	0.11434245
222	0xfd	-0.018054072
223	0xf6	-0.06018024
224	0xf1	-0.090270355
225	0x18	0.14443257
226	0xe5	-0.16248664
227	0xdc	-0.21664886
228	0xe2	-0.18054071
229	0xee	-0.10832443
230	0xf5	-0.06619826
231	0x0e	0.084252335
232	0xf3	-0.078234315
233	0xfd	-0.018054072
234	0xe6	-0.15646863
235	0x04	0.024072096
236	0xf6	-0.06018024
237	0x0b	0.06619826
238	0xee	-0.10832443
239	0x30	0.28886515
240	0xf0	-0.09628838
241	0x0a	0.06018024
242	0xed	-0.11434245
243	0x07	0.042126168
244	0xca	-0.3249733
245	0xf1	-0.090270355
246	0xde	-0.20461282
247	0xfe	-0.012036048
248	0x47	0.4272797
249	0xf2	-0.084252335
250	0xf3	-0.078234315
251	0xf3	-0.078234315
252	0x18	0.14443257
253	0x09	0.054162215
254	0x20	0.19257677
255	0xf1	-0.090270355

sequential_12/dense_157/MatMul i1 [32, 64] scale=0.0057668663 zero_point=0
0	0xce	-0.2883433
1	0x30	0.27680957
2	0xf0	-0.09226986
3	0xda	-0.21914092
4	0x0b	0.06343553
5	0xe2	-0.17300598
6	0xfc	-0.023067465
7	0xeb	-0.12110419
8	0x1c	0.16147226
9	0xc7	-0.3287114
10	0xe5	-0.15570539
11	0xe9	-0.13263792
12	0x08	0.04613493
13	0x00	0.0
14	0xe5	-0.15570539
15	0x13	0.10957046
16	0xe6	-0.14993852
17	0xff	-0.0057668663
18	0xff	-0.0057668663
19	0x21	0.19030659
20	0x23	0.20184033
21	0xef	-0.09803673
22	0x08	0.04613493
23	0xdd	-0.20184033
24	0xfb	-0.028834332
25	0x25	0.21337405
26	0xd8	-0.23067465
27	0x35	0.30564392
28	0xf7	-0.051901795
29	0xed	-0.10957046
30	0x16	0.12687106
31	0xf4	-0.06920239
32	0xf6	-0.057668664
33	0xb3	-0.4440487
34	0xf6	-0.057668664
35	0x10	0.09226986
36	0x39	0.3287114
37	0xf9	-0.040368065
38	0x11	0.09803673
39	0x18	0.13840479
40	0xfe	-0.0115337325
41	0xff	-0.0057668663
42	0x27	0.22490779
43	0x16	0.12687106
44	0xf7	-0.051901795
45	0x0c	0.06920239
46	0x08	0.04613493
47	0xe1	-0.17877285
48	0x20	0.18453972
49	0x43	0.38638005
50	0xf8	-0.04613493
51	0x18	0.13840479
52	0x2c	0.25374213
53	0xfd	-0.017300598
54	0xe3	-0.16723911
55	0xf3	-0.07496926
56	0x15	0.12110419
57	0x0f	0.08650299
58	0x05	0.028834332
59	0xeb	-0.12110419
60	0xe6	-0.14993852
61	0x2a	0.24220838
62	0x2b	0.24797525
63	0x16	0.12687106
64	0x4e	0.44981557
65	0x12	0.10380359
66	0xe0	-0.18453972
67	0x19	0.14417166
68	0x0d	0.07496926
69	0x01	0.0057668663
70	0x10	0.09226986
71	0x05	0.028834332
72	0xdc	-0.20760718
73	0x36	0.31141078
74	0xf2	-0.08073613
75	0xd8	-0.23067465
76	0x2c	0.25374213
77	0xeb	-0.12110419
78	0x5d	0.53631854
79	0xc3	-0.35177884
80	0x07	0.040368065
81	0xff	-0.0057668663
82	0x33	0.29411018
83	0x11	0.09803673
84	0x18	0.13840479
85	0xfc	-0.023067465
86	0xee	-0.10380359
87	0x1b	0.15570539
88	0x0e	0.08073613
89	0x08	0.04613493
90	0x38	0.32294452
91	0x96	-0.61128783
92	0x0e	0.08073613
93	0x1e	0.17300598
94	0xc1	-0.36331257
95	0xff	-0.0057668663
96	0xc6	-0.33447823
97	0x43	0.38638005
98	0xff	-0.0057668663
99	0xe1	-0.17877285
100	0xdb	-0.21337405
101	0x13	0.10957046
102	0xca	-0.31141078
103	0x18	0.13840479
104	0x10	0.09226986
105	0xe7	-0.14417166
106	0x0f	0.08650299
107	0xef	-0.09803673
108	0x1a	0.14993852
109	0x23	0.20184033
110	0xdd	-0.20184033
111	0x69	0.60552096
112	0x0c	0.06920239
113	0x9e	-0.5651529
114	0x0a	0.057668664
115	0xd5	-0.24797525
116	0x14	0.11533733
117	0xd4	-0.25374213
118	0xfc	-0.023067465
119	0x1b	0.15570539
120	0xf2	-0.08073613
121	0x24	0.20760718
122	0xfd	-0.017300598
123	0x10	0.09226986
124	0x0b	0.06343553
125	0x14	0.11533733
126	0x11	0.09803673
127	0xf8	-0.04613493
128	0xe5	-0.15570539
129	0x06	0.034601197
130	0xe7	-0.14417166
131	0x1c	0.16147226
132	0xfa	-0.034601197
133	0xe3	-0.16723911
134	0x1a	0.14993852
135	0xf6	-0.057668664
136	0xee	-0.10380359
137	0xf4	-0.06920239
138	0xd3	-0.25950897
139	0xd6	-0.24220838
140	0xef	-0.09803673
141	0x28	0.23067465
142	0x0a	0.057668664
143	0xd2	-0.26527584
144	0x2f	0.2710427
145	0x0e	0.08073613
146	0x18	0.13840479
147	0xe1	-0.17877285
148	0x27	0.22490779
149	0xe6	-0.14993852
150	0xf3	-0.07496926
151	0x1a	0.14993852
152	0xdb	-0.21337405
153	0x0d	0.07496926
154	0x1c	0.16147226
155	0x1e	0.17300598
156	0xd2	-0.26527584
157	0x05	0.028834332
158	0x15	0.12110419
159	0xce	-0.2883433
160	0xe6	-0.14993852
161	0xe1	-0.17877285
162	0x04	0.023067465
163	0xe2	-0.17300598
164	0x1c	0.16147226
165	0xfa	-0.034601197
166	0x08	0.04613493
167	0x1e	0.17300598
168	0x2a	0.24220838
169	0x06	0.034601197
170	0xe7	-0.14417166
171	0x21	0.19030659
172	0xeb	-0.12110419
173	0x09	0.051901795
174	0xec	-0.11533733
175	0xf3	-0.07496926
176	0x32	0.2883433
177	0xee	-0.10380359
178	0xee	-0.10380359
179	0xfa	-0.034601197
180	0x14	0.11533733
181	0xd8	-0.23067465
182	0xfd	-0.017300598
183	0xdd	-0.20184033
184	0xeb	-0.12110419
185	0x14	0.11533733
186	0x15	0.12110419
187	0x22	0.19607346
188	0xec	-0.11533733
189	0xf9	-0.040368065
190	0xf8	-0.04613493
191	0x0b	0.06343553
192	0xd6	-0.24220838
193	0x10	0.09226986
194	0xe5	-0.15570539
195	0x12	0.10380359
196	0xe7	-0.14417166
197	0x10	0.09226986
198	0x0a	0.057668664
199	0x10	0.09226986
200	0x1f	0.17877285
201	0x0d	0.07496926
202	0x17	0.13263792
203	0x05	0.028834332
204	0xec	-0.11533733
205	0xf0	-0.09226986
206	0xf6	-0.057668664
207	0x2c	0.25374213
208	0x00	0.0
209	0x0a	0.057668664
210	0xff	-0.0057668663
211	0x0c	0.06920239
212	0xd5	-0.24797525
213	0xfd	-0.017300598
214	0xed	-0.10957046
215	0xce	-0.2883433
216	0x10	0.09226986
217	0x00	0.0
218	0x0e	0.08073613
219	0x2d	0.25950897
220	0xe1	-0.17877285
221	0x0d	0.07496926
222	0x10	0.09226986
223	0xf2	-0.08073613
224	0x16	0.12687106
225	0xc6	-0.33447823
226	0xcf	-0.28257644
227	0x25	0.21337405
228	0x30	0.27680957
229	0x1c	0.16147226
230	0x06	0.034601197
231	0x0a	0.057668664
232	0xe7	-0.14417166
233	0x1b	0.15570539
234	0xd9	-0.22490779
235	0xea	-0.12687106
236	0x02	0.0115337325
237	0xe6	-0.14993852
238	0xe9	-0.13263792
239	0x0a	0.057668664
240	0xcb	-0.30564392
241	0xf7	-0.051901795
242	0x04	0.023067465
243	0x16	0.12687106
244	0xf8	-0.04613493
245	0x0e	0.08073613
246	0xd8	-0.23067465
247	0xf8	-0.04613493
248	0xfd	-0.017300598
249	0x01	0.0057668663
250	0xec	-0.11533733
251	0xee	-0.10380359
252	0xcd	-0.29411018
253	0x04	0.023067465
254	0xd9	-0.22490779
255	0x13	0.10957046

sequential_12/dense_158/MatMul i1 [16, 32] scale=0.009492585 zero_point=0
0	0x29	0.389196
1	0x1f	0.29427016
2	0x22	0.32274792
3	0x04	0.03797034
4	0xd5	-0.40818116
5	0xea	-0.20883688
6	0x09	0.08543327
7	0xf1	-0.14238878
8	0x0d	0.12340361
9	0xec	-0.1898517
10	0xf5	-0.10441844
11	0xff	-0.009492585
12	0x11	0.16137396
13	0xd5	-0.40818116
14	0x0e	0.1328962
15	0x0d	0.12340361
16	0xfa	-0.056955513
17	0x28	0.3797034
18	0x10	0.15188137
19	0xf5	-0.10441844
20	0xee	-0.17086653
21	0xd2	-0.43665892
22	0x1a	0.24680722
23	0xea	-0.20883688
24	0x10	0.15188137
25	0x11	0.16137396
26	0x2c	0.41767377
27	0x07	0.0664481
28	0xf2	-0.1328962
29	0x19	0.23731464
30	0x05	0.047462925
31	0xf5	-0.10441844
32	0x21	0.3132553
33	0xf0	-0.15188137
34	0xd4	-0.41767377
35	0x17	0.21832946
36	0xf3	-0.12340361
37	0xd4	-0.41767377
38	0x05	0.047462925
39	0x03	0.028477756
40	0xed	-0.18035913
41	0xfa	-0.056955513
42	0x1e	0.28477755
43	0x01	0.009492585
44	0x10	0.15188137
45	0xfa	-0.056955513
46	0x06	0.056955513
47	0x1f	0.29427016
48	0xee	-0.17086653
49	0xf9	-0.0664481
50	0x26	0.36071825
51	0x26	0.36071825
52	0x10	0.15188137
53	0xf6	-0.09492585
54	0xe8	-0.22782205
55	0x0e	0.1328962
56	0x14	0.1898517
57	0x12	0.17086653
58	0x01	0.009492585
59	0xdc	-0.34173307
60	0x04	0.03797034
61	0xfb	-0.047462925
62	0xd6	-0.39868858
63	0xd7	-0.389196
64	0x0d	0.12340361
65	0xe5	-0.2562998
66	0x13	0.18035913
67	0x0d	0.12340361
68	0xf2	-0.1328962
69	0xbd	-0.6360032
70	0x1d	0.27528498
71	0xfa	-0.056955513
72	0xcf	-0.46513668
73	0xf5	-0.10441844
74	0xe9	-0.21832946
75	0xbf	-0.61701804
76	0x3a	0.55056995
77	0x0e	0.1328962
78	0x1b	0.2562998
79	0x18	0.22782205
80	0x27	0.37021083
81	0x04	0.03797034
82	0x2b	0.40818116
83	0x2f	0.44615152
84	0xf5	-0.10441844
85	0xec	-0.1898517
86	0xce	-0.47462928
87	0x3a	0.55056995
88	0xe6	-0.24680722
89	0x23	0.3322405
90	0xf8	-0.07594068
91	0xd3	-0.42716634
92	0x20	0.30376273
93	0xf2	-0.1328962
94	0xeb	-0.19934429
95	0x01	0.009492585
96	0x0a	0.09492585
97	0xe9	-0.21832946
98	0xfa	-0.056955513
99	0x17	0.21832946
100	0x09	0.08543327
101	0xc4	-0.5695551
102	0xff	-0.009492585
103	0x03	0.028477756
104	0xe7	-0.23731464
105	0xff	-0.009492585
106	0x05	0.047462925
107	0xce	-0.47462928
108	0x29	0.389196
109	0xcb	-0.503107
110	0x32	0.47462928
111	0xfb	-0.047462925
112	0x03	0.028477756
113	0x24	0.34173307
114	0xeb	-0.19934429
115	0x48	0.68346614
116	0xd3	-0.42716634
117	0x03	0.028477756
118	0xd3	-0.42716634
119	0x32	0.47462928
120	0x05	0.047462925
121	0x4a	0.70245135
122	0x10	0.15188137
123	0x0e	0.1328962
124	0x49	0.6929587
125	0xc2	-0.5885403
126	0xd3	-0.42716634
127	0x01	0.009492585
128	0xeb	-0.19934429
129	0x28	0.3797034
130	0x07	0.0664481
131	0xe5	-0.2562998
132	0x0a	0.09492585
133	0x00	0.0
134	0x27	0.37021083
135	0x0c	0.113911025
136	0x44	0.64549583
137	0x11	0.16137396
138	0x15	0.19934429
139	0xf9	-0.0664481
140	0xff	-0.009492585
141	0xf2	-0.1328962
142	0xd6	-0.39868858
143	0xd0	-0.4556441
144	0xd7	-0.389196
145	0xeb	-0.19934429
146	0x15	0.19934429
147	0xe2	-0.28477755
148	0x07	0.0664481
149	0x1e	0.28477755
150	0x24	0.34173307
151	0xef	-0.16137396
152	0xcf	-0.46513668
153	0xf8	-0.07594068
154	0xfa	-0.056955513
155	0x0f	0.14238878
156	0x01	0.009492585
157	0x05	0.047462925
158	0x1f	0.29427016
159	0xeb	-0.19934429
160	0xf9	-0.0664481
161	0x23	0.3322405
162	0xe6	-0.24680722
163	0x06	0.056955513
164	0xec	-0.1898517
165	0xed	-0.18035913
166	0x15	0.19934429
167	0x2e	0.43665892
168	0x27	0.37021083
169	0xf0	-0.15188137
170	0x30	0.4556441
171	0x1b	0.2562998
172	0xe9	-0.21832946
173	0x1e	0.28477755
174	0xea	-0.20883688
175	0xe8	-0.22782205
176	0xec	-0.1898517
177	0x23	0.3322405
178	0x21	0.3132553
179	0xfb	-0.047462925
180	0x29	0.389196
181	0xe9	-0.21832946
182	0x00	0.0
183	0xf9	-0.0664481
184	0xcc	-0.49361444
185	0x16	0.20883688
186	0xe6	-0.24680722
187	0xea	-0.20883688
188	0xf6	-0.09492585
189	0xf5	-0.10441844
190	0x29	0.389196
191	0x07	0.0664481
192	0xe8	-0.22782205
193	0xe2	-0.28477755
194	0xe0	-0.30376273
195	0x06	0.056955513
196	0x3a	0.55056995
197	0x13	0.18035913
198	0x09	0.08543327
199	0xe7	-0.23731464
200	0x1a	0.24680722
201	0x1e	0.28477755
202	0xfc	-0.03797034
203	0xd4	-0.41767377
204	0xef	-0.16137396
205	0x24	0.34173307
206	0x12	0.17086653
207	0x26	0.36071825
208	0x1d	0.27528498
209	0x13	0.18035913
210	0x0c	0.113911025
211	0x0d	0.12340361
212	0x24	0.34173307
213	0x22	0.32274792
214	0x15	0.19934429
215	0x1c	0.2657924
216	0xeb	-0.19934429
217	0x07	0.0664481
218	0xe0	-0.30376273
219	0x1a	0.24680722
220	0xfb	-0.047462925
221	0x08	0.07594068
222	0xed	-0.18035913
223	0xd6	-0.39868858
224	0xed	-0.18035913
225	0x0e	0.1328962
226	0x21	0.3132553
227	0xfc	-0.03797034
228	0xe7	-0.23731464
229	0xf8	-0.07594068
230	0xf8	-0.07594068
231	0xe9	-0.21832946
232	0x0d	0.12340361
233	0xed	-0.18035913
234	0x0d	0.12340361
235	0x1b	0.2562998
236	0x0a	0.09492585
237	0x0c	0.113911025
238	0xd5	-0.40818116
239	0xda	-0.36071825
240	0xea	-0.20883688
241	0x1a	0.24680722
242	0xd2	-0.43665892
243	0xf0	-0.15188137
244	0xef	-0.16137396
245	0x02	0.01898517
246	0x0d	0.12340361
247	0x0b	0.10441844
248	0xe3	-0.27528498
249	0xfb	-0.047462925
250	0x1d	0.27528498
251	0x17	0.21832946
252	0xd8	-0.3797034
253	0x28	0.3797034
254	0x1c	0.2657924
255	0xf0	-0.15188137

sequential_12/dense_159/MatMul i1 [8, 16] scale=0.007066874 zero_point=0
0	0xf8	-0.05653499
1	0x04	0.028267495
2	0x14	0.14133748
3	0xe8	-0.16960497
4	0x83	-0.88335925
5	0xa8	-0.6218849
6	0x06	0.042401243
7	0x14	0.14133748
8	0xec	-0.14133748
9	0xff	-0.007066874
10	0xe8	-0.16960497
11	0x4d	0.5441493
12	0xf7	-0.06360187
13	0x95	-0.7561555
14	0xfd	-0.021200622
15	0x6a	0.74908864
16	0x28	0.28267497
17	0xe2	-0.21200621
18	0xd0	-0.33920994
19	0xb4	-0.53708243
20	0x33	0.36041057
21	0xec	-0.14133748
22	0xac	-0.5936174
23	0x1f	0.21907309
24	0x22	0.24027371
25	0xd2	-0.3250762
26	0x12	0.12720373
27	0x02	0.014133748
28	0xf5	-0.07773561
29	0xee	-0.12720373
30	0xf0	-0.11306998
31	0x3c	0.42401242
32	0x07	0.049468115
33	0x29	0.2897418
34	0x74	0.81975734
35	0x7f	0.897493
36	0xc6	-0.40987867
37	0x40	0.45227993
38	0xea	-0.15547122
39	0xa1	-0.67135304
40	0xc3	-0.4310793
41	0x1d	0.20493934
42	0x0d	0.09186936
43	0xf2	-0.09893623
44	0xd6	-0.2968087
45	0xf6	-0.07066874
46	0xc1	-0.44521305
47	0x0e	0.09893623
48	0xf8	-0.05653499
49	0xf9	-0.049468115
50	0x19	0.17667185
51	0xeb	-0.14840434
52	0x90	-0.79148984
53	0xc9	-0.38867807
54	0xf0	-0.11306998
55	0xc0	-0.45227993
56	0xef	-0.12013686
57	0x05	0.03533437
58	0x1b	0.1908056
59	0x48	0.50881493
60	0x8d	-0.8126905
61	0xb8	-0.50881493
62	0x09	0.06360187
63	0x37	0.38867807
64	0x62	0.69255364
65	0xbe	-0.46641368
66	0x05	0.03533437
67	0xd7	-0.2897418
68	0xa6	-0.63601863
69	0xb6	-0.5229487
70	0xd7	-0.2897418
71	0x50	0.56534994
72	0x1c	0.19787246
73	0x1a	0.18373872
74	0xea	-0.15547122
75	0xee	-0.12720373
76	0x06	0.042401243
77	0xe6	-0.18373872
78	0xe0	-0.22613996
79	0x1c	0.19787246
80	0x43	0.47348055
81	0x09	0.06360187
82	0xd5	-0.30387557
83	0x27	0.2756081
84	0xf0	-0.11306998
85	0xc0	-0.45227993
86	0xe8	-0.16960497
87	0x32	0.3533437
88	0x2f	0.33214307
89	0xae	-0.5794836
90	0x27	0.2756081
91	0x28	0.28267497
92	0x17	0.1625381
93	0xc5	-0.41694555
94	0xe2	-0.21200621
95	0xd4	-0.31094244
96	0xc7	-0.4028118
97	0x58	0.6218849
98	0x38	0.39574492
99	0x6b	0.7561555
100	0x29	0.2897418
101	0xc1	-0.44521305
102	0x05	0.03533437
103	0xbb	-0.4876143
104	0x09	0.06360187
105	0x02	0.014133748
106	0x0e	0.09893623
107	0x51	0.5724168
108	0x2f	0.33214307
109	0x13	0.13427061
110	0xaa	-0.60775113
111	0xef	-0.12013686
112	0xc1	-0.44521305
113	0x2b	0.30387557
114	0xf4	-0.084802486
115	0x24	0.25440747
116	0x39	0.4028118
117	0x37	0.38867807
118	0xcf	-0.34627682
119	0xea	-0.15547122
120	0xca	-0.3816112
121	0xe8	-0.16960497
122	0xdb	-0.26147434
123	0xf2	-0.09893623
124	0x39	0.4028118
125	0x5c	0.6501524
126	0x59	0.6289518
127	0x24	0.25440747

sequential_12/dense_160/MatMul i1 [4, 8] scale=0.010323546 zero_point=0
0	0xd3	-0.46455956
1	0xb3	-0.79491305
2	0x1f	0.3200299
3	0xbc	-0.7020011
4	0xa9	-0.8981485
5	0xbe	-0.68135405
6	0x32	0.5161773
7	0x78	1.2388256
8	0xf0	-0.16517673
9	0x97	-1.0839723
10	0x68	1.0736488
11	0x0c	0.12388255
12	0x9b	-1.0426781
13	0xcd	-0.5265008
14	0x68	1.0736488
15	0x31	0.5058538
16	0x5c	0.9497662
17	0x58	0.90847206
18	0xc8	-0.57811856
19	0x59	0.9187956
20	0xf5	-0.11355901
21	0x7f	1.3110904
22	0xa0	-0.9910604
23	0x0f	0.1548532
24	0x3f	0.6503834
25	0x36	0.55747145
26	0xf8	-0.08258837
27	0x74	1.1975313
28	0x4b	0.77426594
29	0x64	1.0323546
30	0x17	0.23744155
31	0x98	-1.0736488
