model_converters/onnx2json/model.onnx (onnx, 37080 bytes, 10 tensors)

sequential/dense_4/MatMul/ReadVariableOp:0 f4 [32, 10]
00000000: f894 2c3f 404a 0bbf b232 8ebc 4e64 aebe
00000010: 9e93 d73e e445 99be 0699 45be 1caa c9bc
00000020: 8d97 723e ceb4 0e3f 9880 aabd ae03 a2be
00000030: ccba 71bd 180c b43e d8ef fcbd c763 d83e
00000040: 915b 31bd 4155 f43e fc81 013f 3f95 25bf
00000050: 02f6 03be 7540 d63e 05d0 d2be 2773 083e
00000060: f50f dc3d 813f a93d 06c7 1dbf 94e4 e93e
00000070: ea6f 3fbd 8706 8fbe bc58 adbe a896 9cbe
00000080: fd23 b73e e49e 1e3f d635 f6be 12d9 74be
00000090: 3c7e 15bf 4f13 97be fc19 be3e 545b c1be
000000a0: 05f0 efbe 0de5 5dbe 591e 59be 6e56 b83e
000000b0: 448e bd3e 4621 cfbd f393 dabe b194 1c3f
000000c0: d655 f63e e61f 933e 9b93 b0be 43c3 e63e
000000d0: 806a 83be da9e b93c 85a7 f73e 0c46 7bbb
000000e0: 976a 803e 453c 33be b6b3 9d3e 6be6 16bf
000000f0: 8e00 cf3e 0745 223f bfc2 47bd a8d2 cdbd
00000100: 3baa 28be 8ecf b8be 22d6 593e 19d9 4e3e
00000110: ead7 633e 646b 29bf e01a 5a3e 3f33 eebe
00000120: 368d 633e 0eea f4be fd82 a73d 063e 55be
00000130: 88a7 323f 9d2a 88be 9b88 d43e f017 05bf
00000140: 2bb6 e6be 3480 0f3f 5208 d83d d9e5 b9be
00000150: 83d1 0dbf c02c 7bbe fa8e e0bd bb34 813e
00000160: 47de bf3e faaf 263f 6779 86bc fb5b cfbe
00000170: 0738 413f 2480 d4be ba59 95be afa2 a3be
00000180: 2f0f 8ebd 5ce5 ac3e 8fb3 84be 3c08 a9be
00000190: 97b6 92be c564 d23c 0c88 d03d 9046 83be
000001a0: c803 1d3f 6823 5bbe 926f 15be d584 49be
000001b0: 65dd cdbe 91e0 123f d076 6fbd 579d 183f
000001c0: 5b76 83bd 78cc 8fbe 518d 083f db99 b3be
000001d0: 5921 b9bd bf7d b8bd 846a 4fbd bc10 bebe
000001e0: 12ee d0bd c451 943e 5638 cc3e 88d2 233f
000001f0: 635f 32be 0e0a 40bf 514e 78be 2be6 9e3e
00000200: de19 9a3e 24e1 313e 40db 083f e1bf 60be
00000210: ff4d 9bbd 7458 ac3e 0b8d 14bd c1c9 5abe
00000220: e0aa 7d3e 5d7f febe 1e4b 02be 22c9 aa3e
00000230: f9d3 e4be d723 01bf 0270 c3be 835d dfbe
00000240: c407 a43e f459 97be 973b 0cbe b6d3 693f
00000250: 92ca ffbe 31ef c23e e0ca ebbe 866d 0b3f
00000260: 60f4 e63e 56cb fb3e 0c38 19be 816a 693e
00000270: 8e0a 313f 845f 4bbe ca29 db3e 9342 aa3d
00000280: eda4 6d3e b19e 86be 213e b33e fa60 323e
00000290: d3bc 59bd 7a6b 27bf b6b4 22bf e449 923e
000002a0: f0d4 f7bd 1b99 15ba 2417 5abe 0f9a f63d
000002b0: 61b3 853e bece 773d b69a d13e 8f94 b73d
000002c0: a263 a73e 34e3 773e ae94 01bc e44b 41bf
000002d0: c3c5 143e 1943 02be b4d6 ec3e 5204 0e3f
000002e0: 420f 4cbe fd37 d5be 4cf6 8cbe f594 d93e
000002f0: 28f2 cfbe 7db3 26bf fccd 38be 80b3 efbe
00000300: e661 6c3e 34c8 af3e 679a 65be 4bdb 8d3e
00000310: c065 36bf 2a31 373d c6d2 88be 5de4 29bb
00000320: eb1a c1bd c142 dcbe 1e0d dbbd cfe1 403e
00000330: de8d 8e3e 750c 02bf 19ba fa3e b347 24be
00000340: d632 4bbc 1e90 13bf da82 163f 532e 433f
00000350: 6009 b63e a221 82be 370c c9be 1ccb b9be
00000360: f319 40be 518a 193f d8bc d5be 8af5 42bf
00000370: d869 08bf ef22 353f 75d7 fbbe 09c0 a63e
00000380: ef74 433d d23d 163f 9af0 67be 6e80 523f
00000390: 2822 f93e 2f50 24be 80b6 4ebe 151d 1a3e
000003a0: fa29 3b3f 7f93 e1be f59a 193e 80dd f43e
000003b0: fd14 b43e d096 53bb 01b3 023e f24f 0bbf
000003c0: 1ae4 edbd 2dab 09bf 9a1c 873d 615b 9fbe
000003d0: ee73 f93e 97de cabe 5fe8 a13e 967c 5b3f
000003e0: b794 5cbd efd8 87be 30f6 a23e 9bcf 53be
000003f0: 3788 8a3d dd8c fd3e 0bd8 0e3f 79c3 3dbe
0.6741481 -0.5441017 -0.017358158 -0.340609 0.4210481 -0.29936135 -0.19296655 -0.024617247
0.23690625 0.55744636 -0.083253086 -0.31643432 -0.059016034 0.35165477 -0.12350434 0.42263624
-0.043300215 0.47721294 0.50588965 -0.64680856 -0.12886813 0.41846052 -0.4117433 0.13325177
0.10745231 0.082640655 -0.6163181 0.45682204 -0.04673759 -0.27934667 -0.3385676 -0.30583692
0.35769644 0.619612 -0.4808795 -0.23910931 -0.58395743 -0.2950692 0.371292 -0.3776499
-0.46862808 -0.21669407 -0.21202983 0.3600344 0.37022603 -0.10113768 -0.42691 0.61164385
0.48112363 0.28735274 -0.34487614 0.45070848 -0.2566719 0.022658754 0.48369995 -0.0038341312
0.25081322 -0.1750346 0.3080117 -0.5894534 0.4043011 0.6338658 -0.04876971 -0.10049945
-0.16471188 -0.36095852 0.21273091 0.20200004 0.22250333 -0.6617949 0.21299314 -0.46523473
0.22221836 -0.4783482 0.08179281 -0.20824441 0.6978688 -0.2659501 0.41510472 -0.5198965
-0.45060858 0.56055 0.10548462 -0.36308172 -0.55397815 -0.2452879 -0.109647706 0.25235543
0.37474272 0.6511227 -0.016415311 -0.40499863 0.75476116 -0.41504014 -0.29170018 -0.31960055
-0.0693649 0.33768737 -0.25918242 -0.33014095 -0.2865493 0.025682816 0.10182199 -0.25639772
0.61333895 -0.21400225 -0.14593342 -0.19679578 -0.40207973 0.5737391 -0.058462918 0.5961508
-0.06419059 -0.28085685 0.5334063 -0.3507832 -0.09039564 -0.09008359 -0.05063869 -0.37122142
-0.10201658 0.28968632 0.3988673 0.6399312 -0.174192 -0.7501534 -0.24248625 0.3103498
0.3009786 0.1737104 0.5345955 -0.21948196 -0.07583236 0.33661234 -0.03626732 -0.21366026
0.24772215 -0.49706545 -0.12723967 0.33356577 -0.44692972 -0.5044531 -0.38171393 -0.4362603
0.32037175 -0.29560816 -0.13694607 0.9133867 -0.49959236 0.38073114 -0.4605322 0.54463995
0.45108318 0.4917857 -0.14962786 0.22794534 0.6915673 -0.19860655 0.4280532 0.08313479
0.23207445 -0.26292947 0.35008338 0.17419806 -0.053158592 -0.6539837 -0.63556993 0.28572
-0.121011615 -0.00057067134 -0.2129789 0.12041103 0.26113418 0.0604999 0.40938348 0.08963882
0.326932 0.24207765 -0.007908983 -0.75506425 0.14528565 -0.12720908 0.46257555 0.5547534
-0.19927695 -0.41644278 -0.2753166 0.42496458 -0.40614438 -0.6511763 -0.18047327 -0.46816635
0.2308422 0.3433243 -0.22422181 0.2770637 -0.7124901 0.04472462 -0.26723307 -0.0025923469
-0.09428962 -0.4301968 -0.10695861 0.18836139 0.2784261 -0.5080026 0.48970106 -0.16042976
-0.012402257 -0.5764178 0.58793414 0.7624256 0.35554028 -0.25416285 -0.39267132 -0.36287773
-0.18759899 0.5997668 -0.4174564 -0.7615591 -0.53286505 0.7075643 -0.49187818 0.32568386
0.04771894 0.5868808 -0.22650376 0.8222722 0.48658872 -0.16046213 -0.20186806 0.15050156
0.73110926 -0.44057843 0.15000518 0.4782524 0.35172263 -0.0032285936 0.12763597 -0.5441886
-0.116157725 -0.5377682 0.06597252 -0.31124404 0.4872126 -0.39622948 0.31622598 0.8573698
-0.053852763 -0.26532695 0.3182845 -0.20684664 0.06764262 0.49521533 0.55798405 -0.18531598

sequential/dense_4/BiasAdd/ReadVariableOp:0 f4 [10]
00000000: 8b31 bcbe d9f6 30be 0be2 e53e 17cb 693e
00000010: 2bc1 1ebe 1a9d 743e 2ba4 8abe 5756 31bd
00000020: 4484 583d 3d5d 25be
-0.36756548 -0.17281665 0.4489902 0.22831379 -0.15503375 0.23888054 -0.27078375 -0.04329523
0.052860513 -0.16148849

sequential/dense_3/MatMul/ReadVariableOp:0 f4 [64, 32]
00000000: 1747 a53c 7809 dd3c 06c3 dfbc 9eef f73e
00000010: 3e29 9e3e df18 0cbd 0b05 26be 6719 4fbe
00000020: 7356 a93e c23a 503d 6543 b63d 0b4c 9c3d
00000030: 2c3f c53e 8cb4 2d3d d040 97be b543 853e
00000040: f2aa 243e 6ae3 853e 80b7 633d baf3 7d3e
00000050: 5519 cfbe dad3 82bd c4e9 bc3e 4b1c 0bbe
00000060: 7678 473d 7ceb d9bd 615d 853e a07a 78be
00000070: 1b01 31be 27e5 cf3d c109 8c3e 81c9 633e
00000080: 1989 f43d 1046 793e e63f 6abe d714 a33d
00000090: 9641 cfbd 4357 8b3e 392f 423d 4cc5 563e
000000a0: 0f1d 923e 4b43 d6bd 6229 52be ac89 14be
000000b0: 27a2 4b3e b8fe 98bd 6d3c b8bd 1afd 163e
000000c0: ba63 4a3c ef12 53be 8990 583e 5254 bbbc
000000d0: 42d9 c7bd 859d c63e 8151 f03d 0ea7 2f3d
000000e0: 6ff8 1d3d c320 053e 3e34 29be 5a91 6c3d
000000f0: fb5a c13d f4a2 cebc 1aaf 023e d5aa eabd
00000100: 6596 9c3d 5de0 b33c 6344 4a3d 32b0 9e3e
00000110: c8a9 6e3d 171e 403e 297e c6bc be56 e7bd
00000120: 1d2a 8c3d 6839 47bd 421f aabe 1750 79bd
00000130: 61c3 113e c4ba e7be d18c 58be c2cb b03c
00000140: b0d7 96be eef3 2cbe 37bb 8abe 59a9 093e
00000150: c236 3cbe 63b4 523d 1643 b63e 5d1e 4ebd
00000160: c360 48be 37ca 42be a9fd 8e3d adbe d5bd
00000170: 35a7 03bd 0e8d ad3e 29d2 883d 08ef d9be
00000180: 3f16 fdbd 86d9 0f3f f973 b93d 549b 2f3e
00000190: 3835 8dbe 6d71 833c e324 e83e 50a7 b23d
000001a0: c8d7 f13d 376a 933e 058f 99bd 3ae7 bbbd
000001b0: b131 14be a7a3 db3e 7e43 90be 3318 1abe
000001c0: d835 a53d 27c5 1a3e 494b 663d e4d6 cb3e
000001d0: c068 81bd 10da 903e a79b 74be 6e94 7dbe
000001e0: c6cf 5b3d a4f0 973e dfc1 1a3e 6b9c fcbd
000001f0: 9281 02be 4466 603e fc94 3fbc 43fb aa3e
00000200: 07ca 08be e8c0 cd3e 712d 84be f4bc 4fbc
00000210: 4ea8 49bb f9de f7bd 044f 6abe 60c3 d4be
00000220: 733e 8cbe 0daf 3cbe 35b7 30be 1f76 95be
00000230: e8db bfbe 28cf b73e aa2d 043e 8a62 99bd
00000240: 1a97 263c 4c74 5fbb 8730 a23e 9d4a dd3e
00000250: a38b d23e 4692 a3be 551e 093e ad39 883d
00000260: a1f0 46be e552 2e3e f362 54bd f46a 39bc
00000270: f375 16be d545 143e 34d3 0dbe 461d b63d
00000280: cd9c 4cbe e45d 8ebc 3663 43bd 7c2f a13d
00000290: b167 79be 94e8 863e d204 96be 1068 aa3d
000002a0: b992 9fbe 675a e83e 3a2c 38be 4596 8b3e
000002b0: 1fa7 41be 454c 51bd 5170 2cbe c203 ea3d
000002c0: 6a3e 0f3e fd15 8cbd 1617 c63c 9d67 0dbd
000002d0: 74e2 2cbe 2fcd bf3d 71f3 91be 9663 843e
000002e0: bb45 a6be 3a6a 55bd d612 82be 25ae 9ebe
000002f0: 144e a13e ce3a acbe 779a c83d ccce 7f3c
00000300: 9025 073f 6f41 f03d 8a74 103e c8b9 a6bd
00000310: 458e b33e 3bd2 283d 53be 243d ad18 0f3e
00000320: 461e 8c3e 5cac 053e d891 c23d 21cb d6be
00000330: 4112 193c b072 a4bd 3504 9b3e 1719 92be
00000340: c77a 403e f928 56be 6885 5dbe be4e 533e
00000350: 9b7f a8be 28a0 403e b01e 8b3c a055 3ebe
00000360: 8b06 84bd 09e1 67bc d049 6a3d 4fde 1ebe
00000370: eb2e 503e dc41 3abe e896 6d3d 8583 03bd
00000380: b3d9 233d eb35 cb3e 91ac c3bd 88d8 363e
00000390: 1301 89bd 65f3 12be 0466 16be 0ed6 4ebe
000003a0: 0e78 873e 129f 873e 53bf 3dbe 6c37 58be
000003b0: 3706 4bbe 9e04 1ebe b9e6 98be 3c44 973d
000003c0: b784 e2bc 109e f93d 1d25 933e e150 c93e
000003d0: 8e27 b3be 5124 d3bd d05d 93be fe23 a33e
000003e0: a9d9 18be 7a18 803d 5f7e 7f3d 619b f5be
000003f0: dca7 b53e f1c1 ad3e 3ff3 b83d c15d 943d
0.0201755 0.026982054 -0.027314674 0.48425 0.3089084 -0.034203406 -0.16212861 -0.20224534
0.33073768 0.050837286 0.08899573 0.076316915 0.3852476 0.04240851 -0.29541636 0.2602822
0.16080835 0.26150066 0.05559492 0.24800006 -0.40449014 -0.06388064 0.368971 -0.13585012
0.048698865 -0.10640618 0.26047805 -0.24265528 -0.17285578 0.10151129 0.27351192 0.22244836
0.11940212 0.24343133 -0.22875938 0.07962959 -0.101199314 0.27215013 0.047408316 0.209737
0.28537795 -0.10462054 -0.20523599 -0.14505643 0.19886075 -0.07470459 -0.089959 0.14744988
0.012352878 -0.20612691 0.21148886 -0.022867355 -0.097582355 0.38792053 0.11734296 0.042883925
0.038567003 0.13000779 -0.16523835 0.057755806 0.09441181 -0.025224186 0.12762108 -0.11458365
0.07645873 0.02195757 0.049381625 0.309938 0.058267385 0.18761478 -0.02423008 -0.11295842
0.0684397 -0.04863873 -0.33226973 -0.060867395 0.14234687 -0.45259678 -0.21147467 0.021581534
-0.29461432 -0.16889927 -0.2709596 0.13443507 -0.18380263 0.05144156 0.35598058 -0.050321925
-0.19568162 -0.19022451 0.069819756 -0.10436759 -0.032141883 0.3389668 0.0668071 -0.4256518
-0.12357759 0.5619129 0.09055323 0.17149097 -0.27579665 0.016045297 0.45340642 0.087233186
0.11808735 0.28791973 -0.07497982 -0.09174962 -0.14472081 0.42898294 -0.28176492 -0.15048294
0.080669105 0.1511427 0.05622414 0.39812386 -0.063188076 0.28291368 -0.23887502 -0.24763653
0.053664945 0.29675782 0.15113018 -0.12334522 -0.1274474 0.21914011 -0.0116932355 0.33394822
-0.13358317 0.40186238 -0.2581592 -0.012679327 -0.0030770483 -0.121030755 -0.22881705 -0.4155531
-0.27391395 -0.18426152 -0.17257388 -0.29191682 -0.37472463 0.35900235 0.12908044 -0.07489498
0.010167861 -0.0034096418 0.31677648 0.43220988 0.4112216 -0.31947535 0.13390477 0.06651626
-0.1942773 0.17023809 -0.051852178 -0.0113170035 -0.14693432 0.14479764 -0.13850099 0.08892302
-0.1998169 -0.017378755 -0.047702037 0.07870385 -0.24355961 0.26349318 -0.29300553 0.083206296
-0.31166628 0.45381472 -0.17985621 0.27263084 -0.18911408 -0.051098127 -0.1683972 0.11426498
0.13988653 -0.068401314 0.02418093 -0.03452264 -0.1688326 0.093653075 -0.28506044 0.25857228
-0.32475075 -0.05210326 -0.25404996 -0.30992237 0.3150488 -0.33638614 0.09795087 0.015613269
0.5279169 0.117312305 0.14106956 -0.08140904 0.3506948 0.041216116 0.04022057 0.13974257
0.27366847 0.13054031 0.09500474 -0.4195185 0.009342731 -0.080296874 0.30276647 -0.28534767
0.18796836 -0.20914067 -0.21632922 0.20635507 -0.32909855 0.18811095 0.016982406 -0.18587351
-0.064465605 -0.014152774 0.0571993 -0.15514491 0.20330398 -0.18189186 0.058005244 -0.03210785
0.040002536 0.39689574 -0.09554399 0.17856038 -0.06689658 -0.1435066 -0.14687353 -0.20198843
0.26458782 0.2648855 -0.18530016 -0.21114892 -0.1982659 -0.15431449 -0.29863527 0.073860615
-0.027651174 0.12188351 0.28739253 0.39319518 -0.34991115 -0.10309661 -0.2878251 0.31863397
-0.14926781 0.062546685 0.062376376 -0.47970107 0.3547963 0.33937028 0.090307705 0.07244445

sequential/dense_3/BiasAdd/ReadVariableOp:0 f4 [32]
00000000: 977c 1cbe d78e 103e 7561 8bbc b224 933e
00000010: 3f22 96bd 04c9 56bc 4369 eabd 44f4 93bd
00000020: f394 fabd 1e61 943e 12b9 713d c279 a33d
00000030: a00e 3237 a4f8 54be 5d1a 2bbe 5a48 8bbb
00000040: 6377 253e eb82 2b3e de80 b33d 593c 8f3e
00000050: e0f0 d73b 9893 27be 0d22 5dbb 7abf 353e
00000060: 825f 573e 95dc 523e 4121 b13e 8160 1dbd
00000070: cdca f2bc fc22 70bd f0d8 333e 7613 e5bd
-0.15281902 0.14116989 -0.017014245 0.28738934 -0.07330751 -0.013109449 -0.11445858 -0.07224324
-0.12235441 0.28980345 0.059014387 0.07982208 1.0613032e-05 -0.20797974 -0.16709276 -0.0042505683
0.16158824 0.1674916 0.08764814 0.2797573 0.006589994 -0.16364896 -0.003374222 0.17748824
0.21032527 0.20591958 0.34595683 -0.03842211 -0.029637719 -0.058627114 0.17563224 -0.111853525

sequential/dense_2/MatMul/ReadVariableOp:0 f4 [32, 64]
00000000: 01d1 153e fbf9 853d 66c1 2d3e c15c 803d
00000010: bbdb 88be c4c7 a7be 385b b73e 00ad 80be
00000020: 9ff1 ae3e 3837 4ebc d3ba 02be 28ec 9ebe
00000030: 558c 573c a778 c2bd bbe7 6dbe 228e b2bb
00000040: 6d3d 87be b489 93bd 9ae8 8cbe 190a 9cbe
00000050: 723f 7e3e 5805 8dbe 68b2 c93d f1a9 88be
00000060: 37c7 35be f908 98be d7af f6bd 158c 00bd
00000070: 07fe a93e b593 59be 5281 7e3d f564 643e
00000080: bbde 0b3e e037 913e ad90 1d3e e1d0 273e
00000090: 3e10 0b3e cfd4 d53d 1293 4ebe fd9e c23c
000000a0: 08f2 e4bd faed f7bd 2af0 82be d309 1b3e
000000b0: 8681 6bbe 0e0d b2be facf 8abe 6d4a 83be
000000c0: b989 7abe 7eb7 ae3d 6ddb 03bf 0488 8ebd
000000d0: ae3d f4bd ab65 c93e 47c7 7c3d 7c4e 93be
000000e0: 8ba9 883e e42a a13e 62b5 bd3d 9162 46be
000000f0: cba8 9cbe 43a8 1abe a610 dabd 418a 293d
00000100: eec6 c23b 6aa3 51bd 5922 c23e cd4d 83be
00000110: 2296 003e d38f a2be 0628 873e ba12 183e
00000120: 60f4 2cbd 923f eb3d c140 dc3d 2b45 89bd
00000130: 058c acbd 1e09 58be 7e5d e3be fa70 a43c
00000140: a9d4 7b3e ee6c 80be a189 8d3e 814d 863a
00000150: 277a 9e3e 9331 ee3c a897 a43d 1c17 0a3d
00000160: 4a6d 5c3e 4d3a 8d3d 749d 8bbe 8cc6 913d
00000170: 01ae af3e 0c0c 2cbe ffa6 70be 3635 3dbe
00000180: bba8 9b3e 194a 28be 2152 34be 52f2 3cbd
00000190: b9c9 91bb 92d4 7e3d 5691 79be ac18 523e
000001a0: 9a3d 233e b4f9 69be 4d10 dbbe 7e5a 15be
000001b0: 08c1 2fbe 7690 d13b b8c7 bdbe 23ad 763e
000001c0: bb77 983e f735 f03d 7b64 45be e2ae 1d3d
000001d0: b4f9 77be 537a d23d 821c 00bd e434 883e
000001e0: f3ca 1abe b61a 09be d186 a23e e044 5c3e
000001f0: 59f8 e0be 7806 0f3d 9829 d0be e276 773e
00000200: e2d8 09be 101c 8fbe e9d1 de3e ee1c 7bbe
00000210: 27a8 2abe bf9d f7bd a496 833e a6fb 05be
00000220: 7ff1 523e f96e 4d3e b4dc 12be b456 a8be
00000230: 3f2a 54be 1cf5 e43d f07f 833d 37ab ac3d
00000240: fea2 323d 2c47 b0be 06b3 213e 20f0 22bc
00000250: d551 80bd 9a32 0e3c fd9d c4bd 41b1 2abe
00000260: 2078 293d a836 663e bb41 35bd 37df 343d
00000270: c3c8 dd3c 727d 133e 9f66 5abe e290 003e
00000280: dab7 363e 7759 1a3e f442 15bc 2bf1 803e
00000290: 5db9 0fbe 45a0 37be e18d 823e 21a0 de3e
000002a0: d60e 45bc 35f1 33bd 9475 8ebd d1e5 1b3e
000002b0: c38d 0f3e 975a 2c3d 1372 413c dda9 d2bd
000002c0: fdf6 dabd 4d1d d4bd 6389 f23c 35d3 e93d
000002d0: b8f3 86be bbd8 bdbd 5ca4 e23d 178d 06be
000002e0: cec6 9d3d ca0e c33e a71d bd3d 7800 36be
000002f0: 6036 84be a572 b3be 4b54 aebe 9f0f 223e
00000300: 1683 4c3e 68a2 37bb 2712 b9bb 65da 933e
00000310: aaef ed3e c96b 0abe 12fd 003b b3f5 413e
00000320: 0c9a 04bd 18a1 f83d 441f 743e e85a c13e
00000330: 60a6 293e 812f 08be 8617 0f3e 62f7 c6be
00000340: 2983 91bd 12ac 7ebd 62ce b43c 9008 cd3c
00000350: b323 78bd 3b6a 2dbd 8d1d b13d 3d07 c93c
00000360: ee0d 8f3e 29a5 2ebe 0bad 44be 1337 8a3e
00000370: 53e1 2dbc e444 83bd 0bed e73d 70ca 2dbe
00000380: a9c1 9fbd d868 e33d 93a4 613d f206 d8be
00000390: 4a01 d3bd 5d5b 813d 94fb db3d bbaf 1f3e
000003a0: 7a70 4dbe 9dae 91be 7e0c 91be c2bf b13e
000003b0: e40a 7abe 1163 1e3e 88f6 1fbe 058d 81be
000003c0: 8c20 933b b77e 10be 4241 9bbe 9912 d3be
000003d0: 140f ae3c ecb3 9abe afa1 0cbe a731 373e
000003e0: 7584 2a3b 44d2 c93d 45c1 b93e 23bc e3bd
000003f0: ae04 aabe eb66 9a3e 7d80 df3d 69a4 4e3e
0.1463051 0.065418206 0.16968307 0.062676914 -0.2673014 -0.32769597 0.35811782 -0.2513199
0.34168717 -0.012586407 -0.1276658 -0.31039548 0.013156016 -0.09495669 -0.2323293 -0.0054490725
-0.26414052 -0.07203999 -0.2752121 -0.30476454 0.2482889 -0.2754314 0.098484814 -0.26692155
-0.17751776 -0.29694346 -0.120452575 -0.031383593 0.3320162 -0.21247752 0.06213505 0.22304137
0.13659184 0.28362942 0.1538722 0.16388275 0.13580415 0.10440981 -0.2017329 0.023757452
-0.11178976 -0.12105937 -0.25573856 0.15140466 -0.22998628 -0.34775585 -0.271118 -0.2564272
-0.244666 0.08531092 -0.5150669 -0.06959537 -0.11925827 0.3933538 0.061713483 -0.28770816
0.2669185 0.31478035 0.09263112 -0.19373538 -0.3059753 -0.15103249 -0.10647707 0.041391615
0.0059441244 -0.051181234 0.3791683 -0.25645295 0.12557271 -0.31750354 0.26397723 0.14850894
-0.04222524 0.114867344 0.10754538 -0.06702646 -0.08425144 -0.21097228 -0.44407266 0.020073403
0.24592842 -0.25083107 0.27644065 0.0010246487 0.3095257 0.029076373 0.08036739 0.033713445
0.21526065 0.068958856 -0.27268565 0.07117948 0.34312442 -0.1680147 -0.23501204 -0.1847733
0.3040217 -0.16434516 -0.17609455 -0.046129532 -0.004449096 0.06221444 -0.24371848 0.20517224
0.15941468 -0.2284916 -0.42785874 -0.14585301 -0.1716348 0.006395395 -0.37066436 0.24089484
0.29778847 0.11729043 -0.19276612 0.03849686 -0.24216348 0.10277238 -0.031277187 0.26602852
-0.15116481 -0.13389096 0.31743482 0.21510649 -0.43939474 0.03491828 -0.40656734 0.24166444
-0.1346164 -0.27951097 0.43519524 -0.24522755 -0.16665708 -0.120906346 0.25700867 -0.13084278
0.20599936 0.20061864 -0.14342004 -0.3287865 -0.2071924 0.111795634 0.064208865 0.08431094
0.043612473 -0.344293 0.15790948 -0.009944946 -0.06265608 0.008679057 -0.096004464 -0.1666918
0.041374326 0.22481787 -0.04425214 0.044158187 0.02707327 0.14403322 -0.2132821 0.12555268
0.17843571 0.1507319 -0.009110201 0.25183997 -0.14035554 -0.17932232 0.2549887 0.43481544
-0.012027463 -0.043931205 -0.0695602 0.15224387 0.14018922 0.04207858 0.011806983 -0.10286305
-0.106916405 -0.10357151 0.029606527 0.11417238 -0.26357818 -0.09269854 0.11066505 -0.13139759
0.077039346 0.3809722 0.09234171 -0.17773616 -0.25822735 -0.35048404 -0.34048685 0.15826271
0.1997188 -0.0028020386 -0.005647916 0.2887756 0.46471912 -0.1351768 0.0019682092 0.18941383
-0.032373473 0.12140101 0.23840052 0.37764668 0.16567373 -0.13299371 0.13973817 -0.38860613
-0.07105095 -0.062175818 0.022071067 0.025028497 -0.06058092 -0.042337637 0.086482145 0.024539584
0.27940315 -0.17055191 -0.19206636 0.26995143 -0.0106128035 -0.06409624 0.11324509 -0.16971755
-0.078006096 0.11103982 0.05508859 -0.421928 -0.1030298 0.06316254 0.10741344 0.1559438
-0.20062438 -0.28453532 -0.28329843 0.34716612 -0.24418217 0.15467478 -0.15621388 -0.25302902
0.004489964 -0.14110838 -0.30323225 -0.41225126 0.021247424 -0.30215394 -0.13733552 0.17890035
0.0026018892 0.09854558 0.36280265 -0.111198686 -0.33206695 0.30156645 0.10913179 0.20179905

sequential/dense_2/BiasAdd/ReadVariableOp:0 f4 [64]
00000000: d30c 4e3e 99f7 aeba e008 063e 45b9 7d3d
00000010: 2782 c33d 6edb 203d 0225 fdbd b42d 6f3e
00000020: 838c 90bc 576f dfbd f9bc c1be 2443 083e
00000030: 8f3f 0c3e f185 093e 9e1d b5bd 23d2 e8bc
00000040: cbbe 81bc 02c0 a93d 7ea9 7c3e 821c 143e
00000050: 4855 903c cbf9 213d 53a5 233e f160 e8bd
00000060: f991 293d 2395 c93d bf24 94bc 98f2 893e
00000070: 8557 1b3c ab02 4e3e c0de 9b3d 2708 ccbd
00000080: 5989 3e3e 6bad e6bd 14a7 133e db20 f0bd
00000090: a5a4 f53c 7287 9e3c 40a9 c2bd 2ecb 2d3e
000000a0: f3aa 03bd fa90 c2bc 0935 a2bd a3ee 3c3e
000000b0: 3e01 583c 105e 4cb9 28c0 483a 18d3 e83d
000000c0: 2ab4 313e cf55 cebd 4a73 17be acba dcbd
000000d0: 2801 3fbb 3c5e 88be 9880 ed3b a004 aa3e
000000e0: b98c 6e3e d363 2cbe 58eb ea3d d6a8 9b3d
000000f0: 16ee 9fbd 497b 8dbc 3f1c 23bc 4a65 c13d
0.2012208 -0.0013348936 0.13089323 0.061944265 0.09546309 0.039271764 -0.12360574 0.23357278
-0.017645126 -0.10909908 -0.37839487 0.13306862 0.1369612 0.13430001 -0.0884354 -0.028420513
-0.015838047 0.08288576 0.24674031 0.14464 0.01761879 0.03954486 0.15981035 -0.11346615
0.041398976 0.09842899 -0.018083928 0.26942897 0.0094813155 0.20118205 0.076108456 -0.099624924
0.18607081 -0.112635456 0.14419204 -0.11725017 0.029985735 0.019351695 -0.09504938 0.16972038
-0.03214545 -0.02375077 -0.07920272 0.18450408 0.01318389 -0.00019489997 0.0007658028 0.11368388
0.17353883 -0.100749604 -0.14790073 -0.10777792 -0.0029144976 -0.26634395 0.0072479956 0.33206654
0.23295869 -0.16834955 0.114706695 0.07600562 -0.07809083 -0.017270701 -0.009955465 0.094431475

sequential/dense_1/MatMul/ReadVariableOp:0 f4 [5, 32]
00000000: d9dc 90be 033f 993d 5997 52be 7293 9e3d
00000010: 9289 9a3e fcf2 c73c 9820 7c3e 9f9f 96be
00000020: 016b b93e 62c1 7f3e 3be4 a0be 60e3 ca3e
00000030: 527a d1be 4fa9 30be 3879 edbd 5b97 ffbe
00000040: 47de bfbe 3eea 2ebe c666 af3e b2ad 013f
00000050: 0625 463e 1fd3 f33e d7c7 dfbe f1c0 db3e
00000060: 4f61 e6bc 296b d2bd c3db 01bf 9bb3 e3be
00000070: ab3e bf3e df6b 103f cd73 f73d cc81 7c3e
00000080: 26f1 a83d 6fa5 f43e ffc2 a23e 3907 e33e
00000090: 0a35 eabc 85ba aa3e 6fd2 b63e 51d9 edbe
000000a0: e7cf 49be 6f2e cbbe a1e3 be3e 120c 1b3d
000000b0: ba46 26bf a050 8e3e 4b14 e93e b599 f73c
000000c0: 1204 2ebe ea6f 67be 64e9 efbe e8df d2be
000000d0: 0821 8ebe f606 243e f491 94be 143e d53e
000000e0: c9a3 cb3e 6c72 353e 93e6 a2bc 4e1c f33d
000000f0: cda2 d63e 97b9 48be 2952 d43d 6623 f43e
00000100: ff66 213f 23eb ba3e 1874 f03e ac47 95be
00000110: 2c11 04bc 9d3d b7be 6ae1 0fbe a6f1 b93e
00000120: c8d0 c93e 5b7b e63e 73c2 633e 4ed8 ccbe
00000130: f21f 333f a51a 6abd be96 483e 3ed9 dabe
00000140: f581 763d 725d d7be bceb 383e b1f5 163d
00000150: 5b8c 9e3d e44e c33e 98b5 b8be dfe1 ee3e
00000160: 3d6d a2be 7abd 0fbf 4f35 193f 1afc 6f3e
00000170: 12ff 013f 188e c5be ea2a e93e 2291 3e3e
00000180: 0504 833e 4913 7abe 5161 22bd ed3b 3c3c
00000190: f384 e0be cd31 89be 336a 433e d60b 8f3e
000001a0: b338 3abe d946 01bf 095c 8c3e cfa3 85be
000001b0: 68f3 eabe 2059 093d 4595 4ebe 81a9 bfbe
000001c0: c497 a23e 0767 88be 923e ac3d 4908 a3be
000001d0: df38 363f f529 b13e 416d 0bbf 7e9f 8dbe
000001e0: 62bd e1be e91d 2a3f a30f 11be 71e6 f43e
000001f0: 2f3d b2be a293 31bc 7881 dc3e e2d3 143f
00000200: 5130 08bf fea8 eebe 32d6 a23d 1b9f febe
00000210: d17b fb3e a451 f23d eddd ddbe c7ff 51be
00000220: d365 113f 840a 933d 6b46 813e d631 003f
00000230: de76 19be 94a3 033f 32cd 02be 50c6 533e
00000240: 4b73 0f3f e19c 643e 3ee4 a5be c212 07bf
00000250: 5ac8 013f 4b6c ef3e cdef d4be 9ccd 68bc
00000260: a644 813e 4b6f bcbe 5ffe 06bf 8738 fa3e
00000270: f06e f93e 0865 81be 06f3 f2be fe2e c6be
-0.28293493 0.07482722 -0.20565547 0.07742967 0.30183083 0.024407856 0.24621809 -0.29418656
0.3621445 0.24976113 -0.31424126 0.39626598 -0.40913635 -0.17252086 -0.11595386 -0.49920163
-0.37474272 -0.17081544 0.34258097 0.50655663 0.19350061 0.4762201 -0.43707153 0.4292064
-0.028122572 -0.102743454 -0.50725955 -0.44472966 0.373525 0.564146 0.12082634 0.24658889
0.082491204 0.47782466 0.31789395 0.44341448 -0.028589744 0.33345428 0.35707423 -0.46454862
-0.19708215 -0.39683864 0.37283042 0.037853308 -0.6495167 0.27795887 0.45523295 0.03022466
-0.1699374 -0.22601286 -0.4685775 -0.41186452 -0.27759576 0.1601828 -0.29017603 0.41648924
0.39773396 0.1771943 -0.019885337 0.11870633 0.41921082 -0.19602047 0.10367233 0.47683257
0.63047785 0.3650752 0.46963573 -0.29156244 -0.008060735 -0.35789195 -0.14050832 0.36317176
0.394171 0.45015988 0.22242145 -0.40008777 0.6997062 -0.057154316 0.19588754 -0.42743868
0.06018253 -0.4206348 0.18058676 0.036855403 0.077416144 0.38146126 -0.36076045 0.466567
-0.31723967 -0.56148493 0.5984697 0.23436013 0.5077983 -0.3858497 0.45540553 0.18610051
0.25589004 -0.24421419 -0.03964359 0.011488897 -0.43851432 -0.26795807 0.1908348 0.27938718
-0.18185692 -0.5049873 0.27413967 -0.2610154 -0.4588883 0.03353226 -0.2017413 -0.3743401
0.31756413 -0.26641104 0.08410372 -0.3184226 0.7118053 0.34602323 -0.54463583 -0.27660745
-0.440898 0.6645189 -0.14166121 0.47832063 -0.34812304 -0.010838421 0.43067527 0.5813581
-0.53198725 -0.46613306 0.07951011 -0.49730763 0.49117902 0.11831978 -0.43333378 -0.20507728
0.56795996 0.0717974 0.25249037 0.50076044 -0.1498675 0.51421475 -0.12773588 0.20681119
0.560353 0.2232547 -0.32400697 -0.52763 0.5069634 0.46762308 -0.41589203 -0.014209177
0.25247687 -0.3680366 -0.5273189 0.48871252 0.4871745 -0.25272393 -0.47451037 -0.38707727

sequential/dense_1/BiasAdd/ReadVariableOp:0 f4 [32]
00000000: fd32 70bd 2c8f bf3d 9e5a 58bd ab84 1b3e
00000010: 000a eebb 833b 0b3d e8db 2ebe 2b22 91bd
00000020: 13b1 e93c 5565 8a3e 5a9d 5cbd 8a16 50bd
00000030: dda1 563d 4136 1f3e c810 813c 011c 82bd
00000040: cd1e aa3d 9dfe 8e3d c01d 8dbd 615f 2cbd
00000050: 9d40 7fbd b4fe e9bc 7b6f 84bc 92ec 60bd
00000060: fd7b 28bd 6dac 7dbd c295 63bc 7fc7 013e
00000070: 8d3a f0bd b312 b53d b9a0 9f3d c4dd c53d
-0.058642376 0.0935348 -0.052820794 0.15187328 -0.0072643757 0.0339923 -0.17076075 -0.07086595
0.028526818 0.27030435 -0.053861 -0.050802745 0.05240046 0.1554804 0.015755072 -0.063529976
0.08306656 0.069821574 -0.0689044 -0.042083148 -0.06231748 -0.028563835 -0.01616644 -0.05491311
-0.04113387 -0.061932016 -0.0138906855 0.12673758 -0.11729918 0.08841457 0.07794327 0.09661439

sequential/dense/MatMul/ReadVariableOp:0 f4 [784, 5]
00000000: 3527 15bd 98d3 333d 58fb 7e3c ce34 10bd
00000010: ece8 763d 7c3b 5f3d 601f 67bb c806 373d
00000020: 00b0 24bd 7ece a23d b4b5 7f3d 2322 a6bd
00000030: a805 ecbc 70a0 263d befa ccbc c81b cb3c
00000040: ea5a 0e3d 2d00 22bd 704d 323d 00e4 603d
00000050: 37ce 56bd 34c8 6bbd d48d cf3c 01c6 3ebd
00000060: da95 8abd 68f4 433d 0026 a9bc acfd 8e3d
00000070: 57b2 8ebd 627f 163d 84d0 aebc cc68 3b3d
00000080: 0825 813d 7df9 2dbd c2f4 ad3d 608e f53c
00000090: 7089 17bd 409c c8bb 7049 903b c4a3 78bd
000000a0: 0873 a0bc fca6 73bd 446c b53c 7c8f 733d
000000b0: 9a15 afbd 1459 4d3d cdca 3ebd b196 7bbd
000000c0: 6ec8 973d fc0a 713d b1ca 95bd 5a9f 8e3d
000000d0: 6cd6 7b3d 6c79 513d dea5 47bd a0c3 c63b
000000e0: a8db ef3c 50eb e53b 86f1 11bd 08ed 033c
000000f0: 168a 83ba 686f 9ebd c75d 92bd 79ce b9bd
00000100: b255 47bd 3987 a2bd 7d1a 04be 991b 1abd
00000110: f801 2a3d df1c 043b 14eb 273d a3fd 86bd
00000120: 1afc 4f3d 4ec4 cf3d 42b9 0dbd 68e5 65bd
00000130: eab6 0ebe 2868 a63d f00e 49bb 3ea0 b9bd
00000140: 280f 60bd 2002 73bc fe6f 8b3d 8c88 86bd
00000150: b007 ce3b e059 0b3b 3c46 53bd c4b2 e8bc
00000160: 5cbf 8a3d 4861 4c3d 1425 98bc 2455 953d
00000170: f8aa 5b3d f49c 4ebd ae2b 31bd 50ed 57bd
00000180: a297 103d 5006 fcbb 38e8 3a3c 1ff3 1dbd
00000190: dbae abbd d89b 723d a0a5 6b3d e41c 793d
000001a0: 6818 193c 6890 a03d 6b1d 8dbd 54ee cb3c
000001b0: 9017 5fbc 28dc a73c a5b8 53bd 20c5 8dbb
000001c0: 12d1 7dbd 386d 1a3c 9a1e 31bd 9b18 89bd
000001d0: f2d5 883d ef24 99bd dfed acbd a11d 02bd
000001e0: cef1 55bd 80ca 3bbc 20f3 f23c 28b0 fd3c
000001f0: 7ee5 9fbd 5831 96bd 952a 69bd 770c 68bd
00000200: 010a 56bd 98a8 973d 8091 903a ec93 483d
00000210: ee27 21bd a043 d6bc 4c5f c6bc 500c 283d
00000220: 2cbb 683d 5860 263c c0d6 2b3c 0a71 42bd
00000230: 0e2c 58bd cc63 d63c cc1a 883d c001 fa3b
00000240: 0465 e93c 9c6b 0bbd 342f 363d 5cfd ac3c
00000250: ef98 93bd 48da 413d 82bb 163d b480 83bd
00000260: 508d a83b 5973 3dbd 3470 f1bc 44a9 003d
00000270: 9ec5 7abd 8c51 463d 146b 9b3d 5221 70bd
00000280: 5533 febd 49fc 083c 433e 23ba 6da3 6dbd
00000290: 0c6a 003d 09f9 5ebe 0cfd 00be 20d7 d6bd
000002a0: 233c 97bd 6c35 843d 0822 96be 443e 30be
000002b0: dfce 11be 8e2e 19be 96be d83b 2b3e 69be
000002c0: 9cc2 96bd 08ec 98bd 4cc0 c9bd 2183 f3bc
000002d0: 7dd7 0abe 7203 69be dcf1 21be f98a 55be
000002e0: 5d84 873d 196d e2bb b6c8 8bbe a3ad 5bbe
000002f0: 0cb8 a7bd e938 f8bb e880 24be a8ed 05be
00000300: 9a13 babe 75c0 3fbe 8947 8c3d eee3 05be
00000310: 8b10 283e d1a3 20be 578d 86be 2483 7abe
00000320: a678 19be 5865 023d d109 aebd f802 9dbe
00000330: 66d3 06be 5ba8 083e 5ab8 283d f618 ccbc
00000340: f0d6 e6bd 23cc 24be 6aba 36be 64ae 3fbe
00000350: 9431 6e3e c3ac 703d c826 9cbd d905 eabd
00000360: e806 8cbe 5e65 683e e015 00bd c33e d0bd
00000370: e14c b13c 8458 90be 7cd3 af3b 9e2f 033c
00000380: fff6 aebe 9b3e 1c3e de47 3bbe 1160 4abe
00000390: c716 99bd d9c8 57be 0a5f 1cbe e945 8bbe
000003a0: 6391 b7be 71fa 72be 31be 1b3c 92c0 bbbd
000003b0: e36a 0abe 1e64 2dbe c84d 77be 2cea b53b
000003c0: 77dd 623d dc9a 82be fa13 8bbe e4b6 69be
000003d0: a189 933d c03d 843d b20f 05be 1208 0bbe
000003e0: 8ce6 18bd 0335 5e3d 92d4 1d3e ffb8 4fbe
000003f0: f8b5 5abe ad88 a9bd 9bb9 ec3d ab3b f33c
-0.036414344 0.043902963 0.015562855 -0.03520661 0.060280725 0.054500088 -0.0035266504 0.0446842
-0.04020691 0.079495415 0.062429145 -0.0811198 -0.02881129 0.04068035 -0.025021907 0.02479352
0.03475467 -0.03955095 0.04353088 0.054904938 -0.052442756 -0.057563975 0.025336184 -0.04657555
-0.06766863 0.047840506 -0.020648003 0.06981978 -0.069676094 0.036742575 -0.021339662 0.04575424
0.06305891 -0.04247426 0.084939495 0.029975116 -0.036996305 -0.006122142 0.0044032857 -0.060703054
-0.019586101 -0.05948542 0.022146352 0.05946301 -0.08549042 0.05013378 -0.046580125 -0.061423007
0.07411276 0.058848366 -0.07314051 0.06963988 0.061483786 0.051141188 -0.048742168 0.006065801
0.029279545 0.007016577 -0.035630725 0.008052118 -0.001003566 -0.07736093 -0.07146793 -0.09072585
-0.04866571 -0.07935948 -0.1290073 -0.037623975 0.041505784 0.002015881 0.040995672 -0.06591346
0.050777532 0.10144864 -0.034600504 -0.056126982 -0.13936964 0.08125335 -0.003067907 -0.09063767
-0.054701954 -0.01483205 0.0680847 -0.06569013 0.0062875375 0.0021263286 -0.051580653 -0.028405555
0.0677478 0.049897462 -0.018572368 0.0729163 0.053629845 -0.05044265 -0.043254547 -0.052716553
0.03530086 -0.007691182 0.011407904 -0.038561936 -0.083829604 0.059230655 0.057531 0.060818568
0.009344198 0.07840043 -0.06890377 0.024893917 -0.013616458 0.02049072 -0.051689763 -0.0043264776
-0.061966963 0.009425454 -0.043242075 -0.06694146 0.06681432 -0.07477748 -0.08443808 -0.031766538
-0.052232556 -0.011461854 0.029656947 0.030967787 -0.07807444 -0.0733363 -0.056925375 -0.056652512
-0.052255634 0.074052036 0.001102969 0.048969194 -0.03934472 -0.026155293 -0.024215363 0.041027367
0.056819126 0.010154806 0.010488212 -0.047471084 -0.05277639 0.026170634 0.06645736 0.007629603
0.02849055 -0.03403817 0.04447861 0.021116905 -0.07206904 0.04732731 0.036799915 -0.064210325
0.005143799 -0.046252582 -0.029472448 0.031411424 -0.06122362 0.048417613 0.07588783 -0.058625527
-0.124121346 0.008360931 -0.0006227234 -0.058017183 0.031351134 -0.21774687 -0.1259653 -0.104902506
-0.07384517 0.06455502 -0.2932284 -0.17211252 -0.14239071 -0.14959165 0.0066145165 -0.22777621
-0.073613375 -0.074668944 -0.09851131 -0.029725613 -0.13558765 -0.2275522 -0.15814918 -0.20853795
0.06617043 -0.006909978 -0.27301568 -0.21452956 -0.08189401 -0.0075751436 -0.16064799 -0.1307894
-0.3634308 -0.1872576 0.06849582 -0.1307523 0.1641256 -0.15687491 -0.2627971 -0.24464089
-0.1498743 0.03183493 -0.08497966 -0.30666327 -0.1316658 0.13345473 0.041191436 -0.024914246
-0.11271465 -0.16093497 -0.17844549 -0.18718868 0.232611 0.05875851 -0.076245844 -0.114268966
-0.2734902 0.22694919 -0.03127086 -0.10168221 0.021643104 -0.28192532 0.005365787 0.008006958
-0.34172818 0.15258257 -0.18289134 -0.19763209 -0.074750476 -0.21072711 -0.1527063 -0.27201775
-0.3585311 -0.23728348 0.009505794 -0.09167589 -0.13517337 -0.16932723 -0.24150765 0.005551597
0.055386987 -0.25508773 -0.27163678 -0.22823673 0.07203985 0.064570904 -0.12994269 -0.13577297
-0.03732924 0.054249775 0.1541312 -0.20285414 -0.21358478 -0.08278022 0.11558839 0.029691538

sequential/dense/BiasAdd/ReadVariableOp:0 f4 [5]
00000000: 7b55 0d3c 90fd 863e 3449 02be 8466 c1bd
00000010: e9fc 233e
0.008626337 0.26365328 -0.12723237 -0.094433814 0.16014446
