models/mnist/fp32/mnist_sigmoid_fp32-opt.onnx (onnx, 30441 bytes, 8 tensors)

StatefulPartitionedCall/sequential/dense_3/MatMul/ReadVariableOp:0 f4 [64, 10]
-0.16051441 -0.50074327 0.124760486 0.048146207 0.39955753 -0.3386583 0.27902797 -0.3892651
-0.38782436 0.028841624 -0.058219768 0.24610187 0.354539 0.25597292 -0.35445714 0.38856974
0.29754952 -0.54135203 -0.14055581 -0.5317855 0.3062254 -0.86248237 -0.17289957 -0.11803331
0.31703964 0.39329606 0.1846588 0.19217737 0.45663324 0.19742411 -0.34849706 1.0447441
0.39564642 -0.10418542 -0.28305355 -0.2784916 -0.2797075 0.4653206 -0.13344158 -0.58727485
0.18039618 0.44768453 0.062340073 0.39315736 -0.52563965 0.38367277 -0.09373638 -0.2630218
0.51931006 -0.26361188 -1.1304805 0.55266637 0.05724324 0.46564272 -0.24944721 -0.23536223
0.15124252 -0.5460075 0.44199002 0.35069036 -0.61022794 -0.4433412 -0.0111059 0.27009544
0.42086244 -0.3621944 -0.44912094 0.4233803 0.08371454 0.27243814 -1.0088875 0.5178867
-0.60300606 -0.6711967 0.5114382 0.13896593 0.42281812 -0.56844014 0.4861199 0.52477974
-0.22152257 -0.4278902 0.39999533 -0.3115326 0.65558064 -0.7229415 -0.71147954 0.55408317
-0.6268954 0.5317402 -0.40051132 0.5183727 0.43945795 -0.4695178 0.43882155 -0.34540993
0.16815898 -0.45176533 0.3867741 -0.49379885 -0.77563584 0.16132216 0.09788715 -0.25435838
0.5514841 -0.3314288 -0.7740815 0.649818 -0.74392444 0.5315924 0.1854796 0.30295148
-0.19240814 -0.0700311 -0.7036728 0.5588163 0.24689075 -0.76863194 0.34987167 -0.12771432
-0.27975747 0.5776934 0.5661711 -0.21417843 0.19572234 -0.4323662 0.50917566 0.28840742
-0.30939218 -0.39519793 0.25690302 0.42010078 0.3044345 0.50782335 -0.59091187 0.28511122
0.5126763 -0.8568086 0.4324034 -0.7326451 0.32495177 -0.73684293 0.47669622 -0.40811965
0.61829185 -0.4184795 0.7192118 -0.33536503 -0.535106 -0.2858515 -0.57569146 0.47411957
0.4933829 -0.07869427 0.37121552 -0.39038607 0.2128506 -0.4754661 0.288712 0.11641949
0.302729 -1.1097084 0.29046407 -0.5415982 0.48072115 0.21563745 0.8821809 -0.29104185
-0.5672031 -0.38298422 0.3231875 -0.08231281 0.089972705 0.4893694 -0.7789897 -0.2623105
-0.69759166 0.104113676 0.24752921 0.026149297 0.45673162 0.1458687 -0.07505571 -0.03483001
-0.46405408 -0.11310382 -0.012675008 0.36897898 0.21570297 -0.5486499 -0.52505916 0.9960854
0.33947653 0.29536587 -0.24923459 -0.63556325 -0.7934683 0.029936284 0.39590025 -0.6563537
0.28345364 0.32393143 0.16035876 0.33659223 -0.2128692 0.48638278 0.6150618 -0.9780053
0.23725559 -0.7669942 0.07891524 0.8779544 0.26951852 -0.021597212 -0.60501534 -0.31420442
0.32845882 -0.042930786 -0.61732525 -0.64602053 -0.7937593 0.3754918 -0.9819382 -0.4208638
0.21565382 0.42698425 -0.1464397 0.2688419 0.3126811 0.36629966 0.2610114 -1.1868154
-0.07378715 -0.35721314 0.3811937 0.028768001 0.44680503 -0.31227678 -0.06713668 0.06330975
-0.6320806 0.3480723 0.05229361 0.53670263 -0.40968978 -0.3040006 -1.1351998 0.31339228
0.29104805 0.23372784 -0.10741878 0.39691725 -0.23333324 0.069777146 -0.91226727 -0.036694884
00000000: e45d 24be b630 00bf 6d82 ff3d f534 453d
00000010: ce92 cc3e 9f64 adbe c1dc 8e3e c14d c7be
00000020: ea90 c6be 4545 ec3c da77 6ebd 2102 7c3e
00000030: 2386 b53e e20e 833e 687b b5be 9df2 c63e
00000040: 6958 983e 0c96 0abf dded 0fbe 1823 08bf
00000050: 93c9 9c3e a5cb 5cbf 960c 31be 73bb f1bd
00000060: 0553 a23e 1a5e c93e 3217 3d3e 25ca 443e
00000070: d5cb e93e 8c29 4a3e 356e b2be 2dba 853f
00000080: 2b92 ca3e 2a5f d5bd 65ec 90be 7396 8ebe
00000090: d235 8fbe 803e ee3e e9a4 08be a557 16bf
000000a0: c7b9 383e e836 e53e 4e58 7f3d ec4b c93e
000000b0: 5290 06bf c270 c43e dcf8 bfbd cbaa 86be
000000c0: 81f1 043f 23f8 86be 96b3 90bf 8b7b 0d3f
000000d0: e377 6a3d b968 ee3e 176f 7fbe cc02 71be
000000e0: 52df 1a3e 26c7 0bbf 844c e23e b08d b33e
000000f0: e637 1cbf 9efd e2be 85f5 35bc f349 8a3e
00000100: 487b d73e 8b71 b9be 2ef3 e5be 4dc5 d83e
00000110: 8772 ab3d 037d 8b3e 3a23 81bf 3994 043f
00000120: 9b5e 1abf 8cd3 2bbf 9ded 023f 164d 0e3e
00000130: 9e7b d83e 4b85 11bf b5e4 f83e f757 063f
00000140: d0d6 62be 6d14 dbbe 30cc cc3e 3381 9fbe
00000150: 22d4 273f b212 39bf 8623 36bf 65d8 0d3f
00000160: 387c 20bf 2020 083f d20f cdbe 13b4 043f
00000170: a200 e13e a364 f0be 38ad e03e 92d9 b0be
00000180: de31 2c3e c94d e7be 4107 c63e 34d3 fcbe
00000190: 1290 46bf a331 253e 0f79 c83d 433b 82be
000001a0: 102e 0d3f 09b1 a9be 352a 46bf 795a 263f
000001b0: d571 3ebf 7116 083f 5dee 3d3e 751c 9b3e
000001c0: a406 45be 776c 8fbd e723 34bf 960e 0f3f
000001d0: eed0 7c3e 10c5 44bf 6122 b33e 8bc7 02be
000001e0: 5f3c 8fbe b7e3 133f 97f0 103f 9751 5bbe
000001f0: 706b 483e 1a5f ddbe 5659 023f 23aa 933e
00000200: a768 9ebe 6257 cabe cb88 833e 7317 d73e
00000210: d7de 9b3e b600 023f 0046 17bf 19fa 913e
00000220: c13e 033f cf57 5bbf fa63 dd3e a18e 3bbf
00000230: 1460 a63e bda1 3cbf 8711 f43e 0ff5 d0be
00000240: 6048 1e3f f242 d6be 441e 383f f7b4 abbe
00000250: b5fc 08bf 215b 92be 8460 13bf cdbf f23e
00000260: af9c fc3e 762a a1bd f60f be3e afe0 c7be
00000270: 82f5 593e 4b70 f3be 0fd2 933e 576d ee3d
00000280: 4cff 9a3e ed0a 8ebf b5b7 943e 2ea6 0abf
00000290: 1521 f63e 10d0 5c3e 9cd6 613f 7003 95be
000002a0: 3934 11bf 8216 c4be d578 a53e 9e93 a8bd
000002b0: 9c43 b83d a08e fa3e de6b 47bf 904d 86be
000002c0: 5e95 32bf 8d39 d53d 4c78 7d3e 0d37 d63c
000002d0: bad8 e93e 9b5e 153e cfb6 99bd eaa9 0ebd
000002e0: 7f98 edbe faa2 e7bd d6aa 4fbc d0ea bc3e
000002f0: 3de1 5c3e 5274 0cbf 476a 06bf 74ff 7e3f
00000300: decf ad3e 323a 973e 5a37 7fbe 46b4 22bf
00000310: bd20 4bbf f03c f53c 70b3 ca3e cc06 28bf
00000320: d620 913e 57da a53e 1635 243e d155 ac3e
00000330: 62fa 59be 2a07 f93e b174 1d3f 8e5e 7abf
00000340: 21f3 723e bb59 44bf 509e a13d 9fc1 603f
00000350: 55fe 893e a3ec b0bc 49e2 1abf 67df a0be
00000360: c12b a83e 31d8 2fbd 0709 1ebf 9a61 25bf
00000370: cf33 4bbf 7640 c03e 4d60 7bbf 767b d7be
00000380: 5bd4 5c3e ae9d da3e 4af4 15be a5a5 893e
00000390: bd17 a03e a18b bb3e 49a3 853e 91e9 97bf
000003a0: b81d 97bd a4e4 b6be d22b c33e dfaa eb3c
000003b0: a1c3 e43e bee2 9fbe f57e 89bd 8ba8 813d
000003c0: 09d0 21bf 8836 b23e d331 563d 5865 093f
000003d0: dcc2 d1be f7a5 9bbe 3a4e 91bf f474 a03e
000003e0: 4004 953e 5a56 6f3e 61fe dbbd bd38 cb3e
000003f0: e9ee 6ebe 52e7 8e3d 598a 69bf 604d 16bd

StatefulPartitionedCall/sequential/dense_3/BiasAdd/ReadVariableOp:0 f4 [10]
-0.008623856 0.027324002 0.02798755 0.046106175 -0.024887184 0.0043342756 -0.04040114 0.044200476
-0.029554429 -0.012653092
00000000: 134b 0dbc 96d6 df3c 2546 e53c d4d9 3c3d
00000010: 35e0 cbbc 8a06 8e3b aa7b 25bd 8f0b 353d
00000020: 211c f2bc ea4e 4fbc

StatefulPartitionedCall/sequential/dense_2/MatMul/ReadVariableOp:0 f4 [32, 64]
-0.20901078 -0.3165868 -0.43064582 0.17151731 -0.81899357 -0.82430494 -0.07842017 -0.46942046
0.81565195 -0.1083467 0.5291176 -0.80902976 0.36443785 -0.50015175 0.025412146 -0.20153393
-0.0077088103 -0.11376276 0.45932618 -0.40781286 -0.46162784 0.25483152 0.16766478 -0.21845622
-0.13782409 -0.03712971 -0.17562102 -0.10529903 0.6329784 1.0270545 -0.32265112 -0.55163646
-0.9266684 0.58093774 -1.0770172 -0.82411003 -0.6820735 -0.21835878 0.7620825 0.6560247
0.3293732 0.776448 -0.072775796 0.16336389 -0.32843018 0.5169349 -0.7973119 -0.73528326
1.1264609 0.4752775 -0.2783003 0.23547429 -0.3579348 0.80582637 0.73298144 0.6168919
-0.39328212 -0.26207268 0.50634646 0.564877 0.53594595 0.34991133 0.20423627 -0.08429656
0.73404694 -0.25424752 -0.29275173 0.52082694 -0.79655975 0.42425874 0.45711428 0.022399632
0.65250045 0.59018034 0.48874047 -0.84599787 0.45968893 -0.29119897 0.3620147 0.88571644
-0.058975145 -0.33901814 -0.39448616 0.02931356 -0.6275711 0.50365555 0.31694683 -0.30598956
0.11803276 -0.3911923 -0.35659492 -0.44485173 0.47879103 0.4118382 0.47553188 -0.839159
0.0025388522 -0.22052033 -0.14625764 -0.6534588 -0.6754253 0.049390152 0.92738456 0.602288
0.3731817 0.2007662 0.9677925 -0.35643083 -0.8429637 0.60207295 -0.1199999 -0.46836782
0.387083 -0.022122849 0.31221542 -0.45664442 0.039934106 0.29226434 -0.29606926 0.33126646
-0.7234139 -0.7931448 -0.7245587 -0.10456839 -0.61586595 -0.47455654 0.27763975 0.80271906
0.4572933 -0.33352944 1.022083 -1.2576619 -0.29525992 -0.40824896 0.84827137 0.06506524
0.589561 -0.12807392 0.25310218 -0.08287514 -0.6469423 -0.5869305 0.44076964 -0.28253448
0.51124275 -0.08060733 -0.428086 -1.0429035 -0.28734976 -1.3156246 0.5226489 0.9317921
-0.3449983 -0.39350405 0.15691867 0.88625133 0.5893723 0.51174736 -0.38076508 0.3926651
-0.20525828 0.95572525 -0.09783996 0.710195 -0.07616093 0.5388923 -0.35379666 -0.5838546
-0.005413139 -0.06325839 -0.3696656 1.1272775 -0.28215197 -0.82741153 -0.34728578 0.1778029
0.78842795 0.7930978 -0.84641516 0.22039413 0.39335895 0.28957114 -0.06513625 0.016508177
0.24951394 0.71710587 0.011454389 0.3409852 -0.16667639 0.7038572 -0.72822946 -0.11549922
-0.54105747 -0.28323126 0.30819097 -0.027989186 0.7513739 0.1487856 0.46315074 -0.40299696
-0.20132232 -0.5292561 0.30136904 0.4034786 -0.857043 -0.009693594 -1.2366813 -0.6729228
-1.0439231 0.92229325 0.03828687 0.4517658 -0.3327665 -0.4901082 0.1607813 -0.4857555
0.9969107 1.2894912 1.037522 0.5144869 -0.43929285 -0.8695368 -0.5954656 0.8607334
0.021884903 1.008512 0.062244717 -0.035263494 -0.09583183 -0.7883383 -0.73908496 0.25734606
0.44841573 0.113621764 -0.36356592 0.41189092 0.086104676 0.96271825 0.51525587 0.44846144
0.030543854 0.5100815 0.3244466 0.6617968 0.5909941 -0.6091199 -0.2909465 -1.1711683
0.9375281 0.60828066 0.5997815 -0.27310517 0.64852226 -0.03398034 0.31008244 -0.009465817
00000000: ec06 56be aa17 a2be 9c7d dcbe 3ca2 2f3e
00000010: 90a9 51bf a605 53bf c19a a0bd e157 f0be
00000020: 91ce 503f e0e4 ddbd 4074 073f 931c 4fbf
00000030: 9997 ba3e f209 00bf 222d d03c e95e 4ebe
00000040: 309a fcbb 73fc e8bd cd2c eb3e d9cc d0be
00000050: 7c5a ecbe 4779 823e 51b0 2b3e fdb2 5fbe
00000060: c221 0dbe 5315 18bd ffd5 33be 05a7 d7bd
00000070: df0a 223f 8676 833f 8732 a5be 0c38 0dbf
00000080: 243a 6dbf 56b8 143f b3db 89bf e0f8 52bf
00000090: 5e9c 2ebf 7299 5fbe d717 433f 3cf1 273f
000000a0: 9ba3 a83e 4cc5 463f 7a0b 95bd dd48 273e
000000b0: 0028 a8be d855 043f a21c 4cbf 863b 3cbf
000000c0: df2f 903f 9357 f33e 607d 8ebe 2c20 713e
000000d0: 3b43 b7be a34a 4e3f aca4 3b3f a1ec 1d3f
000000e0: 465c c9be 642e 86be ec9f 013f c79b 103f
000000f0: c133 093f 9427 b33e 5023 513e ada3 acbd
00000100: 80ea 3b3f bb2c 82be 8ee3 95be ea54 053f
00000110: 57eb 4bbf 7138 d93e e20a ea3e 6f7f b73c
00000120: 450a 273f 0f16 173f 313c fa3e 5193 58bf
00000130: 595c eb3e 0818 95be fe59 b93e 50be 623f
00000140: ec8f 71bd c993 adbe 17fa c9be fe22 f03c
00000150: 80a8 20bf 92ef 003f db46 a23e aaaa 9cbe
00000160: 29bb f13d 5b4a c8be 9c93 b6be 9bc3 e3be
00000170: 1924 f53e 75dc d23e ea78 f33e 20d3 56bf
00000180: df62 263b 15d0 61be 90c4 15be 1349 27bf
00000190: ace8 2cbf 544d 4a3d 1369 6d3f 8c2f 1a3f
000001a0: ac11 bf3e a895 4d3e 40c1 773f 1a7e b6be
000001b0: 78cc 57bf 7421 1a3f 82c2 f5bd e8cd efbe
000001c0: be2f c63e fa3a b5bc b3da 9f3e 4ccd e9be
000001d0: f291 233d aca3 953e 6496 97be c29b a93e
000001e0: a731 39bf 8a0b 4bbf ae7c 39bf f427 d6bd
000001f0: 64a9 1dbf 13f9 f2be cc26 8e3e ff7e 4d3f
00000200: 5922 ea3e 5fc4 aabe 9ed3 823f 11fb a0bf
00000210: 4f2c 97be 0206 d1be 5028 593f ed40 853d
00000220: 78ed 163f cf25 03be 9c96 813e 71ba a9bd
00000230: 039e 25bf 1441 16bf 8fac e13e 5ca8 90be
00000240: cee0 023f 7515 a5bd 172e dbbe dd7d 85bf
00000250: 821f 93be 6366 a8bf 51cc 053f ed89 6e3f
00000260: 9ea3 b0be 5d79 c9be 4aaf 203e 5ee1 623f
00000270: 1ae1 163f e001 033f a4f3 c2be 660b c93e
00000280: 3a2f 52be 69aa 743f 5160 c8bd 57cf 353f
00000290: 43fa 9bbd d9f4 093f d624 b5be 7f77 15bf
000002a0: b360 b1bb 9d8d 81bd cf44 bdbe a14a 903f
000002b0: 3976 90be 3ed1 53bf 71cf b1be f711 363e
000002c0: 6ad6 493f 7508 4b3f aaae 58bf 00af 613e
000002d0: 5866 c93e ab42 943e 2766 85bd 283c 873c
000002e0: 9580 7f3e 4094 373f 31ab 3b3c 9d95 ae3e
000002f0: 37ad 2abe fc2f 343f 3f6d 3abf db8a ecbd
00000300: be82 0abf b003 91be 35cb 9d3e 9449 e5bc
00000310: 0a5a 403f 415b 183e 1822 ed3e 9e55 cebe
00000320: 7027 4ebe 547d 07bf 0b4d 9a3e bf94 ce3e
00000330: 2c67 5bbf e1d1 1ebc 934b 9ebf ab44 2cbf
00000340: 469f 85bf 691b 6c3f b1d2 1c3d d94d e73e
00000350: 5f60 aabe 76ef fabe daa3 243e f2b4 f8be
00000360: 8a35 7f3f 0c0e a53f 85cd 843f 6ab5 033f
00000370: feea e0be f799 5ebf 6f70 18bf 0659 5c3f
00000380: f847 b33c ec16 813f 51f4 7e3d 7470 10bd
00000390: 7a43 c4bd 8ad0 49bf ac34 3dbf ddc2 833e
000003a0: bf96 e53e 87b2 e83d 5025 babe 5ee3 d23e
000003b0: a657 b03d b474 763f cfe7 033f bd9c e53e
000003c0: 1b37 fa3c b494 023f dd1d a63e 846b 293f
000003d0: 644b 173f 48ef 1bbf f1f6 94be d8e8 95bf
000003e0: d701 703f 48b8 1b3f 488b 193f 71d4 8bbe
000003f0: 8e05 263f f82e 0bbd 20c3 9e3e 8416 1bbc

StatefulPartitionedCall/sequential/dense_2/BiasAdd/ReadVariableOp:0 f4 [64]
0.020045571 -0.03885428 0.037318546 -0.10224356 -0.12316735 0.04620739 0.048772097 0.15036662
0.13206758 0.038277082 0.08804621 -0.123451 0.04636221 0.04399123 0.09428921 0.107994296
0.091506 0.08155868 0.04449099 -0.064742744 0.08334131 -0.0018597848 0.039862387 0.09847811
0.024017151 0.0031943934 -0.036398012 -0.030900853 0.09507764 0.06787219 0.07667919 -0.04245789
-0.010022387 0.051404636 0.02674808 -0.015288585 -0.14629894 -0.061055705 0.13250655 0.06643852
0.089903325 0.0954351 0.072679795 0.111568816 -0.20485577 0.021541912 0.013804135 -0.059612148
0.15368773 0.05570692 -0.006599464 -0.043701172 0.008642627 0.078354545 0.12877832 0.08002682
0.023184376 0.08322545 -0.06964988 -0.01338485 -0.09828177 -0.045963418 -0.010856505 -0.038992375
00000000: 9c36 a43c aa25 1fbd 55db 183d 1265 d1bd
00000010: 2a3f fcbd f643 3d3d 40c5 473d b5f9 193e
00000020: b93c 073e 6ec8 1c3d 9251 b43d e1d3 fcbd
00000030: 4de6 3d3d 2630 343d b41a c13d 1d2c dd3d
00000040: 7f67 bb3d 3d08 a73d 2f3c 363d d897 84bd
00000050: d9ae aa3d 06c4 f3ba be46 233d e4ae c93d
00000060: 9ebf c43c 0759 513b 1516 15bd c923 fdbc
00000070: 11b8 c23d 9300 8b3d fb09 9d3d 53e8 2dbd
00000080: f034 24bc ab8d 523d ca1e db3c f97c 7abc
00000090: 64cf 15be 8c15 7abd ccaf 073e eb10 883d
000000a0: 3c1f b83d 7a73 c33d 25d9 943d 317e e43d
000000b0: b6c5 51be aa78 b03c bd2a 623c de2b 74bd
000000c0: 5160 1d3e f02c 643d 5140 d8bb 0000 33bd
000000d0: ce99 0d3c 5978 a03d 77de 033e 1ae5 a33d
000000e0: 29ed bd3c 1b72 aa3d 99a4 8ebd 214c 5bbc
000000f0: f447 c9bd 2344 3cbd 7bdf 31bc 78b6 1fbd

StatefulPartitionedCall/sequential/dense_1/MatMul/ReadVariableOp:0 f4 [5, 32]
-1.3202949 -0.11033167 1.3795038 0.15152413 -1.4618852 -0.07899121 -1.5711757 -1.6875737
1.1691424 1.7831445 1.501662 -1.4072132 -0.9872008 1.5271647 0.5427281 -1.4971651
-0.19289592 0.65359586 -0.655699 -0.18945095 1.24929 1.1611811 -0.29597366 0.800149
-0.0895434 1.3745406 -0.78907275 -0.5836835 1.3169117 1.1062983 -0.67448944 1.7019366
1.479866 -1.6175957 1.8204052 -0.50198144 -1.4782058 -0.26391295 1.8487206 0.21283989
-1.4151255 -0.32124886 2.1916158 1.3146992 -2.0418463 1.7782284 -1.5987458 -2.159992
-0.6075436 1.7052789 1.9673221 1.4088093 -0.3164384 -1.349075 0.9573357 -1.8137336
-0.36357465 -1.2373067 0.017847816 -1.5107497 -1.2279065 1.8553653 1.4432416 -1.0491966
0.7173236 1.4447135 -1.3848951 -2.1039467 0.8291444 -1.6394426 -1.1189126 -1.466345
1.5116398 0.12002863 -0.4519512 0.8679384 -1.110843 -1.5667051 1.6074795 0.42570508
-0.29506037 -0.070913084 0.8604651 0.28986612 0.8172896 1.4838058 -1.4642494 -0.8693628
0.7912617 1.197195 0.30712965 0.6097857 0.9556342 0.09001283 -1.5158209 -0.5467614
-0.06474801 -0.7615658 -0.6103386 2.058425 0.3490828 2.2885544 0.55625963 0.8060003
-0.2806579 -0.24713148 -1.1511207 -0.60596544 -0.84548306 -0.39065585 -1.2051419 0.34024927
1.6068847 -1.1404897 -1.8209319 -0.5683903 -0.32530344 -0.060837615 1.135948 1.5398545
0.09618527 -0.27132487 1.2310555 0.89988744 -0.13083667 -1.266183 0.49895594 -0.74814135
1.9060243 2.0371475 0.7630965 -0.06308959 -1.1478198 0.2616036 0.34203836 1.8044145
-1.3404709 0.58241326 -2.5454485 -1.9052871 -1.0804486 0.6939653 0.68992805 -0.53933036
-0.9931144 1.1362306 -1.91669 1.7608024 1.3302786 -1.2613698 -1.1650392 -1.16315
-2.0910742 -1.4550343 -1.2153922 -1.2569413 1.4374969 -0.43469173 -1.6764176 0.0858114
00000000: 6cff a8bf 92f5 e1bd 9593 b03f 2429 1b3e
00000010: 0e1f bbbf 25c6 a1bd 491c c9bf 6a02 d8bf
00000020: 75a6 953f 143e e43f 7636 c03f 901f b4bf
00000030: 31b9 7cbf 227a c33f 3bf0 0a3f 1ba3 bfbf
00000040: 8286 45be 0f52 273f e4db 27bf 6eff 41be
00000050: bce8 9f3f 95a1 943f dc89 97be 91d6 4c3f
00000060: 8862 b7bd f2f0 af3f ac00 4abf 486c 15bf
00000070: 9090 a83f 2f9b 8d3f 57ab 2cbf 0fd9 d93f
00000080: 406c bd3f 600d cfbf 0a03 e93f db81 00bf
00000090: d935 bdbf 991f 87be e0a2 ec3f b3f2 593e
000000a0: d522 b5bf bb7a a4be 6f43 0c40 1048 a83f
000000b0: 9cad 02c0 fd9c e33f b4a3 ccbf 4f3d 0ac0
000000c0: fa87 1bbf 9446 da3f 36d1 fb3f dd53 b43f
000000d0: 3704 a2be 7dae acbf f413 753f 6c28 e8bf
000000e0: 7526 babe 1160 9ebf 9535 923c 3f60 c1bf
000000f0: 0a2c 9dbf 9c7c ed3f 24bc b83f 134c 86bf
00000100: 85a2 373f 5fec b83f 3e44 b1bf 10a7 06c0
00000110: cf42 543f 41d9 d1bf 8738 8fbf 31b1 bbbf
00000120: 6a7d c13f 92d1 f53d 2666 e7be 3631 5e3f
00000130: 1a30 8ebf cb89 c8bf e3c1 cd3f 04f6 d93e
00000140: 2712 97be e13a 91bd 7147 5c3f 5569 943e
00000150: e439 513f 59ed bd3f 866c bbbf 8f8e 5ebf
00000160: 2090 4a3f b03d 993f 1940 9d3e ea1a 1c3f
00000170: 71a4 743f a658 b83d 6b06 c2bf 8ef8 0bbf
00000180: 9b9a 84bd faf5 42bf 273f 1cbf 3cbd 0340
00000190: fbba b23e ad77 1240 0867 0e3f 0956 4e3f
000001a0: 64b2 8fbe 0910 7dbe ec57 93bf 8d20 1bbf
000001b0: 9471 58bf 0b04 c8be 1742 9abf 2735 ae3e
000001c0: 66ae cd3f 91fb 91bf 4c14 e9bf 0782 11bf
000001d0: 2c8e a6be dd30 79bd be66 913f f419 c53f
000001e0: c8fc c43d 18eb 8abe 3a93 9d3f 065f 663f
000001f0: 0cfa 05be 4912 a2bf 2777 ff3e 3186 3fbf
00000200: 9bf8 f33f a060 0240 4b5a 433f 1d35 81bd
00000210: c2eb 92bf e8f0 853e a71f af3e 0ef7 e63f
00000220: 8d94 abbf 0919 153f a1e8 22c0 73e0 f3bf
00000230: 244c 8abf b6a7 313f 209f 303f 8e11 0abf
00000240: bf3c 7ebf 0170 913f 1956 f5bf f961 e13f
00000250: 9246 aa3f 9174 a1bf 0120 95bf 19e2 94bf
00000260: 29d4 05c0 903e babf f991 9bbf 74e3 a0bf
00000270: e6ff b73f ea8f debe da94 d6bf e3bd af3d

StatefulPartitionedCall/sequential/dense_1/BiasAdd/ReadVariableOp:0 f4 [32]
-0.5831051 0.028310595 -0.016928492 -0.20936963 0.42129418 -0.2684014 -0.2472707 -0.041034028
0.08780004 -0.3463421 0.064375415 0.3875749 0.8054839 -0.11709122 0.21966384 0.3765274
0.21524473 -0.23394516 0.8021282 -0.42003813 -0.42663798 -0.28224835 0.069833234 -0.13446338
0.4290079 0.10630257 0.33217388 0.10151811 -0.4349119 -0.11184085 0.4763443 -0.09120772
00000000: 6046 15bf 9feb e73c 9fad 8abc fe64 56be
00000010: dfb3 d73e e96b 89be 8834 7dbe 4c13 28bd
00000020: 82d0 b33d c053 b1be 42d7 833d 3870 c63e
00000030: 3134 4e3f 86cd efbd 8fef 603e 33c8 c03e
00000040: 1d69 5c3e 528f 6fbe 4658 4d3f 3d0f d7be
00000050: 4b70 dabe db82 90be ba04 8f3d c5b0 09be
00000060: eca6 db3e 29b5 d93d b212 aa3e bae8 cf3d
00000070: c6ac debe d10c e5bd 66e3 f33e 1dcb babd

StatefulPartitionedCall/sequential/dense/MatMul/ReadVariableOp:0 f4 [784, 5]
0.011648081 0.061320275 -0.027393796 -0.013387464 0.0050410703 -0.011969805 0.03845173 -0.05087781
0.07473233 0.042868376 0.07137559 -0.014888354 -0.05980889 0.05495812 -0.05354749 0.0736559
-0.0857438 -0.05500353 -0.06393532 0.0785753 -0.020473175 -0.00967212 0.023951478 0.026697688
0.04276982 -0.07622672 -0.037634093 0.014560707 0.018418953 0.056473225 0.065026075 0.057956204
-0.04335058 0.048309296 0.052702844 -0.062261805 -0.03579589 0.03881912 0.06698446 -0.047261864
-0.077649 -0.06182602 0.06916842 0.04983352 0.05370146 -0.044326037 0.072873056 0.030092232
0.05398631 0.08113776 0.012049742 0.0029936433 -0.02137293 0.00914935 -0.014102556 0.060078204
0.020268522 0.073956296 -0.010474257 0.022035994 0.024769453 0.031223448 0.20478281 0.08992784
-0.08864548 -0.09959111 -0.0004317549 0.11514288 -0.0054468797 -0.1921698 -0.18617782 -0.025780708
-0.03043623 0.17923261 -0.0006897768 -0.11283487 -0.024809813 0.077725105 0.13071321 -0.045395214
-0.029845629 0.011462957 -0.08566244 0.071792796 0.0091791 -0.04449266 0.07155311 -0.08271753
-0.059592415 -0.08472044 0.0007383153 0.07224703 0.0078020394 -0.05678383 -0.081891105 0.037232533
-0.01852218 0.05646497 0.01454135 0.084539264 0.0033171996 -0.046930477 0.034826778 -0.04379152
0.08528976 -0.058989722 -0.043780666 -0.020227462 0.0061865523 -0.047307502 0.02854953 -0.05116955
-0.064170696 -0.083397776 0.03818102 -0.07497988 -0.029078104 0.01591362 -0.055849727 -0.067833126
0.063791946 0.057291612 -0.08245629 -0.06255801 0.07966353 -0.027221128 0.07783519 -0.05468522
-0.06251219 -0.08179332 0.056420803 -0.059120934 0.06609163 0.06363477 -0.01794564 -0.07109976
-0.050618418 -0.052318778 0.066311404 -0.012808308 0.0005681366 0.042003676 -0.032238267 -0.06580427
0.017396048 0.040499493 -0.050287694 -0.042167135 -0.0073118135 0.06264311 -0.049518093 0.031672917
0.0037293807 0.016385622 0.03866014 -0.015675314 -0.013583548 -0.075382724 -0.07198501 -0.007338606
0.01876711 0.09879532 0.043774623 -0.06839748 0.021460414 0.06411895 -0.022475313 -0.069531985
0.012078593 -0.08196309 0.15614012 -0.13603547 0.32479635 -0.04476558 -0.34861872 0.13931383
0.007904505 0.19298816 -0.036892455 -0.28870466 0.004861613 -0.13367414 0.14917324 0.06112155
-0.21704486 0.10758035 0.1596639 0.12896381 -0.06306555 -0.4493966 0.23631214 -0.061346937
0.23230483 0.029754205 -0.46197075 -0.032531884 0.020705609 0.097704805 0.035263147 -0.62918067
0.028065262 0.063067086 0.1128254 -0.06393922 -0.5318485 -0.21066594 0.024004864 0.12942676
0.096429095 -0.42906022 -0.044308703 0.051652204 0.13642448 0.24496819 -0.3243921 -0.038796004
-0.3368133 0.22027174 0.22685193 -0.48749012 -0.4339288 -0.301462 0.07642002 0.28997597
-0.45279396 -0.061442547 -0.0640591 0.0846569 0.23836902 -0.46506432 0.3808343 0.14448853
0.4192428 -0.12340536 -0.18070315 0.35976663 -0.007862398 0.31434268 -0.1751647 -0.2458101
0.3082369 0.08073799 0.29760918 -0.20643048 -0.40243545 0.23450643 0.07689964 0.29674914
-0.08908915 -0.37007523 -0.014394348 -0.19965278 0.18206966 -0.17199649 -0.35949907 -0.04209768
00000000: 98d7 3e3c f82a 7b3d f468 e0bc 1857 5bbc
00000010: 902f a53b 001d 44bc 907f 1d3d 4065 50bd
00000020: 440d 993d c096 2f3d 5e2d 923d 48ee 73bc
00000030: 2bfa 74bd c41b 613d 9d54 5bbd e8d8 963d
00000040: 729a afbd 624b 61bd 85f0 82bd 16ec a03d
00000050: 5cb7 a7bc d077 1ebc e435 c43c 1cb5 da3c
00000060: 682f 2f3d c11c 9cbd 3526 1abd 0890 6e3c
00000070: 58e3 963c 7850 673d 642c 853d 7c63 6d3d
00000080: 6190 31bd f8df 453d f0de 573d 3c06 7fbd
00000090: b69e 12bd cc00 1f3d 262f 893d a895 41bd
000000a0: 7006 9fbd 483d 7dbd 2ca8 8d3d 3c1e 4c3d
000000b0: 10f6 5b3d 388f 35bd 783e 953d fc83 f63c
000000c0: c020 5d3d 8e2b a63d 486c 453c 0031 443b
000000d0: 4816 afbc 28e7 153c 680e 67bc 9014 763d
000000e0: 2c0a a63c 6676 973d 389c 2bbc d484 b43c
000000f0: 4fe9 ca3c 51c8 ff3c 96b2 513e 162c b83d
00000100: c38b b5bd 6df6 cbbd 295d e2b9 08d0 eb3d
00000110: bd7b b2bb 29c8 44be 66a5 3ebe 1032 d3bc
00000120: 6755 f9bc c188 373e 23d2 34ba f815 e7bd
00000130: f33d cbbc 572e 9f3d afd9 053e 55f0 39bd
00000140: d27e f4bc 20cf 3b3c ca6f afbd 1a08 933d
00000150: f063 163c ef3d 36bd 708a 923d cf67 a9bd
00000160: 2d17 74bd e981 adbd 808b 413a 40f6 933d
00000170: 40a8 ff3b 2996 68bd 86b6 a7bd 2481 183d
00000180: d4bb 97bc d047 673d d83e 6e3c ec22 ad3d
00000190: 6065 593b 2c3a 40bd 86a6 0e3d bd5e 33bd
000001a0: 66ac ae3d 359f 71bd 5b53 33bd 10b4 a5bc
000001b0: 90b8 ca3b 83c5 41bd b4e0 e93c 2997 51bd
000001c0: ed6b 83bd 74cc aabd b463 1c3d 0d8f 99bd
000001d0: 3435 eebc 485d 823c afc2 64bd 18ec 8abd
000001e0: 5aa5 823d 9caa 6a3d d8de a8bd 6a1e 80bd
000001f0: a226 a33d d8fe debc 0e68 9f3d 9cfd 5fbd
00000200: 6406 80bd 4283 a7bd 8019 673d cb28 72bd
00000210: 0c5b 873d f252 823d bc02 93bc c09c 91bd
00000220: 4255 4fbd 374c 56bd 46ce 873d f0d9 51bc
00000230: 00ef 143a 0c0c 2c3d 460c 04bd 64c4 86bd
00000240: 2882 8e3c cce2 253d 78fa 4dbd 72b7 2cbd
00000250: f097 efbb 084b 803d 7cd3 4abd 76bb 013d
00000260: a068 743b 243b 863c 185a 1e3d 8469 80bc
00000270: 888d 5ebc 4262 9abd e06c 93bd b078 f0bb
00000280: 7bbd 993c 3355 ca3d 054d 333d fa13 8cbd
00000290: c0cd af3c cc50 833d 261e b8bc c966 8ebd
000002a0: 4ae5 453c 44dc a7bd 32e3 1f3e e24c 0bbe
000002b0: b54b a63e 1d5c 37bd 277e b2be 49a8 0e3e
000002c0: e681 013c b09e 453e 8b1c 17bd 19d1 93be
000002d0: 2a4e 9f3b e0e1 08be dfc0 183e 975a 7a3d
000002e0: 0241 5ebe 1653 dc3d ef7e 233e 170f 043e
000002f0: 8328 81bd 5017 e6be cffb 713e ed46 7bbd
00000300: 51e1 6d3e 17bf f33c 6e87 ecbe 2740 05bd
00000310: cf9e a93c 7519 c83d 1770 103d fc11 21bf
00000320: 1fe9 e53c 5129 813d 0111 e73d 91f2 82bd
00000330: 3927 08bf d0b8 57be d9a5 c43c 7388 043e
00000340: 9e7c c53d c8ad dbbe 0b7d 35bd 4391 533d
00000350: dcb2 0b3e f1d8 7a3e b916 a6be 8fe8 1ebd
00000360: cb72 acbe ea8e 613e df4b 683e 4e98 f9be
00000370: ea2b debe 3a59 9abe 1982 9c3d bb77 943e
00000380: 9cd4 e7be 2eab 7bbd 6b31 83bd 9960 ad3d
00000390: 0217 743e e91c eebe b7fc c23e cdf4 133e
000003a0: fea6 d63e f3bb fcbd 3f0a 39be 5533 b83e
000003b0: 4ad1 00bc 86f1 a03e 605e 33be a5b5 7bbe
000003c0: 3ad1 9d3e f659 a53d 3b60 983e 8362 53be
000003d0: 050c cebe 7422 703e 8f7d 9d3d 81ef 973e
000003e0: 5f74 b6bd 807a bdbe 45d6 6bbc c771 4cbe
000003f0: 7870 3a3e d91f 30be 4310 b8be 9e6e 2cbd

StatefulPartitionedCall/sequential/dense/BiasAdd/ReadVariableOp:0 f4 [5]
-0.023349272 0.4997277 0.02059002 0.22208138 0.033832476
00000000: f946 bfbc 4fdc ff3e 67ac a83c 4d69 633e
00000010: ec93 0a3d
