models/mnist/fp32/mnist_relu_fp32.onnx (onnx, 20205 bytes, 6 tensors)

StatefulPartitionedCall/sequential/dense_2/MatMul/ReadVariableOp:0 f4 [32, 10]
-0.062508725 -0.102671415 -0.20735998 -0.108724274 0.22270177 0.3082111 -0.056847215 -0.29496247
0.0026988 0.19495516 -0.47746795 -0.09744435 0.023652654 0.04473168 0.033840027 0.8596388
0.27889767 -0.010598158 -0.611313 0.027928764 0.25829396 -0.29547644 -0.037969127 0.38173085
0.41189408 0.460677 0.22934215 -0.10775104 -0.3365075 -0.43829268 -0.35557413 0.057862673
0.46939808 0.4030273 -0.070746906 -0.037497908 -0.71695274 0.879139 -0.255926 -0.8876563
-0.26930815 0.048135627 -0.023809467 -0.54074126 0.4386471 -0.3561361 0.32867146 0.051964317
0.06975056 0.38688403 0.33526513 -0.29488477 0.16370815 -0.056257106 -0.32433227 -0.13682175
-0.21818236 0.28673083 -0.37946594 0.43083113 0.26496845 -0.08098748 -0.322193 0.10440129
0.12973614 -0.12147154 0.3410183 0.38976374 -0.75919425 -0.020117596 0.15640152 0.35100782
-0.059206694 0.38484928 -0.50373226 0.26799878 -0.6882995 -0.34167284 0.15056442 -0.06383721
-0.40857926 0.14190388 0.12759158 -0.039337736 -0.30712372 0.18762872 0.3902435 -0.7021679
0.36692232 0.19048582 -0.23180494 0.0105755525 0.18343599 0.22328669 -0.40644372 0.09976959
0.24177948 -0.59850794 0.24711715 -0.33252752 -0.33651617 -0.09804803 0.13188699 -0.16065222
-0.001262207 -0.4924331 -0.053848453 0.28699598 0.08419653 0.13614453 -0.28411707 -0.5457915
-0.48239613 -0.26077932 -0.37344268 0.14782813 -0.80970466 0.2758656 -0.043368205 0.10793824
-0.07336956 -0.3061417 -0.09678667 -0.19824776 -0.28600773 -0.2467127 -0.047731552 0.11092133
0.18875186 0.23284467 -0.41574773 -0.38619003 0.15457383 0.06347191 0.2536305 -0.03647343
-0.9051985 0.6463369 -0.04022873 -0.04336127 -0.25846803 0.22072192 -0.8075791 -0.8366478
0.61448944 -0.5908719 -0.6915494 0.020587895 -0.73897433 0.31771988 0.41604713 0.47733802
-0.045738105 -0.22934754 -0.3605249 -0.15967274 0.32532972 0.30037272 -0.8230923 -0.2784458
-0.69582933 0.54267704 -0.18495418 0.37959522 0.014567081 -0.29894018 -0.27390647 0.062355038
-0.22670233 0.11666016 0.3374839 0.12362999 -0.24401632 -0.16787504 0.16531637 -0.31141376
0.20717883 -0.24051416 -0.3385958 -0.10730456 -0.3166132 0.51572424 0.28218016 -0.8609754
-0.1958584 -0.14956298 0.10288706 0.21861196 -0.05195145 -0.42171174 0.073756464 0.29243144
0.29029432 0.12758297 -0.17861953 -0.27774778 -0.4590744 0.42411166 -0.26611164 0.33490247
0.37227884 -0.075618364 -0.09385823 -0.2940412 0.24796432 0.24992388 0.13794044 -0.24320534
0.16230077 -0.21374765 -0.08451986 0.09730501 -0.29154545 0.4407464 0.020566404 0.20699643
-0.23005147 -0.016972307 0.30135697 0.28741646 -0.024878118 -0.16983141 0.42357352 0.12844144
0.43369535 0.1356655 -0.4904702 -0.061715297 -0.5581106 0.32454988 0.12525459 -0.09645265
-0.37709075 0.28641295 -0.015448595 -0.80248415 -0.010945698 -0.121369384 0.5343562 0.26016483
0.46873105 -0.2979705 0.34659186 0.091963805 0.33507195 -0.02389857 0.45670566 0.10316647
0.341898 0.38318363 0.10178328 -0.3135154 0.26377314 0.14876005 -0.047895946 -0.18414016
00000000: 9304 80bd 6445 d2bd 2d56 54be d5aa debd
00000010: ef0b 643e d8cd 9d3e a0d8 68bd 5205 97be
00000020: 5ade 303b 53a2 473e ae76 f4be e790 c7bd
00000030: 36c3 c13c 9138 373d d79b 0a3d 4a11 5c3f
00000040: adcb 8e3e e6a3 2dbc 027f 1cbf ddca e43c
00000050: 1b3f 843e b048 97be 8485 1bbd 3a72 c33e
00000060: c8e3 d23e dbdd eb3e abd8 6a3e 94ac dcbd
00000070: b64a acbe e667 e0be d00d b6be 6901 6d3d
00000080: f254 f03e 9859 ce3e c1e3 90bd 6897 19bd
00000090: 378a 37bf 410f 613f bc08 83be 713d 63bf
000000a0: c2e2 89be dd29 453d 120c c3bc 056e 0abf
000000b0: 5a96 e03e 7957 b6be a047 a83e 89d8 543d
000000c0: 62d9 8e3d aa15 c63e dfa7 ab3e 23fb 96be
000000d0: 1ca3 273e da6d 66bd e10e a6be 001b 0cbe
000000e0: 326b 5fbe 62ce 923e 5c49 c2be e695 dc3e
000000f0: f2a9 873e c4dc a5bd 7bf6 a4be 58d0 d53d
00000100: 8dd9 043e 12c6 f8bd f399 ae3e 1d8f c73e
00000110: 8e5a 42bf a8cd a4bc b827 203e 4cb7 b33e
00000120: b882 72bd f70a c53e 99f4 00bf 2337 893e
00000130: 6534 30bf beef aebe 8f2d 1a3e 15bd 82bd
00000140: 4d31 d1be 404f 113e 5ea7 023e 9b20 21bd
00000150: 523f 9dbe be21 403e ffcd c73e 47c1 33bf
00000160: 3edd bb3e b70e 433e 465e 6dbe 1545 2d3c
00000170: a5d6 3b3e 44a5 643e 6419 d0be 0054 cc3d
00000180: 0a95 773e d137 19bf 470c 7d3e 0c41 aabe
00000190: d94b acbe 68cd c8bd 620d 073e 0482 24be
000001a0: a470 a5ba 3120 fcbe 3290 5cbd 23f1 923e
000001b0: 3b6f ac3d 7969 0b3e cb77 91be feb8 0bbf
000001c0: a0fc f6be de84 85be e133 bfbe 4260 173e
000001d0: ce48 4fbf 423e 8d3e dca2 31bd b90e dd3d
000001e0: c842 96bd 9bbe 9cbe 1738 c6bd 7601 4bbe
000001f0: 9b6f 92be 41a2 7cbe 2982 43bd b92a e33d
00000200: 2b48 413e d56e 6e3e e3dc d4be b3ba c5be
00000210: 9a48 1e3e 90fd 813d dbdb 813e 2a65 15bd
00000220: 17bb 67bf 5676 253f e1c6 24bd 969b 31bd
00000230: ec55 84be ed04 623e 81bd 4ebf 8d2e 56bf
00000240: 2e4f 1d3f 6143 17bf 6209 31bf f2a7 a83c
00000250: 6c2d 3dbf 2eac a23e 2104 d53e a665 f43e
00000260: e157 3bbd 15da 6abe b896 b8be 4081 23be
00000270: 9e91 a63e 74ca 993e 2db6 52bf 7390 8ebe
00000280: df21 32bf e2ec 0a3f a164 3dbe 4e5a c23e
00000290: c4aa 6e3c b00e 99be 783d 8cbe ff67 7f3d
000002a0: a824 68be 86eb ee3d b1ca ac3e b831 fd3d
000002b0: 6adf 79be 6fe7 2bbe b248 293e a071 9fbe
000002c0: b026 543e 5849 76be 6e5c adbe 7ec2 dbbd
000002d0: 201b a2be 8106 043f eb79 903e e268 5cbf
000002e0: 1b8f 48be 0a27 19be 73b6 d23d d0db 5f3e
000002f0: 0bcb 54bd 9aea d7be a10d 973d 93b9 953e
00000300: 75a1 943e 1ca5 023e 0ae8 36be f534 8ebe
00000310: cd0b ebbe 2a25 d93e c93f 88be 5678 ab3e
00000320: 559b be3e cddd 9abd be38 c0bd 918c 96be
00000330: 5cea 7d3e 0cec 7f3e 4240 0d3e d20a 79be
00000340: 2c32 263e aae0 5abe c018 adbd d947 c73d
00000350: 7245 95be 83a9 e13e e07a a83c dff6 533e
00000360: 9d92 6bbe 8209 8bbc 764b 9a3e 4028 933e
00000370: 32cd cbbc 49e8 2dbe a1de d83e 2786 033e
00000380: 510d de3e e6eb 0a3e e91e fbbe 2ec9 7cbd
00000390: 56e0 0ebf 672b a63e bd42 003e f888 c5bd
000003a0: 0a12 c1be b8a4 923e 1b1c 7dbc 9a6f 4dbf
000003b0: 9655 33bc 8390 f8bd 91cb 083f 5334 853e
000003c0: 84fd ef3e 978f 98be 7d74 b13e 8557 bc3d
000003d0: 8d8e ab3e efc6 c3bc 53d5 e93e f148 d33d
000003e0: 410d af3e a530 c43e c173 d03d 1785 a0be
000003f0: 460d 873e 8e54 183e 8a2e 44bd 3d8f 3cbe

StatefulPartitionedCall/sequential/dense_2/BiasAdd/ReadVariableOp:0 f4 [10]
-0.36226594 0.1785258 -0.052335847 0.12376535 0.14233242 0.36923623 -0.06374782 0.05450453
-0.48147044 -0.15821026
00000000: ec7a b9be 78cf 363e 1d5e 56bd b078 fd3d
00000010: 97bf 113e 880c bd3e 388e 82bd 2440 5f3d
00000020: 4b83 f6be df01 22be

StatefulPartitionedCall/sequential/dense_1/MatMul/ReadVariableOp:0 f4 [5, 32]
-0.3067511 -0.33971503 -0.052294917 -0.09981154 0.54116386 0.49014658 0.4509897 -0.36689016
-0.19914576 -0.39061883 0.51704615 0.3042025 -0.31080568 0.45920426 -0.45453995 0.13551158
-0.72614217 -0.15831734 -0.3988767 0.31834912 0.44410962 -0.13234589 0.33127096 -0.22288056
0.5513102 0.0907632 -0.16679415 0.09328485 -0.09270773 -0.04647191 -0.33214533 0.16421497
-0.103374064 0.07728119 0.027779011 0.49693814 -0.045693263 0.25523007 0.03749149 0.6973637
0.15571535 0.22997122 0.06762242 0.6067703 0.10839755 0.29182467 0.39199755 0.23037718
0.50109595 -0.27292794 -0.010083683 0.30658963 -0.3331954 0.6807781 -0.21718031 0.45368284
-0.15331653 0.14935753 -0.36589485 -0.5034685 0.2928974 0.4697396 -0.28617287 -0.38692176
0.013023123 0.5223285 -0.2051103 -1.0354168 -0.27680776 -0.48173437 -0.28513217 0.0021329555
0.046518527 0.12456689 -0.23136581 0.58695835 -0.49911812 0.4025623 0.38244447 -0.07631104
-0.41703928 -0.12141597 -0.3500754 -0.55133814 0.5018902 0.58688086 0.23892476 0.020431539
0.040037222 -0.117550954 -0.07373818 0.39786935 0.1085123 -0.3830406 0.12574276 0.54750764
-0.15093637 -0.19230129 -0.10280581 0.22412929 0.27288187 -0.22289424 0.1349819 0.09603697
0.50277597 0.24249792 0.31162208 -0.31690148 -0.32602257 -0.13664207 0.2340269 -0.5459781
0.3730932 -0.37513736 0.6613157 -0.095493734 0.15324034 0.08969366 0.20227091 0.32097125
0.28978118 0.082770206 0.7415681 0.5228608 0.10117642 -0.05612123 -0.3023753 -0.39666602
-0.14090256 -0.055367626 0.53969467 0.26053712 -0.0038452116 0.2626203 -0.5271779 0.15092468
0.33202863 0.15037051 -0.25230375 -0.22521178 -0.034802254 -0.65271056 -0.7986231 0.41283646
0.15184483 -0.005074604 -0.2067979 0.22929293 0.38132253 0.14170587 -0.71936476 -0.36223778
0.41312516 0.4559932 0.066168755 0.023760572 -0.6276003 0.24360529 -0.3823192 0.18658309
00000000: 7b0e 9dbe 21ef adbe 3233 56bd fe69 ccbd
00000010: b789 0a3f 7ef4 fa3e 1fe8 e63e 07d9 bbbe
00000020: deec 4bbe 31ff c7be 235d 043f 6ec0 9b3e
00000030: ec21 9fbe d21c eb3e 76b9 e8be 8cc3 0a3e
00000040: 74e4 39bf f11d 22be 9139 ccbe a8fe a23e
00000050: 5662 e33e ae85 07be 599c a93e cd3a 64be
00000060: aa22 0d3f 0ee2 b93d 16cc 2abe 210c bf3d
00000070: 8ddd bdbd 5459 3ebd f40e aabe f827 283e
00000080: c8b5 d3bd 9a45 9e3d cf90 e33c ad6e fe3e
00000090: dc28 3bbd 84ad 823e ad90 193d 6d86 323f
000000a0: d873 1f3e 937d 6b3e a07d 8a3d 4c55 1b3f
000000b0: 89ff dd3d 0b6a 953e e7b3 c83e ffe7 6b3e
000000c0: d347 003f 36bd 8bbe 0836 25bc 51f9 9c3e
000000d0: 9698 aabe 7947 2e3f 8464 5ebe 1e49 e83e
000000e0: 02ff 1cbe 2ef1 183e 9256 bbbe 50e3 00bf
000000f0: a6f6 953e b581 f03e 4085 92be 9c1a c6be
00000100: f05e 553c 52b7 053f 6f08 52be 8a88 84bf
00000110: bfb9 8dbe e3a5 f6be d8fc 91be 0ec9 0b3b
00000120: 368a 3e3d ed1c ff3d 29eb 6cbe e742 163f
00000130: 698c ffbe a51c ce3e c3cf c33e f648 9cbd
00000140: 2c86 d5be f0a8 f8bd 153d b3be 7f24 0dbf
00000150: e07b 003f d33d 163f b1a8 743e 0b60 a73c
00000160: 12fe 233d 8ebe f0bd 0b04 97bd 88b5 cb3e
00000170: b23b de3d e61d c4be b6c2 003e 7629 0c3f
00000180: 108f 1abe a1ea 44be da8b d2bd 2682 653e
00000190: 2cb7 8b3e 633e 64be b238 0a3e 08af c43d
000001a0: edb5 003f 6051 783e ee8c 9f3e e940 a2be
000001b0: 6eec a6be e6eb 0bbe bfa4 6f3e 39c5 0bbf
000001c0: 1206 bf3e 0112 c0be fc4b 293f 3892 c3bd
000001d0: 09eb 1c3e 4fb1 b73d 1b20 4f3e 5856 a43e
000001e0: 335e 943e 6d83 a93d 68d7 3d3f 35da 053f
000001f0: 9535 cf3d 60df 65bd efd0 9abe cf17 cbbe
00000200: c348 10be 2ac9 62bd 6e29 0a3f 1f65 853e
00000210: f2ff 7bbb 2b76 863e 21f5 06bf 008c 1a3e
00000220: a8ff a93e bafa 193e f52d 81be eb9d 66be
00000230: cf8c 0ebd 0a18 27bf 9072 4cbf 4d5f d33e
00000240: 367d 1b3e dd48 a6bb d4c2 53be c4cb 6a3e
00000250: b53c c33e 581b 113e 4a28 38bf 3b77 b9be
00000260: 2485 d33e f177 e93e 7c83 873d 88a5 c23c
00000270: 6aaa 20bf aa73 793e 58bf c3be a30f 3f3e

StatefulPartitionedCall/sequential/dense_1/BiasAdd/ReadVariableOp:0 f4 [32]
0.002861564 0.55875105 0.4783895 0.028777566 0.04094357 0.08296933 0.07490595 0.123159446
-0.056562617 -0.069327384 -0.044475183 0.19838019 -0.10368145 0.34221742 0.37177536 0.34160516
0.39020914 -0.011623322 0.06848807 0.10480964 -0.03349875 0.0022850332 0.34589592 -0.40387306
-0.41687715 -0.11890929 0.35700077 0.36385137 0.31435657 -0.365259 0.009752857 0.25260672
00000000: 1489 3b3b 4f0a 0f3f 78ef f43e eebe eb3c
00000010: 72b4 273d d3eb a93d 4a68 993d 053b fc3d
00000020: 34ae 67bd 84fb 8dbd 9c2b 36bd 2d24 4b3e
00000030: f156 d4bd 1f37 af3e 5759 be3e dfe6 ae3e
00000040: 7ec9 c73e bf6f 3ebc 7943 8c3d 70a6 d63d
00000050: fc35 09bd 7fc0 153b 4519 b13e 73c8 cebe
00000060: ec70 d5be b786 f3bd cec8 b63e ba4a ba3e
00000070: 58f3 a03e 3a03 bbbe 72ca 1f3c ab55 813e

StatefulPartitionedCall/sequential/dense/MatMul/ReadVariableOp:0 f4 [784, 5]
-0.006985247 -0.03696782 -0.06558077 0.07136801 0.0015751347 0.068621054 -0.0077936426 -0.02475971
0.08453269 0.024861068 -0.0023882315 -0.0005931109 0.07203838 0.00015695393 -0.07956862 -0.04975983
0.01663237 -0.01031363 -0.007109262 -0.040666535 -0.06346789 -0.04144032 -0.047469027 -0.080899596
-0.06206327 0.011531487 -0.01488968 0.05101329 0.04131435 0.03179562 -0.057453178 -0.061993122
0.044465467 0.0036682338 -0.05733976 -0.06310817 -0.016893737 -0.053738765 0.019059397 -0.0061640367
0.018755846 0.03576514 -0.053508256 0.02889558 0.07753159 0.024776094 -0.04574532 -0.05325608
0.005838014 0.01880791 0.032599077 0.07884601 -0.06749137 -0.08477701 0.010509938 -0.020045206
-0.060218208 -0.03742082 -0.050433025 -0.08408137 0.018136634 -0.07892302 -0.055017553 -0.0052041686
0.033034775 -0.0933751 0.07623282 0.026651923 -0.011064559 0.107046455 -0.089192234 0.079558924
-0.03108317 0.048047904 0.03883829 -0.036612794 0.038580857 0.019868271 0.004148881 0.036092002
-0.034691054 -0.026429258 -0.08703407 -0.045830462 0.04330343 0.006843634 -0.081340894 0.017546117
-0.028090775 0.019511275 -0.052470032 0.023993246 -0.051567074 0.0044243634 -0.06241385 0.032915205
0.034787275 -0.07789009 -0.0064853653 0.013199225 -0.021743923 0.0008529946 -0.06257698 0.05391535
0.0420918 0.023663439 0.0014210269 0.07811952 -0.07441783 0.043209746 0.025081329 -0.01095368
0.035180144 -0.053822845 0.020886146 0.037123837 0.06868887 0.019421414 -0.019712739 -0.014490746
0.07323788 0.08434476 0.011747755 -0.06872265 0.005258605 0.001496233 -0.039100572 -0.07233588
-0.02183684 -0.02928695 -0.06924769 -0.0536151 -0.035347782 0.019338518 0.013353221 -0.07219691
-0.025126237 -0.067500114 -0.033120036 0.0359701 0.0057089627 0.055972606 -0.06926156 -0.0432838
-0.02081608 0.04949762 0.03636183 0.032785214 -0.06699698 0.04329224 0.022460781 0.06769805
0.08200976 -0.059938543 0.022707589 -0.053045675 0.063497484 0.02434896 0.027354442 -0.034620635
-0.0027226068 -0.13824646 0.04997997 -0.054959394 0.008427439 -0.007337536 -0.083997555 0.053997662
0.027075043 0.06844611 -0.11034336 -0.18264042 -0.07218674 0.23908168 0.21819574 -0.29305032
-0.10126788 -0.07601966 0.199362 0.20031424 -0.16886337 -0.16482382 -0.1796622 0.13884844
0.19644779 -0.078470156 -0.1566866 0.115241624 0.23804292 0.26806143 -0.19659732 -0.29446098
0.23791307 0.15405914 0.18056913 -0.24787317 -0.19556445 0.024028003 -0.05667716 0.1810201
-0.24734916 -0.28488332 0.034198146 0.030361325 0.24980403 -0.15412554 0.010782197 -0.009589656
0.095614806 0.18383124 0.0013221147 0.28053978 0.090350695 0.14521612 -0.12306628 -0.13082513
0.37580812 -0.06201668 0.00035436475 0.013381427 -0.20925617 0.3754087 -0.21635298 -0.2111022
0.308595 -0.11764331 0.06985081 0.007096336 0.053911027 0.22307998 -0.120400846 -0.19343874
0.22249524 0.24490419 0.15782972 -0.14331225 -0.17427093 -0.006173787 0.30582023 0.26567972
-0.22261642 -0.15309013 -0.099214725 0.29269734 0.13618577 -0.14725909 -0.24308354 -0.11777577
0.12708066 0.21113393 -0.2943422 -0.06646755 -0.23810372 0.23171687 0.12546556 -0.22560008
00000000: 80e4 e4bb 926b 17bd 364f 86bd 6429 923d
00000010: c074 ce3a 3289 8c3d d061 ffbb e0d4 cabc
00000020: 7a1f ad3d 70a9 cb3c e083 1cbb 007b 1bba
00000030: dc88 933d 0094 2439 dff4 a2bd f7d0 4bbd
00000040: 9c40 883c 80fa 28bc d0f4 e8bb f491 26bd
00000050: 74fb 81bd 53bd 29bd e26e 42bd b0ae a5bd
00000060: 0e36 7ebd 90ee 3c3c d8f3 73bc 50f3 503d
00000070: 3c39 293d 203c 023d 0654 6bbd 80ec 7dbd
00000080: 6c21 363d c066 703b 19dd 6abd db3e 81bd
00000090: bc64 8abc 2e1d 5cbd 7422 9c3c b0fb c9bb
000000a0: dca5 993c 787e 123d 792b 5bbd 6cb6 ec3c
000000b0: e2c8 9e3d 3cf7 ca3c 725f 3bbd 0c23 5abd
000000c0: d04c bf3b 0c13 9a3c 9c86 053d 047a a13d
000000d0: ea38 8abd 929f adbd e031 2c3c d835 a4bc
000000e0: 5ea7 76bd 9346 19bd dc92 4ebd da32 acbd
000000f0: 4793 943c 64a2 a1bd 165a 61bd bb87 aabb
00000100: 794f 073d 723b bfbd f41f 9c3d 2255 da3c
00000110: 2048 35bc 2c3b db3d 6baa b6bd caef a23d
00000120: 22a2 febc e1cd 443d e614 1f3d 4cf7 15bd
00000130: f606 1e3d c9c2 a23c 56f3 873b 35d5 133d
00000140: 3518 0ebd 2c82 d8bc eb3e b2bd b9b8 3bbd
00000150: f05e 313d 9040 e03b 0e96 a6bd e0bc 8f3c
00000160: a01e e6bc 1cd6 9f3c d1ea 56bd 7c8d c43c
00000170: ff37 53bd 40fa 903b aaa5 7fbd 18d2 063d
00000180: 1a7d 0e3d d784 9fbd 3083 d4bb 9041 583c
00000190: 5020 b2bc 809b 5f3a 5c28 80bd 58d6 5c3d
000001a0: 7468 2c3d d4d9 c13c c041 ba3a 20fd 9f3d
000001b0: 6068 98bd b4fc 303d 5c77 cd3c 1077 33bc
000001c0: 0e19 103d 5875 5cbd 6c19 ab3c 2a0f 183d
000001d0: c0ac 8c3d a819 9f3c 9c7c a1bc 986a 6dbc
000001e0: befd 953d f2bc ac3d a879 403c 76be 8cbd
000001f0: 6050 ac3b 401d c43a ec27 20bd d524 94bd
00000200: 2ce3 b2bc 30eb efbc bcd1 8dbd 829b 5bbd
00000210: d6c8 10bd d06b 9e3c 78c7 5a3c f9db 93bd
00000220: 8ad5 cdbc 803d 8abd e0a8 07bd 6255 133d
00000230: 4012 bb3b 8843 653d 01d9 8dbd 5b4a 31bd
00000240: 7c86 aabc 04be 4a3d 24f0 143d ca49 063d
00000250: b635 89bd 3453 313d acff b73c 46a5 8a3d
00000260: bcf4 a73d 1e82 75bd 4405 ba3c 6c46 59bd
00000270: f80a 823d 7877 c73c 6c16 e03c 5ece 0dbd
00000280: c36d 32bb 7b90 0dbe ccb7 4c3d 1a1d 61bd
00000290: 3e13 0a3c b76f f0bb e906 acbd a72c 5d3d
000002a0: 7bcc dd3c 792d 8c3d b3fb e1bd 1706 3bbe
000002b0: a4d6 93bd d4d1 743e b46e 5f3e b10a 96be
000002c0: 8965 cfbd 32b0 9bbd 8d25 4c3e 2d1f 4d3e
000002d0: 85ea 2cbe 93c7 28be 5ef9 37be 492e 0e3e
000002e0: 9c29 493e f6b4 a0bd 7472 20be cd03 ec3d
000002f0: 86c1 733e 593f 893e cf50 49be 97c3 96be
00000300: 7c9f 733e aec1 1d3e 1de7 383e 77d2 7dbe
00000310: 0c42 48be 60d6 c43c 4f26 68bd 555d 393e
00000320: 1949 7dbe 3adc 91be 5b13 0c3d 50b8 f83c
00000330: a1cc 7f3e 16d3 1dbe d0a7 303c ef1d 1dbc
00000340: b2d1 c33d 423e 3c3e cf4a ad3a e9a2 8f3e
00000350: c909 b93d 89b3 143e 2c0a fcbd 06f7 05be
00000360: ec69 c03e 3405 7ebd 08ca b939 c63d 5b3c
00000370: 4047 56be 9235 c03e a38b 5dbe 2d2b 58be
00000380: 2a00 9e3e faee f0bd f10d 8f3d 6288 e83b
00000390: cfd1 5c3d 146f 643e b894 f6bd ce14 46be
000003a0: cbd5 633e 2ac8 7a3e 1d9e 213e 72c0 12be
000003b0: 1474 32be 7b4d cabb 7894 9c3e 2c07 883e
000003c0: 8ff5 63be a9c3 1cbe 1731 cbbd 6ddc 953e
000003d0: 4874 0b3e 16cb 16be e4ea 78be 6c34 f1bd
000003e0: 6f21 023e 7e33 583e 05b4 96be 2420 88bd
000003f0: 76d1 73be 3047 6d3e 0b7a 003e b503 67be

StatefulPartitionedCall/sequential/dense/BiasAdd/ReadVariableOp:0 f4 [5]
0.21187569 -0.049706116 0.38353452 0.101880014 0.036744628
00000000: f1f5 583e a498 4bbd a35e c43e 78a6 d03d
00000010: 8981 163d
